Final/Jaison/Model_Evaluation_Code_Final/Model/LSTM/lstm_2025-06-23.pt (torch, 215145 bytes, 9 tensors)

lstm.weight_ih_l0 f4 [256, 11]
0	0xbe1c0777	-0.15237223
1	0x3d58fa52	0.0529731
2	0x3df3f0ec	0.119111866
3	0x3cb36f6e	0.02190372
4	0x3de07a29	0.109608
5	0xbcb4f43c	-0.022089116
6	0xbe245d0e	-0.16051123
7	0x3db1ab41	0.08675242
8	0xbfa26104	-1.2685857
9	0xbcea18c0	-0.028576255
10	0xbdcc3404	-0.09970859
11	0x3d704c2c	0.058666393
12	0x3d72ec60	0.059307456
13	0x3d90a039	0.0706181
14	0x3d61c861	0.055122737
15	0xbeb292e1	-0.34877685
16	0xbe1ca199	-0.1529602
17	0x3e2fd0bf	0.17169474
18	0x3dca8d96	0.098902866
19	0x3e6feb07	0.234295
20	0xbdb4c9cd	-0.08827553
21	0x3c2b3a5c	0.010450926
22	0x3ea94552	0.330607
23	0xbd960d08	-0.07326704
24	0x3d47655a	0.04868064
25	0xbbc41e6d	-0.0059850723
26	0xbe8629f8	-0.26203895
27	0xbef3839a	-0.47561342
28	0xbe01d9ec	-0.12680787
29	0x3d3db8e6	0.04631891
30	0xbf7a3fb3	-0.9775345
31	0xbef638f7	-0.48090336
32	0xbe939c0d	-0.28829995
33	0x3dc9cf68	0.09854013
34	0xbb73eec0	-0.0037221164
35	0xbd121427	-0.03566375
36	0x3dcb4b49	0.09926469
37	0xbe4acd8e	-0.19804975
38	0x3d4ee7b7	0.05051395
39	0x3e1d9059	0.15387096
40	0x3db0612b	0.08612283
41	0x3dc231dc	0.09482166
42	0x3dcbdef9	0.09954638
43	0x3dbf6bc8	0.093467295
44	0xbdcd2b20	-0.10017991
45	0x3dd8accf	0.105798356
46	0x3e4a7d43	0.19774346
47	0x3dc5b94a	0.09654482
48	0xbd1b52eb	-0.037920874
49	0x3d56e6dd	0.052466262
50	0x3e049b29	0.12949814
51	0x3d1d56cf	0.038412865
52	0x3dfa61d7	0.12225693
53	0x3e324b62	0.17411569
54	0xbca2dccd	-0.019880677
55	0xbe17b94e	-0.14816782
56	0x3dd5bd9b	0.10436555
57	0x3e37b48e	0.1793997
58	0x3cddbbe4	0.027067132
59	0x3ea832a0	0.32851124
60	0xbe02195f	-0.12704991
61	0x3bb04d92	0.005380341
62	0x3e2e7958	0.17038476
63	0x3e67f132	0.22650602
64	0x3d9ff5fc	0.0781059
65	0xbe0aaee2	-0.13543275
66	0xbdea1201	-0.11429215
67	0x3a9f2dfd	0.0012144443
68	0x3d11bff5	0.035583455
69	0xbd2022af	-0.039095577
70	0xbdc72db9	-0.09725518
71	0xbe1bad6c	-0.15202874
72	0xbcf519a5	-0.029919455
73	0x3c5ad8d7	0.013357363
74	0xbf2af365	-0.6677764
75	0xbe8dd9ee	-0.2770533
76	0xbd592464	-0.05301322
77	0xbd81c9c5	-0.063373126
78	0xbd06a39b	-0.03287087
79	0x3e21534a	0.15754429
80	0xbc8062f6	-0.015672188
81	0xbf00bd78	-0.50289106
82	0xbda8326f	-0.082127444
83	0x3e0ed982	0.1395016
84	0xbda56792	-0.08076395
85	0x3e41d26a	0.18927923
86	0xbd53d0dd	-0.05171286
87	0xbd7ddcf9	-0.061978314
88	0x3e15a2fa	0.14612952
89	0x3e3fc8ad	0.18728895
90	0x3df5d688	0.12003809
91	0x3cadc592	0.021212373
92	0x3d615a3d	0.0550177
93	0x3d8c9073	0.06863489
94	0x3e3dc03b	0.18530361
95	0x3ddd64f7	0.10810273
96	0xbdd18ffc	-0.10232541
97	0x3da0122a	0.078159645
98	0x3d78654a	0.06064347
99	0x3e457b5b	0.19285338
100	0x3e5722b5	0.21009333
101	0x3ca13d42	0.01968253
102	0x3dd69164	0.1047695
103	0x3db506cd	0.08839188
104	0xbb65d212	-0.0035067839
105	0xbbf57bcb	-0.007491564
106	0x3e2a26ba	0.16616336
107	0x3e4d0ff0	0.20025611
108	0x3e0f2edc	0.13982719
109	0xbb27e9f5	-0.0025621627
110	0x3db8f0ed	0.09030328
111	0x3e58baa9	0.21164955
112	0x3c1e2dec	0.009654503
113	0x3d178f3c	0.037001833
114	0x3cf858ac	0.03031572
115	0x3d3cb106	0.04606726
116	0xbd0a5562	-0.033772834
117	0x3d0fdc34	0.03512211
118	0xba81b263	-0.0009895082
119	0x3e0c6cf9	0.13713445
120	0xbdab6c34	-0.083702475
121	0xbe2c9f3d	-0.1685762
122	0x3e57c210	0.21070123
123	0x3e58588c	0.21127528
124	0x3e4a06a4	0.19729096
125	0xbe8781b6	-0.2646615
126	0x3b79c6bb	0.0038112837
127	0x3c498a18	0.0123009905
128	0xbc747d96	-0.01492252
129	0xbd9eb49f	-0.077492945
130	0x3e47a8a4	0.19497925
131	0x3cfb45c1	0.03067291
132	0x3c9c2d0c	0.019064449
133	0x3ddbb1f2	0.107273
134	0xbc714c8b	-0.014727722
135	0xbd42619e	-0.047456376
136	0xbe5b4ec9	-0.21416773
137	0x3d3eb180	0.046555996
138	0x3e36a478	0.17836177
139	0x3dae5b9e	0.08513568
140	0x3d83569a	0.06413002
141	0xbbd78b8b	-0.006577914
142	0x3d453684	0.048147693
143	0x3dd95dbb	0.10613581
144	0x3d0b4383	0.03399993
145	0x3dc8444b	0.09778651
146	0xbd59ffef	-0.053222593
147	0xbe5e5cab	-0.21715038
148	0xbe38c2a5	-0.18043001
149	0xbde0aa23	-0.10969951
150	0xbdbc73a0	-0.09201741
151	0xbeba9afc	-0.3644637
152	0xbe0bf71f	-0.13668488
153	0xbe067c08	-0.13133252
154	0x3dac01d9	0.0839879
155	0xb98edc11	-0.00027248313
156	0x3e2744dc	0.16334862
157	0xbd910c91	-0.07082475
158	0xbe1536a3	-0.14571624
159	0x3e00b437	0.12568747
160	0x3e3e1ef0	0.18566489
161	0xbce1c77b	-0.02756094
162	0x3e53c0c8	0.20679009
163	0xbd27719c	-0.04087983
164	0xbd132813	-0.03592689
165	0x3e9d1ce3	0.306861
166	0x3da8d2f0	0.08243358
167	0x3d651416	0.05592736
168	0x3d962774	0.07331744
169	0x3e370c60	0.17875814
170	0x3d9ed2ea	0.077550724
171	0x3e304130	0.17212367
172	0x3e1c8efd	0.1528892
173	0x3e35da7d	0.17759128
174	0x3dc97df5	0.098384775
175	0xbd27ecf7	-0.04099747
176	0xbe019238	-0.12653434
177	0x3e3911b8	0.18073165
178	0x3d506597	0.050878134
179	0x3cc0f71f	0.023555337
180	0xbd4e9ce6	-0.0504426
181	0x3de39e4e	0.111141786
182	0x38998255	7.319885e-05
183	0xbd05a566	-0.03262844
184	0x3e20ef0a	0.15716186
185	0x3dc089af	0.09401261
186	0xbc2cb7cd	-0.010541868
187	0xbc3ab4f7	-0.011395684
188	0x3c487031	0.01223378
189	0x3ded697f	0.115923874
190	0xbd571243	-0.05250765
191	0xbea90363	-0.33010396
192	0x3c937624	0.01800067
193	0x3e38dd33	0.18053131
194	0x3bb00021	0.005371109
195	0x3e8101bd	0.2519664
196	0x3d75423a	0.05987761
197	0xbd81f04c	-0.06344661
198	0x3e1b4e1b	0.15166514
199	0x3e251fd0	0.16125417
200	0x3e150ab4	0.14554864
201	0xbdc29fb6	-0.09503119
202	0x3ddfaa33	0.10921135
203	0x3d486c75	0.048931558
204	0x3da4b8ee	0.08043085
205	0x3cf4c3a4	0.029878445
206	0xbe5ccfe8	-0.21563685
207	0x3ccdcf52	0.025123272
208	0xbc15bb07	-0.009138829
209	0x3df2d84c	0.118576616
210	0x3cac1a13	0.021008527
211	0x3ddb1748	0.106978
212	0xbd9574e2	-0.07297684
213	0xbd1f6146	-0.038911127
214	0xbdf19bd2	-0.117972985
215	0x3d995fe6	0.07488994
216	0xbd20ae34	-0.039228633
217	0xbea11063	-0.31457815
218	0x3c4a6e8b	0.012355457
219	0xbd262128	-0.040558964
220	0xbd778206	-0.060426734
221	0x3e5e5068	0.2171036
222	0x3dcb1078	0.099152505
223	0xbc7177ee	-0.014738066
224	0x3d68fa18	0.056879133
225	0x3d8af62a	0.06785233
226	0x3da5aac2	0.0808921
227	0xbd37ce26	-0.044874333
228	0x3db372b7	0.087621145
229	0xbdf62949	-0.12019593
230	0x3c861ffe	0.016372677
231	0x3eb8ac8f	0.36069152
232	0xbd8c7a14	-0.06859222
233	0xbe1c5b73	-0.1526926
234	0xbda422a8	-0.08014423
235	0x3e89aa24	0.2688762
236	0xbeb1ef43	-0.34752855
237	0xbe551fca	-0.20812908
238	0x3d73dabe	0.05953478
239	0xbd755724	-0.059897557
240	0xbe1a6fe1	-0.15081741
241	0xbc575c54	-0.013144571
242	0xbe88619f	-0.2663698
243	0xbe51f5e6	-0.20503959
244	0xbe2f7213	-0.1713336
245	0xbe1bbf9a	-0.15209809
246	0xbe00259a	-0.12514344
247	0xbbf4abc5	-0.0074667656
248	0xbe7027e5	-0.23452719
249	0xbe4e51fe	-0.20148465
250	0x3b8d6895	0.0043154457
251	0xbe7d46ee	-0.24734089
252	0xbd944f6e	-0.072417125
253	0x3d47affd	0.04875182
254	0xbc5ec6fa	-0.013597244
255	0xbe3d1bbd	-0.18467613

lstm.weight_hh_l0 f4 [256, 64]
0	0xbd90e2bc	-0.07074496
1	0x3e608d78	0.21928966
2	0x3e995d96	0.29954213
3	0xbd9f04f3	-0.07764616
4	0xbe1aff38	-0.1513642
5	0x3c2be007	0.010490424
6	0x3db4c8fe	0.08827399
7	0xbe4f0ffd	-0.20220943
8	0xbe3daab7	-0.18522154
9	0xbe1910f4	-0.14947873
10	0x3d0a5b51	0.033778492
11	0xbd66eaba	-0.056376196
12	0x3c751761	0.014959187
13	0xbe51a315	-0.20472367
14	0x3dd42683	0.10358908
15	0xbe235d7c	-0.1595363
16	0x3d32ecd9	0.043682907
17	0x3c7adc0a	0.01531125
18	0xbe1e9241	-0.15485479
19	0x3d0f1ff1	0.03494257
20	0xbe337b83	-0.17527585
21	0xbdd05d63	-0.10174062
22	0xbe019085	-0.12652786
23	0x3d245676	0.040121518
24	0xbe55eb2a	-0.20890489
25	0x3dc047b1	0.09388674
26	0x3dbbd404	0.09171298
27	0xbd979038	-0.074005544
28	0x3cb09013	0.021553075
29	0x3d4590b1	0.04823369
30	0x3cb0a55c	0.021563224
31	0x3e109a2f	0.14121316
32	0xbd7c9393	-0.061664175
33	0xbd57c933	-0.052682113
34	0xbe409d69	-0.18810047
35	0x3ce0cfb2	0.027442787
36	0x3e669344	0.22517115
37	0xbb3f5229	-0.0029193258
38	0x3ca46a66	0.020070266
39	0xbe148556	-0.14503989
40	0x3d7df885	0.062004585
41	0xbe4d2a5d	-0.20035692
42	0x3cdd3e1a	0.027007151
43	0xbd0872a9	-0.033312473
44	0xbc96683c	-0.01836025
45	0x3dd6e4aa	0.10492833
46	0x3e26088b	0.16214196
47	0x3e08f491	0.13374545
48	0x3e19cf73	0.15020542
49	0xbd94013b	-0.07226797
50	0xbce30571	-0.027712556
51	0xbd2895ec	-0.0411586
52	0x3d7050ef	0.058670934
53	0xbd05c6b5	-0.032660205
54	0xbcd042a6	-0.025422405
55	0x3dcf1443	0.101112865
56	0x3d0bcbff	0.034130093
57	0x3db1614a	0.086611345
58	0xbe322346	-0.17396268
59	0xbc4e599b	-0.012594606
60	0x3e874ce0	0.26425838
61	0x3b6ab54d	0.003581363
62	0xbe605b16	-0.21909747
63	0xbe21ee09	-0.1581346
64	0xbd4bebf8	-0.049785584
65	0xbe09f30e	-0.13471624
66	0x3d19b9d8	0.03753075
67	0x3d9a168f	0.07523834
68	0x3df74766	0.12074165
69	0xbdc2eb80	-0.09517574
70	0x3e131de6	0.14366874
71	0xbc04af8a	-0.008098492
72	0x3df4fb6a	0.11962016
73	0x3e4981d8	0.19678438
74	0xbdadcaa3	-0.084859155
75	0x3df24975	0.11830417
76	0xbe09a2ff	-0.13441084
77	0xbd8b2b4c	-0.067953676
78	0xbc4a9100	-0.012363672
79	0x3dd8dc3e	0.10588883
80	0xbc10196c	-0.008795124
81	0x3d8c3c50	0.06847441
82	0x3e2ff854	0.17184573
83	0x3e4066ea	0.18789259
84	0x3dc02a31	0.09383047
85	0x3e295aaa	0.16538492
86	0xbe274f3f	-0.16338824
87	0xbe1328bd	-0.14371009
88	0xbd1f9a1d	-0.038965333
89	0x3d7b01da	0.061281063
90	0xbdb32384	-0.087470084
91	0x3d8f4e69	0.069973774
92	0xbcd7092d	-0.026249493
93	0xbe106962	-0.141027
94	0xbd40b05c	-0.04704319
95	0xbda2034a	-0.079107836
96	0x3d277f49	0.040892873
97	0x3df07409	0.11740882
98	0x3d9f0ba5	0.07765893
99	0xbc71b0c0	-0.014751613
100	0xbdca60a2	-0.098817125
101	0xbdb4d7a0	-0.0883019
102	0x3de813d0	0.11331904
103	0x3e0029e8	0.12515986
104	0x3d209eb6	0.03921386
105	0x3dfe898a	0.12428577
106	0x3d9ec7b3	0.07752933
107	0xbd8dac50	-0.069176316
108	0xbd842310	-0.06452
109	0xbc605d58	-0.01369413
110	0x3c871e38	0.016493902
111	0xbe124218	-0.14283025
112	0x3b7c804b	0.0038528617
113	0x3dc30c82	0.0952387
114	0x3e12da09	0.14340986
115	0xbccba48a	-0.024858732
116	0xbe3afb30	-0.18259883
117	0xbd9d1ff2	-0.07672109
118	0x3d27e1c1	0.04098678
119	0xbe0f29fd	-0.13980861
120	0xbdac32c9	-0.08408124
121	0xbbef2ffb	-0.007299421
122	0xbdd872b0	-0.1056875
123	0xbd9c3924	-0.07628086
124	0x3e098964	0.13431317
125	0x3e16b6a7	0.14718114
126	0xbcad3f75	-0.021148423
127	0x3e7a1e13	0.24425535
128	0xbed5c19b	-0.41749272
129	0x3f026254	0.50931287
130	0x3ee27ce0	0.44235897
131	0x3b84361c	0.0040347707
132	0x3d14fb1a	0.03637228
133	0x3c5e3b4f	0.013563945
134	0x3ec56075	0.38550153
135	0xbe1c8835	-0.15286334
136	0xbd4b0f78	-0.0495753
137	0xbe418c0d	-0.18901081
138	0x3e329092	0.17437962
139	0x3dffa832	0.124832526
140	0xbcb271fa	-0.021782864
141	0xbe4765c0	-0.19472408
142	0x3d41263e	0.04715561
143	0xbe12c4c7	-0.14332877
144	0x3e21bab8	0.15793884
145	0x3e2f339c	0.17109531
146	0xbe165d02	-0.14683917
147	0x3dfa9637	0.122356825
148	0x3d6007ab	0.054694813
149	0xbdb57b93	-0.088614605
150	0xbe3f0c2a	-0.18656984
151	0xbe4ebe56	-0.20189795
152	0xbdbfb584	-0.09360793
153	0x3e9ff1ed	0.31239262
154	0xbe7749f6	-0.24149308
155	0x3b9f9a39	0.0048706797
156	0x3d2f7d38	0.042844027
157	0xbd447d96	-0.04797133
158	0x3dd27767	0.102766804
159	0x3ed76b2c	0.42073953
160	0xbe47200d	-0.1944582
161	0x3e28f8bd	0.16501136
162	0x3d775609	0.060384784
163	0x3d1eae23	0.03874029
164	0x3ee7e4fc	0.4529189
165	0xbe1747ec	-0.1477353
166	0xbde29eb8	-0.110654294
167	0x3dc4c50b	0.096078955
168	0x3df57d36	0.11986773
169	0xbea5404b	-0.32275614
170	0x3e978429	0.29593018
171	0xbca38752	-0.019961987
172	0x3ece191b	0.4025353
173	0xbddf3957	-0.108996086
174	0xbd71eb4c	-0.059062287
175	0x3e0a6596	0.13515314
176	0x3d7f2878	0.062294453
177	0xbe35a7f0	-0.17739844
178	0xbe9d325f	-0.30702493
179	0xbe0c15d2	-0.13680199
180	0x3dbb77c8	0.09153706
181	0xbd836327	-0.06415396
182	0x3de5af67	0.11215096
183	0x3e551069	0.20807041
184	0x3e12e3bf	0.1434469
185	0x3e399ec8	0.18126976
186	0xbed6ee3f	-0.41978642
187	0xbe3fc76d	-0.18728419
188	0x3ec53b8c	0.38521993
189	0xbdb0010a	-0.08593948
190	0xbe2022ff	-0.1563835
191	0xbec064dc	-0.3757695
192	0x3d3c858f	0.04602581
193	0xbc442b3f	-0.011973201
194	0x3d8dbcdc	0.06920788
195	0xbd3006ba	-0.042975165
196	0xbcbd791f	-0.023129044
197	0x3dc7c92b	0.097551666
198	0xbdbe5b31	-0.09294737
199	0xbdab4d2b	-0.08364328
200	0x3d4d43e7	0.050113585
201	0x3d6d3e68	0.057920843
202	0xbdd2a328	-0.10285026
203	0x3e064ff0	0.13116431
204	0x3d85d88b	0.06535443
205	0x3d6a30e9	0.05717555
206	0xbdd00dc1	-0.10158873
207	0x3c44447b	0.011979218
208	0x3d021d04	0.031765953
209	0xbdcb4840	-0.0992589
210	0xbd958c46	-0.07302146
211	0x3caac182	0.020844225
212	0x3de9a2c4	0.11407998
213	0x3d7b82e3	0.06140412
214	0xbdd764dd	-0.10517285
215	0x3d941827	0.07231169
216	0xbcf87c5b	-0.030332735
217	0xbc1c6da3	-0.009547624
218	0xbe2dff00	-0.16991806
219	0x3da1a666	0.07893066
220	0x3daf0c71	0.08547295
221	0x3d7c62f9	0.061617825
222	0x3da10007	0.07861333
223	0x3da3f014	0.08004776
224	0x3d7d2360	0.061801314
225	0xbcf7e14d	-0.030258799
226	0x3d0e536f	0.034747537
227	0x3d967811	0.073471196
228	0x3d319aa9	0.043360386
229	0x3d90c728	0.07069236
230	0x3dd10ade	0.10207151
231	0x3cd5dd65	0.026106546
232	0xbd66ddb8	-0.05636379
233	0xbd7964fd	-0.060887326
234	0x3dcc6173	0.099795245
235	0x3e01a5cc	0.12660903
236	0x3bfd6e3b	0.0077340878
237	0xbe32aa69	-0.17447819
238	0x3d807f09	0.0627423
239	0x3cb65d28	0.022261217
240	0xbe128b37	-0.14310919
241	0xbdcf80a0	-0.10131955
242	0xbddf209b	-0.10894891
243	0xbd48b56e	-0.04900115
244	0x3d935073	0.07193079
245	0x3d7f290b	0.062295
246	0xbe0b14b0	-0.1358211
247	0xbd2659ac	-0.04061286
248	0xbd7ba661	-0.06143797
249	0xbd6d3e32	-0.057920642
250	0xb9fbe57d	-0.00048045433
251	0x3c5b8b20	0.013399869
252	0x3d7dc776	0.0619578
253	0xbd8b1c12	-0.06792463
254	0xbc8dfa1f	-0.017331181
255	0x3c211696	0.009832045

lstm.bias_ih_l0 f4 [256]
0	0xbdde56cb	-0.10856398
1	0xbdd0b718	-0.10191172
2	0x3b4dd9b6	0.0031410283
3	0x3de76e4b	0.113003336
4	0xbde2c7cf	-0.11073267
5	0xbe150021	-0.1455083
6	0xbe4b3be8	-0.19847071
7	0xbc2759ba	-0.010214264
8	0xbd9b1260	-0.07571864
9	0xbd3bb549	-0.045827184
10	0x3d685583	0.056722175
11	0x3d4594b4	0.048237517
12	0x3da55a7e	0.08073901
13	0xbdd8768a	-0.105694845
14	0xbd070ab4	-0.03296919
15	0x3d908457	0.07056492
16	0x3dd35f0e	0.103208646
17	0xbc913c4f	-0.017728953
18	0xbda9b14d	-0.082857706
19	0xbd8c1bb2	-0.0684122
20	0x3c859fc2	0.01631153
21	0xbd9ddca0	-0.077080965
22	0xbe12c8a2	-0.14334348
23	0xbe1deae0	-0.15421629
24	0x3d325edb	0.043547492
25	0xbabe1230	-0.001450127
26	0x3d52dc1d	0.051479448
27	0xbdc0c004	-0.09411624
28	0x3cd993c8	0.026559725
29	0xbe12b763	-0.14327769
30	0xbcdd2503	-0.026995188
31	0xbdb9f55c	-0.09080002
32	0xbe1d052d	-0.15334006
33	0xbe16a754	-0.14712268
34	0x3e063a52	0.13108185
35	0xbd5dfa83	-0.054193985
36	0x3d38f259	0.045152996
37	0xbcf56dea	-0.029959638
38	0xbd7631de	-0.06010615
39	0x3d2743bb	0.040836077
40	0xbcb4ce6a	-0.022071082
41	0xbe858760	-0.26079845
42	0x3d99f056	0.075165436
43	0xbd5cf705	-0.053946514
44	0xbe24e429	-0.16102661
45	0xbd487831	-0.04894275
46	0x3cad36a5	0.02114422
47	0x3d3ba91b	0.04581557
48	0xbdd2da87	-0.10295587
49	0x3d07e35f	0.033175822
50	0x3d220b9f	0.039561864
51	0x3c95fac6	0.018308055
52	0xbd8558ab	-0.06511053
53	0xbdc28968	-0.094988644
54	0xbe057194	-0.13031608
55	0xbdcb6f69	-0.09933359
56	0xbc4fc3c5	-0.012680952
57	0xbd4df23e	-0.05027985
58	0xbe039aae	-0.12851974
59	0x3d99f3e9	0.07517225
60	0x3d119b70	0.035548627
61	0xbc0391cb	-0.008030365
62	0x3c8f9be8	0.017530397
63	0x3dcee0e5	0.10101489
64	0xbd162b4c	-0.036662385
65	0xbe43cc66	-0.1912094
66	0x3de82464	0.11335066
67	0xbd94231b	-0.07233258
68	0xbd565a3c	-0.052332148
69	0x3d3a6262	0.04550398
70	0xbdd028ba	-0.10164018
71	0x3d9cbe31	0.07653464
72	0x3ca28568	0.019839004
73	0x3c9f0c42	0.019415025
74	0x3d753035	0.059860427
75	0xbdb9fc04	-0.09081271
76	0xbe06852b	-0.13136737
77	0x3b375e20	0.0027979687
78	0xbe04409a	-0.12915269
79	0x3d8b6f73	0.068083666
80	0x3cfeaaef	0.031087367
81	0xbab7a0a4	-0.0014009667
82	0x3cf29d06	0.02961589
83	0x3d6679a4	0.05626835
84	0x3d1be610	0.0380612
85	0x3c76d66b	0.01506577
86	0xbe5075cf	-0.2035744
87	0xbe1f1958	-0.15537012
88	0xbe142b1a	-0.14469567
89	0x3d93fdec	0.07226166
90	0x3de8bafa	0.11363788
91	0xbe223ba5	-0.15843065
92	0xbdb75e86	-0.08953576
93	0xbc97ecb8	-0.018545493
94	0x3ce2f43e	0.027704354
95	0xbdf5889b	-0.11988946
96	0xbce20034	-0.027587987
97	0xbd959c09	-0.07305152
98	0xbd819696	-0.0632755
99	0xbda60d62	-0.08108021
100	0xbd95ef89	-0.07321078
101	0x3d7960a0	0.060883164
102	0xbdf2bfde	-0.11853002
103	0xbd5d47d2	-0.05402357
104	0x3dc98220	0.098392725
105	0xbd35dff8	-0.044403046
106	0x3d0de3eb	0.034641188
107	0x3d2ed365	0.04268207
108	0xbdebf583	-0.11521437
109	0xbdd50e19	-0.104030795
110	0x3baae7a8	0.005215604
111	0xbd897e3c	-0.067135304
112	0xbd8319a6	-0.064013764
113	0xbd0904b1	-0.03345174
114	0x3d30133d	0.042987097
115	0xbbfa96aa	-0.007647355
116	0xbd825c20	-0.06365228
117	0xbe3c0024	-0.18359429
118	0xbdd16c97	-0.1022579
119	0xbdb76f63	-0.08956792
120	0xbe1160de	-0.14197108
121	0xbd9a9ee0	-0.07549834
122	0x3c835213	0.016030347
123	0x3c35307b	0.011058922
124	0xbe3614eb	-0.17781417
125	0xbe303cb2	-0.17210653
126	0xbcf5c1d2	-0.029999647
127	0xbdd32050	-0.103088975
128	0xbcd531b3	-0.026024675
129	0x3d38e700	0.045142174
130	0x3b5cb7a7	0.0033678801
131	0xbd7025c0	-0.05862975
132	0x3d01e89c	0.031715974
133	0x3d3e7425	0.046497483
134	0xbd4f2f31	-0.050582115
135	0x3d42b08c	0.04753165
136	0x3dce1821	0.10063196
137	0xbdc5e703	-0.096632026
138	0x3de50db3	0.111842535
139	0xbcee453f	-0.029085753
140	0xbc3429bf	-0.010996281
141	0xbb8fc30d	-0.0043872655
142	0x3c95e18d	0.018296028
143	0xbd083628	-0.033254772
144	0xbda98e79	-0.08279128
145	0x3d3948b0	0.045235336
146	0xbd14bf72	-0.03631539
147	0xbb8ca9c9	-0.004292701
148	0x3d9f8449	0.07788903
149	0x3d87391e	0.06602691
150	0xbd520aae	-0.051279716
151	0x3c9fa7ad	0.019489134
152	0xbde9a5ef	-0.114086024
153	0xbd8f474e	-0.06996022
154	0xbd540e98	-0.05177173
155	0x3c6c4910	0.014421716
156	0x3ce0252a	0.027361471
157	0x3a01bea8	0.00049493695
158	0x3d80465d	0.06263421
159	0xbd85ebd0	-0.06539118
160	0x3d39bf69	0.04534856
161	0x3cb476cd	0.022029305
162	0x3db3f0fd	0.08786199
163	0x3d939d68	0.07207757
164	0x3d87b718	0.06626719
165	0xbd6d34c6	-0.057911657
166	0x3d888ab5	0.06667081
167	0x3d7a6cbf	0.061138865
168	0x3d6efae4	0.058344737
169	0xbda6d821	-0.08146692
170	0x3d79bb0a	0.06096939
171	0x3d3d6416	0.046238028
172	0x3d33dc20	0.0439111
173	0x3d93aecd	0.07211075
174	0xbd63fd14	-0.055661276
175	0x3d8322ad	0.06403098
176	0xbb92d121	-0.0044804965
177	0xbc6486c9	-0.013948151
178	0xbca0bdf6	-0.01962183
179	0x3d2cd081	0.042191032
180	0xbd348e44	-0.044080988
181	0x3d41827a	0.047243573
182	0x3b966819	0.004590046
183	0x3cb105fd	0.0216093
184	0x3ad62307	0.0016337343
185	0xbdaeeedf	-0.08541655
186	0x3cac72ee	0.021050896
187	0xbd1f8d7d	-0.038953293
188	0xbdcad648	-0.09904152
189	0xbd002f9b	-0.0312954
190	0x3c551bc7	0.013007111
191	0xbdf301d1	-0.11865581
192	0xbe2cdc11	-0.16880824
193	0xbd9b6971	-0.07588471
194	0x3d24a802	0.040199287
195	0xbd8deb0b	-0.069295965
196	0x3d5457c0	0.051841497
197	0xbdc747b6	-0.09730475
198	0xbe179a85	-0.14805038
199	0x3b9719af	0.004611216
200	0x3d0f5885	0.03499653
201	0xbca8d9cf	-0.020611672
202	0xbdc5e219	-0.09662265
203	0x3da52cfa	0.08065219
204	0xbd6ae299	-0.057345007
205	0xbd6b5879	-0.05745742
206	0x3db3ecdd	0.087854125
207	0x3e167785	0.1469403
208	0x39de5bd8	0.0004241157
209	0xbcde5e56	-0.027144592
210	0xbe1a8c0a	-0.15092483
211	0x3b8dce33	0.0043275594
212	0xbdb610a3	-0.08889892
213	0xbdb6eb6b	-0.08931621
214	0xbe8f4f84	-0.27990353
215	0xbda16bab	-0.07881864
216	0xbc38855c	-0.011262264
217	0x3cc8366c	0.024440013
218	0x3d16addf	0.03678691
219	0xbcbe9896	-0.023266118
220	0xbcbace92	-0.022803579
221	0x3c89a164	0.01680059
222	0xbdb74590	-0.08948815
223	0xbd6d807d	-0.057983864
224	0xbe4171b6	-0.18891034
225	0x3d9bf0b8	0.07614273
226	0x3ddcec8f	0.107873075
227	0xbdcb7c36	-0.09935801
228	0xbe430c3f	-0.1904764
229	0xbe05ea55	-0.13077672
230	0xbd31f9fe	-0.0434513
231	0x3dc42c48	0.095787585
232	0x3ddf26fe	0.10896109
233	0xbd70a0b7	-0.05874702
234	0xbd996265	-0.074894704
235	0x3c20f43d	0.009823856
236	0xbe00f13c	-0.12592024
237	0xbc413aac	-0.011793774
238	0x3dba9a68	0.09111482
239	0xbd16bcf2	-0.036801286
240	0xbdbdc1dd	-0.09265492
241	0x3cc7b416	0.024377864
242	0xbdfa58f3	-0.12223997
243	0x3da52193	0.080630444
244	0xbd38713b	-0.04502986
245	0xbe2b0f59	-0.16705073
246	0xbdd48bbf	-0.10378217
247	0x3dc4c1c3	0.096072696
248	0xbe0efd48	-0.13963807
249	0xbdee479d	-0.11634753
250	0xbe4640f6	-0.19360718
251	0xbd4a828b	-0.0494409
252	0x3d5b9665	0.053610224
253	0xbc122478	-0.008919828
254	0xbe09e74a	-0.13467136
255	0xbd9673dd	-0.07346318

lstm.bias_hh_l0 f4 [256]
0	0xbb733666	-0.0037111281
1	0xbdb20117	-0.08691614
2	0x3adfaa4c	0.0017064302
3	0x3c4a267e	0.012338279
4	0x3d9a7add	0.075429656
5	0x3d0aef28	0.033919483
6	0xbcdebc1e	-0.02718931
7	0xbde2cc56	-0.1107413
8	0x3ba26ee5	0.0049570673
9	0x3e03d3bd	0.1287374
10	0x3c8e7493	0.017389571
11	0xbdcccb3a	-0.099997
12	0x3c788a9d	0.015169767
13	0xbe1dbbcd	-0.15403672
14	0xbdb9d645	-0.09074072
15	0x3d5446f0	0.051825464
16	0xbdde2775	-0.108473696
17	0xbde3fed0	-0.11132586
18	0xbdad1157	-0.08450573
19	0x3bf82478	0.007572707
20	0xbd8e489b	-0.06947442
21	0x3c16af6f	0.0091971
22	0xbdcad6d7	-0.09904259
23	0xbe48cf98	-0.1961044
24	0xbe23093d	-0.15921493
25	0xbdc6edb5	-0.09713308
26	0xbd855d04	-0.06511882
27	0xbe0068c6	-0.12539968
28	0xbdf6569d	-0.12028239
29	0x3d70f8e8	0.058831125
30	0xbdc1db71	-0.09465683
31	0x3c66a5f1	0.014077649
32	0xbe03eaa2	-0.12882474
33	0xbcb96468	-0.022630885
34	0xbdd7192e	-0.105028495
35	0x3ab2a3a2	0.0013629089
36	0xbdb2e449	-0.08734948
37	0x3aa3eb13	0.0012505971
38	0xbd14ed3c	-0.036359057
39	0xbdb19592	-0.086711064
40	0x3cd24220	0.025666296
41	0xbdc39580	-0.09549999
42	0xbdcaaed2	-0.098966256
43	0xbd3cbf1f	-0.046080705
44	0xbd800b45	-0.062521495
45	0xbda90f30	-0.0825485
46	0xbc18f929	-0.009336748
47	0xbc0fff53	-0.008788901
48	0xbc8ab53c	-0.016932122
49	0x3cf01382	0.029306177
50	0xbc0df645	-0.008664672
51	0x3c57787e	0.013151286
52	0x3ce1c3c0	0.027559161
53	0xbe305fe4	-0.1722408
54	0xbe30505b	-0.17218153
55	0x3d621a9f	0.05520117
56	0x3c423e2b	0.011855642
57	0xbce64188	-0.02810742
58	0xbdfc0ff5	-0.12307731
59	0x3d76ca1c	0.06025134
60	0xbdd40ecd	-0.103543855
61	0xbcc3be62	-0.023894493
62	0xbdb2af45	-0.08724836
63	0xbe0a8009	-0.13525404
64	0xbde34fa6	-0.11099176
65	0xbe99be92	-0.30028206
66	0x3db4ed0f	0.08834278
67	0x3da57930	0.08079755
68	0xbdb67bf9	-0.08910365
69	0xbe007245	-0.1254359
70	0xbd1f6975	-0.03891893
71	0x3da5122d	0.080601074
72	0x3db24a29	0.08705551
73	0xbd76d4e1	-0.06026161
74	0xbc63a1e7	-0.013893581
75	0xbd8bc942	-0.06825496
76	0xbc261467	-0.0101367
77	0xbd726871	-0.059181634
78	0xbc910cdc	-0.017706327
79	0x3db63a85	0.088978805
80	0x3dc41f46	0.095762774
81	0xbd80e820	-0.06294274
82	0x3d117c97	0.03551921
83	0xbcccffb4	-0.025024273
84	0xbdbd91bd	-0.09256313
85	0x3e02832b	0.12745349
86	0xbd8281d1	-0.06372417
87	0x3bbd333c	0.00577393
88	0xbd1d0c30	-0.0383417
89	0xbd05b4e8	-0.03264323
90	0xbd815b24	-0.06316212
91	0x3c757c3e	0.014983235
92	0x3c77ee0a	0.0151324365
93	0x3d1f630e	0.038912825
94	0xbd3d8a61	-0.046274547
95	0xbd12a73b	-0.035804015
96	0x3d9c1193	0.076205395
97	0x3d8af782	0.067854896
98	0x3d3a4b0c	0.045481727
99	0x3c486243	0.012230459
100	0xbd6097a3	-0.054832112
101	0xbc56024a	-0.013062069
102	0xbd454c68	-0.04816857
103	0xbdf37e09	-0.11889274
104	0x3df83b11	0.12120641
105	0xbe63fc9d	-0.22264333
106	0xbdb08d96	-0.086207554
107	0xbdb59b69	-0.08867533
108	0xbd62341a	-0.05522547
109	0xbdaef07f	-0.08541965
110	0x3d3a20ef	0.045441564
111	0xbe2696af	-0.16268419
112	0x3b8f8588	0.004379932
113	0x3d841a96	0.06450383
114	0x3d31f21d	0.043443788
115	0x3d41ca35	0.04731198
116	0xbdb48064	-0.08813551
117	0xbc3d831b	-0.0115669025
118	0xbe22167c	-0.1582889
119	0xbdec7777	-0.115462236
120	0xbe3cb690	-0.18429017
121	0xbd7660b0	-0.060150802
122	0xbe4a02d3	-0.1972764
123	0xbdb8dd03	-0.0902653
124	0xbb9fc9ff	-0.0048763747
125	0xbd16ed0f	-0.03684717
126	0xbd809990	-0.0627929
127	0x3cf48a8d	0.029851222
128	0xbd4a1609	-0.04933742
129	0x3d731c32	0.05935306
130	0x3d40948f	0.047016677
131	0xbd2a8302	-0.041628845
132	0x3afb79d2	0.0019186086
133	0xbc8b5faa	-0.01701339
134	0x3d88256a	0.06647761
135	0xbce2688a	-0.027637739
136	0xbe05575f	-0.1302161
137	0x3c22d29a	0.009937907
138	0x3d4f33a0	0.050586343
139	0x3d570cb3	0.052502345
140	0xbd9799bc	-0.074023694
141	0x3b886878	0.0041628443
142	0xbdc950bf	-0.09829854
143	0xbcab3b52	-0.02090231
144	0x3d647358	0.055774063
145	0xbcbc2d46	-0.022970807
146	0xbd5224ce	-0.05130463
147	0x3d651dd6	0.055936657
148	0x3cd83672	0.026393149
149	0xbd6d9bc7	-0.05800989
150	0x3d9778d8	0.07396096
151	0xbd827434	-0.0636982
152	0x3d9b3fe3	0.07580545
153	0x3d589972	0.05288071
154	0xbdf277cc	-0.11839256
155	0x3d839182	0.06424238
156	0xbd8f04b8	-0.06983322
157	0x3cc5638f	0.024095325
158	0xbd0aaeb2	-0.03385801
159	0x3cb1b2b9	0.021691667
160	0xbdad115d	-0.084505774
161	0xbd136772	-0.035987325
162	0x3d82d1e5	0.063876905
163	0xbd67ea28	-0.056619793
164	0xbb07fc8b	-0.0020749893
165	0xbd18edfe	-0.037336342
166	0xbcc85f67	-0.024459554
167	0xbcf2400c	-0.029571556
168	0xbd26ae68	-0.04069367
169	0x3d83c8a2	0.06434752
170	0x3cbd2db1	0.023093076
171	0xbdae93e8	-0.08524305
172	0x3d82d656	0.063885376
173	0xbdf33859	-0.11875982
174	0xbd7d6d44	-0.061871782
175	0xbd979787	-0.074019484
176	0xbd6a72bf	-0.057238337
177	0x3cd7d604	0.026347168
178	0xbcaaaf49	-0.020835536
179	0xbd254c1b	-0.040355783
180	0x3d232f86	0.039840244
181	0xbd5a41a6	-0.053285263
182	0xbcd64de0	-0.02616018
183	0x3d43f63f	0.04784226
184	0xbcfadb69	-0.030622201
185	0x3dd344f7	0.103158884
186	0xbda8675c	-0.08222839
187	0x3c44437c	0.01197898
188	0xbcbeffa9	-0.023315268
189	0x3cf4c9c4	0.029881366
190	0x3d989b45	0.0745149
191	0x3b03af90	0.0020093657
192	0xbe26fb46	-0.1630679
193	0xbe7bcf2f	-0.24590753
194	0xbda417e6	-0.08012371
195	0xbcf4d4b6	-0.029886585
196	0xbccf1b20	-0.025281489
197	0x3cd3fa19	0.025876092
198	0xbce026c1	-0.02736223
199	0x3d0a3030	0.03373736
200	0x3c66cd63	0.014087054
201	0x3be47317	0.0069717276
202	0xbd924ea7	-0.07143908
203	0x3d4552ea	0.048174776
204	0xbdd93015	-0.10604874
205	0xbd71e3ff	-0.059055325
206	0xbd47c7c8	-0.04877451
207	0xbd4ab2e8	-0.049487025
208	0x3b489080	0.0030603707
209	0x3c00de28	0.007865466
210	0xbd9b4c15	-0.07582871
211	0xbde275b7	-0.110576086
212	0x3d02f4f3	0.031971883
213	0xbdbec2e7	-0.093145184
214	0xbde8c244	-0.11365178
215	0xbe27012a	-0.16309038
216	0xbe02c8d4	-0.12771922
217	0xbc8cd1c1	-0.017189862
218	0xbac7217c	-0.0015192474
219	0xbcdfe9e9	-0.027333217
220	0x3da3b6c1	0.07993842
221	0x3daf51b2	0.08560504
222	0x3c488dda	0.012240851
223	0xbc1eee1a	-0.0097003225
224	0xbe61c1a8	-0.2204653
225	0x3c101061	0.008792968
226	0xbda1ceaf	-0.0790075
227	0x3cd57e4a	0.026061196
228	0xbde73e7b	-0.11291214
229	0xbe1f7a13	-0.15573911
230	0xbdc443a6	-0.095832154
231	0xbdd163c8	-0.1022411
232	0xbd13c7cc	-0.036079213
233	0xbe67d3be	-0.22639367
234	0x3d8f64d9	0.07001657
235	0xbdaab104	-0.08334544
236	0xbd25e3f9	-0.040500615
237	0xbd98a7b8	-0.07453865
238	0xbd30f3eb	-0.04320137
239	0xbdc5aa90	-0.09651673
240	0xbdc08c93	-0.094018124
241	0xbd96467f	-0.07337665
242	0xbe0780d3	-0.13232736
243	0xbd434fed	-0.047683645
244	0x3c5baab0	0.013407394
245	0xbe465c40	-0.19371128
246	0xbdc47e22	-0.095943704
247	0xbd02ddba	-0.031949736
248	0xbe51ec0c	-0.20500201
249	0xbc86781d	-0.016414696
250	0xbd03525d	-0.03206097
251	0xbdd542bd	-0.1041312
252	0xbd7cb406	-0.06169512
253	0xbde9baaf	-0.1141256
254	0xbe013ec7	-0.12621604
255	0x3d0e0168	0.03466931

lstm.weight_ih_l1 f4 [256, 64]
0	0x3d37274a	0.044715203
1	0xbd32cb6c	-0.04365103
2	0x3d4d5801	0.050132755
3	0xbe12fff1	-0.14355446
4	0xbd8a2550	-0.06745398
5	0x3daaaf3a	0.08334203
6	0xbbd84119	-0.006599557
7	0xbdd9ccd5	-0.10634772
8	0xbe2030c0	-0.15643597
9	0xbe372c1e	-0.17887923
10	0x3e819a07	0.25312826
11	0xbe5bb8e8	-0.21457255
12	0x3e3e32a7	0.1857401
13	0xbd63657a	-0.055516697
14	0xbd555e23	-0.05209173
15	0xbe33ab76	-0.17545876
16	0x3cf16586	0.029467355
17	0x3e32ceef	0.17461751
18	0x3cd24dda	0.025671888
19	0xbda3f455	-0.08005587
20	0xbd996498	-0.0748989
21	0xbceefa97	-0.029172225
22	0x3a66b4d4	0.0008800749
23	0x3dace33f	0.08441781
24	0x3c94f707	0.018184198
25	0x3e39829e	0.18116233
26	0xbdb7ab07	-0.08968168
27	0x3dc1139a	0.09427567
28	0x3e87364c	0.26408613
29	0x3c039f70	0.008033618
30	0xbd847b48	-0.064688265
31	0xbd92da8f	-0.07170593
32	0xbdaeb81f	-0.08531212
33	0xbe23bf24	-0.15990883
34	0x3ac6a4d9	0.001515533
35	0x3e1bc533	0.15211944
36	0xbe18e300	-0.14930344
37	0xbd63f24d	-0.055650998
38	0xbd59f378	-0.053210706
39	0xbde4f8a0	-0.11180234
40	0xbc052107	-0.00812555
41	0xbdaee1cd	-0.08539162
42	0xbc467dbd	-0.012114939
43	0x3c0db9f4	0.008650292
44	0x3c9ec692	0.019381795
45	0x3cf25e34	0.029585935
46	0x3d82f345	0.06394056
47	0x3cd3561a	0.025797892
48	0xbe0c1835	-0.13681109
49	0x3cd678b2	0.026180599
50	0xbd434a6a	-0.04767839
51	0x3cebbb56	0.028775852
52	0xbd3b8feb	-0.045791548
53	0x3ce74dd1	0.028235348
54	0xbc9545c7	-0.018221749
55	0x3d49ab7c	0.049235806
56	0x3cfafe8d	0.030638957
57	0x3d0ddcba	0.03463433
58	0x3d960840	0.07325792
59	0xbd83270b	-0.06403931
60	0x3df57018	0.11984271
61	0x3d958af8	0.07301897
62	0x3d89f5d3	0.067363404
63	0xbd75685f	-0.05991399
64	0xbd870c61	-0.06594158
65	0xbe8ff7b0	-0.28118658
66	0x3e36c772	0.1784952
67	0x3dbea235	0.09308282
68	0x3de0b74f	0.10972463
69	0x3c83a4b4	0.016069748
70	0x3ddf346c	0.108986706
71	0x3dd704fe	0.10498999
72	0xbd143c49	-0.036190305
73	0x3e10eea3	0.14153533
74	0x3c523a0b	0.012831221
75	0x3e360394	0.17774802
76	0xbe1917b6	-0.14950451
77	0x3dd910f1	0.105989344
78	0x3e483f86	0.19555482
79	0x3d1a10a8	0.03761354
80	0xbd15ee7d	-0.036604393
81	0x3d07f227	0.03318992
82	0x3ca9d61f	0.020731984
83	0xbd787bd4	-0.060664967
84	0x3ded69aa	0.115924194
85	0xbde5d547	-0.1122232
86	0x3dc8fd6a	0.0981396
87	0x3d3e9a76	0.046534024
88	0x3b9c50e2	0.004770384
89	0xbd31674c	-0.043311402
90	0x3d977dfa	0.07397075
91	0xbcea8e12	-0.028632198
92	0xbaa3d9f5	-0.0012500869
93	0xbd337da5	-0.043820996
94	0xbde52666	-0.111889645
95	0x3dbdd795	0.09269635
96	0xbdb6cd80	-0.08925915
97	0xbdeaaf76	-0.11459248
98	0x3c803f01	0.015655043
99	0x3d512458	0.05106005
100	0x3d78e601	0.060766224
101	0xbda2b8fa	-0.07945438
102	0x3de9290a	0.11384781
103	0x3cf0bcac	0.02938684
104	0xbd946ed8	-0.07247704
105	0xbd89a8bd	-0.067216374
106	0x3cd06b96	0.025441926
107	0x3cceef37	0.02526055
108	0xbd5f0c24	-0.054454938
109	0xbd0df197	-0.034654226
110	0x3d4cea46	0.050028108
111	0xbe1d58f4	-0.15365964
112	0xbcb21a7c	-0.021741144
113	0xbb3b94b1	-0.0028622563
114	0x3dab836e	0.083746776
115	0x3dba32a6	0.09091692
116	0xbd0b5ded	-0.03402512
117	0xbd0b71e2	-0.034044154
118	0xbc6e4218	-0.014542125
119	0xbd579a87	-0.052637603
120	0x3d2fba26	0.042902134
121	0x3d7151f1	0.058916036
122	0x3beca742	0.007222087
123	0x3bfe7f21	0.00776662
124	0x3e1736b7	0.14766966
125	0x3dd73612	0.1050836
126	0x3de25ba9	0.11052639
127	0x3e73a8d7	0.23794876
128	0x3e035076	0.12823662
129	0xbe1da0f4	-0.1539343
130	0xbe0e7dcb	-0.13915174
131	0x3cb64f69	0.022254663
132	0x3da06bb4	0.07833043
133	0x3dfaa1ea	0.12237914
134	0x3c8f967a	0.017527808
135	0xbdeb8144	-0.11499265
136	0xbd8d01a3	-0.06885078
137	0xbd7e4a68	-0.062082678
138	0xbdaf77d2	-0.08567776
139	0x3c1044e0	0.008805484
140	0x3db50778	0.08839315
141	0xbd606e3b	-0.054792624
142	0x3d9ac8f2	0.075578585
143	0xbdbc32db	-0.091893874
144	0x3d51229b	0.051058393
145	0xbd9dd09b	-0.07705804
146	0x3da8bd1d	0.082391955
147	0xbe0f40c6	-0.13989553
148	0x3d227cfb	0.039669972
149	0xbdbdec04	-0.09273532
150	0xbdd78366	-0.10523109
151	0x3dae28c6	0.08503871
152	0x3ba8aec2	0.005147786
153	0x3b8373dc	0.0040116142
154	0x3dc5cc01	0.09658051
155	0xbd0a206c	-0.033722326
156	0x3da55820	0.08073449
157	0xbc29a66b	-0.010354619
158	0x3d85f6b4	0.065411955
159	0xbc1a8aaf	-0.009432479
160	0x3d4d5b2f	0.050135788
161	0x3d88b624	0.066753656
162	0xbe172374	-0.14759618
163	0x3e0b0c06	0.13578805
164	0xbd8188cd	-0.06324921
165	0x3bed8ec6	0.007249686
166	0xbdccd7b9	-0.10002083
167	0xbdb5d25b	-0.08878013
168	0x3de44efc	0.111478776
169	0x3e2f27b9	0.17104997
170	0xbd306ea0	-0.04307425
171	0x3cbd6281	0.02311826
172	0xbd8c984b	-0.06864985
173	0x3ddaff8c	0.10693273
174	0x3e151b89	0.14561285
175	0x3c91bffd	0.017791742
176	0xbe37899e	-0.1792359
177	0x3d18f35f	0.03734147
178	0x3d530ab8	0.051523894
179	0xbdb2fa90	-0.08739197
180	0x3cdac5c0	0.026705623
181	0x3deda0fc	0.11602971
182	0x3dc0eb93	0.09419932
183	0xbb8cf911	-0.004302152
184	0xbe101c27	-0.1407324
185	0xbb75b5c5	-0.0037492376
186	0xbe0ac8fc	-0.13553232
187	0xbde30518	-0.11084956
188	0x3ce8a6a3	0.028399771
189	0xbd593322	-0.05302728
190	0x3db44731	0.08802641
191	0xbc3a5168	-0.011371948
192	0x3d59f02f	0.053207573
193	0xbe4b3227	-0.1984335
194	0xbd29acbd	-0.0414245
195	0xbd674bed	-0.056468893
196	0xbd8b4142	-0.06799556
197	0x3dcf884b	0.10133418
198	0x3dc5fc53	0.09667268
199	0x3dd47ee8	0.10375768
200	0xbd57c96f	-0.052682336
201	0x3d051bcf	0.032497223
202	0x3e0f8755	0.14016469
203	0x3d611a50	0.054956734
204	0x3d9c9c45	0.076469935
205	0x3df22ed4	0.11825338
206	0xbd91e98e	-0.07124625
207	0x3dd0fcc4	0.10204461
208	0xbc8dc465	-0.017305562
209	0x3cc07dce	0.023497488
210	0x3c5581f5	0.013031472
211	0x3da6cd82	0.08144666
212	0xbe19d2a8	-0.15021765
213	0x3e042d9e	0.12908027
214	0xbddb929a	-0.107213214
215	0x3de10692	0.10987581
216	0x3dd8087e	0.10548495
217	0xbdb5ec37	-0.08882945
218	0x3e0ae3b9	0.13563432
219	0x3d9e994b	0.07744082
220	0x3dc04b5a	0.09389372
221	0xbdf461de	-0.11932729
222	0x3dc41d9d	0.09575961
223	0x3c5cc010	0.013473526
224	0x3d25712f	0.040391143
225	0x3a080ec6	0.00051901897
226	0xbd23ef7a	-0.040023305
227	0xbc5c5b44	-0.013449494
228	0x3da88927	0.08229285
229	0x3d89b981	0.06724835
230	0x3d76cb25	0.060252327
231	0xbd93800f	-0.072021596
232	0x3bebf127	0.0072003785
233	0x3d0e7efc	0.03478907
234	0x3da2b1a0	0.079440355
235	0x3e116e34	0.14202195
236	0xbd6bf7d8	-0.05760941
237	0xbc2a883e	-0.010408459
238	0x3d397d2c	0.04528539
239	0x3d05fa23	0.032709252
240	0xbd217b09	-0.039423976
241	0xbe0076ae	-0.12545273
242	0x3cb44f84	0.022010572
243	0xbd40febd	-0.047117937
244	0xbd365fb8	-0.04452488
245	0xbd76ffb5	-0.060302455
246	0xbbbe5a35	-0.0058090934
247	0x3cc666f9	0.024219023
248	0xbd918749	-0.07105882
249	0x3daf80e1	0.085695036
250	0xbd162ba2	-0.036662705
251	0xbd7eea0e	-0.06223493
252	0x3d520f84	0.051284328
253	0xbb4e1a97	-0.0031448954
254	0x3d7062c7	0.05868795
255	0xbd0b6f9f	-0.034041997

lstm.weight_hh_l1 f4 [256, 64]
0	0xbcb86dba	-0.02251326
1	0xbcb83d98	-0.022490308
2	0x3d580344	0.05273749
3	0xbd15a871	-0.03653759
4	0xbd6857e8	-0.05672446
5	0x3c05771d	0.008146075
6	0x3d82a4c3	0.06379082
7	0x3ddd34ad	0.10801063
8	0x3e33c8b1	0.17557026
9	0xbe87ec61	-0.2654753
10	0xbd908409	-0.07056434
11	0x3d98edb4	0.07467213
12	0xbd7474ee	-0.059681825
13	0x3df6e144	0.12054685
14	0xbcf2c82a	-0.029636461
15	0xbd8904d1	-0.06690372
16	0xbdcbeb6f	-0.09957015
17	0xbe0562cc	-0.1302597
18	0xbaa933c3	-0.0012909103
19	0xbdc05486	-0.093911216
20	0x3dd75b4f	0.105154626
21	0x3c0c43a4	0.008561049
22	0xbe3db4b5	-0.18525966
23	0xbe4b40ff	-0.19849013
24	0x3de9ef3b	0.11422583
25	0x3e6e73f4	0.2328642
26	0x3e2ad838	0.16684043
27	0xbca770e0	-0.020439565
28	0xbca8a407	-0.020586027
29	0x3e533b7d	0.20628162
30	0xbdbbfe44	-0.09179357
31	0x3bf0d714	0.007349858
32	0x3e75d313	0.240063
33	0xbd8f8e7b	-0.07009598
34	0x3e6d9d9f	0.23204659
35	0x3d89cc3d	0.067284085
36	0xbe7a3cda	-0.24437276
37	0xbd83f307	-0.06442838
38	0xbb24b3df	-0.0025131626
39	0xbd231a1b	-0.039819818
40	0x3d82fe94	0.06396213
41	0xbd8a203e	-0.06744431
42	0xbdd20901	-0.102556236
43	0x3e056e2e	0.13030311
44	0x3e8c87ef	0.2744746
45	0xbdaf4e06	-0.08559804
46	0xbaff0c76	-0.001945867
47	0xbe617d27	-0.22020398
48	0xbbe17b4e	-0.006881154
49	0xbea05291	-0.31312993
50	0xbe213ffa	-0.15747061
51	0xbcce86a3	-0.025210684
52	0xbde80dfa	-0.11330791
53	0x3a9a1abf	0.0011757239
54	0xbd3bde80	-0.04586649
55	0x3e1432b1	0.14472462
56	0xbe1beac9	-0.15226282
57	0x3db4a324	0.08820179
58	0xbe0a1d57	-0.13487755
59	0xbcb4dc6d	-0.022077763
60	0xbdd788ef	-0.10524165
61	0x3d9bcae3	0.07607057
62	0x3e2f4a39	0.17118157
63	0xbe1b86b8	-0.1518811
64	0x3d273b9e	0.04082834
65	0x3dbdb32c	0.0926269
66	0x3c968b50	0.018376976
67	0x3d9e4d0f	0.077295415
68	0x3b77541d	0.0037739344
69	0x3dd6c717	0.10487192
70	0x3bf39a0f	0.0074341367
71	0x3da81580	0.08207226
72	0x3bea7204	0.007154705
73	0xbdb9504b	-0.09048518
74	0x3c6e236a	0.014534811
75	0x3db291d6	0.08719222
76	0xbd536504	-0.051610008
77	0xbc47a953	-0.012186366
78	0xbe1889f1	-0.1489637
79	0x3ca427d0	0.020038515
80	0x3cd7082b	0.026249012
81	0xbdf648c6	-0.12025599
82	0x3d3e3384	0.046435848
83	0x3d5fa966	0.05460491
84	0x3db31006	0.087432906
85	0x3da0e5ed	0.07856355
86	0xbd854743	-0.06507733
87	0xbd398309	-0.04529098
88	0xbcfaeb28	-0.03062971
89	0x3d086cbd	0.033306826
90	0xbd9fa603	-0.07795336
91	0x3dd2f635	0.103008665
92	0xbd3e9185	-0.046525497
93	0x3d29f6a5	0.041494984
94	0x3d1eed00	0.03880024
95	0x3c88a771	0.016681405
96	0x3df4a04f	0.11944639
97	0xbcb8d70e	-0.022563484
98	0x3df50bfa	0.11965175
99	0xbdd93ab2	-0.10606898
100	0x3d5fdd14	0.054654196
101	0xbd424fe7	-0.047439482
102	0x3ddbb0ce	0.10727082
103	0x3dbeb832	0.09312476
104	0xbdf2f02e	-0.11862217
105	0xbcecab55	-0.028890291
106	0x3df14833	0.11781349
107	0x3ddf4fe6	0.10903911
108	0xbd6e6f1b	-0.058211427
109	0xbd43f9d6	-0.047845684
110	0x3da1ff24	0.07909992
111	0xbd936cf2	-0.07198514
112	0x3dac8d56	0.08425395
113	0xbdbaa988	-0.09114367
114	0x3c328be0	0.010897607
115	0x3e19b30a	0.15009704
116	0x3db90726	0.090345666
117	0xbde6ef51	-0.11276115
118	0x3cf3e3b6	0.029771667
119	0x3dcb027a	0.09912582
120	0x3d531956	0.051537834
121	0xbdf1f982	-0.11815168
122	0x3ce2e033	0.027694797
123	0x3dc3623d	0.09540222
124	0xbcd2e660	-0.025744617
125	0x3d924223	0.07141521
126	0x3dc9f5ff	0.09861373
127	0x3d0ef0a5	0.034897465
128	0x3d8495fa	0.06473918
129	0x3da8dc0b	0.08245095
130	0x3dec902d	0.11550937
131	0xbdddb168	-0.10824853
132	0xbe290c92	-0.16508701
133	0x3c6baa62	0.014383884
134	0x3c9b8366	0.018983554
135	0x3d538d46	0.0516484
136	0x3d1fad3e	0.038983576
137	0x3bd1cf6a	0.0064028995
138	0xbddf5b2c	-0.109060615
139	0x3ddf82f2	0.10913648
140	0x3de7cb73	0.11318102
141	0x3def1a04	0.11674884
142	0xbdc92eb4	-0.09823361
143	0x3d9cf44a	0.07663782
144	0xbd88b14e	-0.06674443
145	0xbdac71f0	-0.08420169
146	0xbcab9c85	-0.020948658
147	0xbd68c2ad	-0.056826282
148	0x3ceeeba8	0.029165104
149	0x3d2ceb40	0.04221654
150	0xbe25b085	-0.16180618
151	0xbd82bac7	-0.06383281
152	0x3ddcd054	0.10781923
153	0x3e3ef69f	0.18648766
154	0xbd38b0f0	-0.045090616
155	0x3d2ea010	0.042633116
156	0xbc89b08d	-0.016807819
157	0x3d8205a0	0.06348729
158	0xbd8e3293	-0.0694324
159	0xbd81f1d0	-0.0634495
160	0x3e4295c4	0.19002444
161	0x3dc410ac	0.095734924
162	0x3dc8b21a	0.09799595
163	0x3cb51294	0.022103585
164	0xbc8260cf	-0.015915303
165	0x3df87f10	0.1213361
166	0xbc39c2a1	-0.011337907
167	0x3cfead91	0.031088622
168	0xbdb6e2a0	-0.08929944
169	0x3dedd84a	0.116135195
170	0xbce3a30c	-0.027787708
171	0x3e05c061	0.13061668
172	0x3e14db1d	0.1453671
173	0xbde4b50a	-0.11167343
174	0x3d867142	0.06564571
175	0xbc9e5af6	-0.019330483
176	0x3c126d7e	0.008937238
177	0xbd455b7e	-0.048182957
178	0xbdee7853	-0.11644044
179	0x3dc3ad2c	0.09554514
180	0x3da54753	0.08070245
181	0x3bb99faf	0.0056647877
182	0xbd935e1b	-0.071956836
183	0x3e71d2ae	0.23615524
184	0xbe3eab74	-0.18620092
185	0x3dbbaa18	0.09163302
186	0xbdd78eb1	-0.10525263
187	0x3d2eeff5	0.04270931
188	0x3d12af5f	0.03581178
189	0xbd6cc07e	-0.057800762
190	0x3da74378	0.081671655
191	0xbd456883	-0.048195373
192	0xba13dcc0	-0.00056404993
193	0x3e13a808	0.14419568
194	0x3dda84a6	0.10669832
195	0x3d5b1cf1	0.053494398
196	0xbc567ec0	-0.013091743
197	0xbdc9253e	-0.098215565
198	0x3c7489f1	0.014925466
199	0xbdc90dec	-0.098171085
200	0x3de33a2e	0.11095081
201	0x3d865080	0.06558323
202	0xbe205ff5	-0.15661605
203	0xbd9ed2a5	-0.07755021
204	0x3e05bbe7	0.1305996
205	0xbd027480	-0.031849384
206	0xbc2fc72f	-0.010728641
207	0xbddec15a	-0.10876723
208	0x3da7b913	0.08189597
209	0xbd6c10e8	-0.05763331
210	0xbe0ff223	-0.14057212
211	0xbab88523	-0.0014077764
212	0x3d1479fa	0.03624914
213	0xbe0eddc9	-0.13951792
214	0x3d6fa70e	0.058508925
215	0xbd8cea1c	-0.0688059
216	0xbd957f1b	-0.07299634
217	0x3d5505c3	0.052007448
218	0x3e0594d8	0.1304506
219	0xbdcc928a	-0.099888876
220	0xba4f2c7e	-0.0007903053
221	0x3d21fb0d	0.03954606
222	0x3dc2d405	0.09513096
223	0x3e0bea67	0.13663636
224	0x3e113e0a	0.14183822
225	0xbcdcd116	-0.026955169
226	0xbce72d10	-0.02821973
227	0x3d2cf972	0.042230077
228	0xbe05afb7	-0.13055311
229	0x3ba87afe	0.005141615
230	0xbb8ec8ee	-0.004357449
231	0xbdd4ec20	-0.103966
232	0xbd35d867	-0.04439583
233	0xbde20dec	-0.11037812
234	0xbe0212bd	-0.1270246
235	0x3d1fc061	0.039001826
236	0x3d00cf05	0.03144743
237	0x3d3e6727	0.046485092
238	0xbe029d74	-0.12755376
239	0xbd3be577	-0.04587313
240	0xbd88ecb4	-0.066857725
241	0xbe00937f	-0.12556265
242	0xbe210332	-0.15723875
243	0x3c8a3eca	0.016875643
244	0x3d744ffd	0.059646595
245	0x3e133653	0.14376192
246	0xbc675cea	-0.0141212735
247	0x3de52e71	0.111904986
248	0xbd637f74	-0.05554147
249	0x3de3de62	0.111264005
250	0xbc88980d	-0.016674066
251	0xbcd2c40d	-0.02572825
252	0xbe06b34e	-0.13154337
253	0x3d8edf4a	0.06976183
254	0xbd573fb4	-0.052550986
255	0xbe022c28	-0.12712157

lstm.bias_ih_l1 f4 [256]
0	0xbe211e36	-0.15734181
1	0x3d4e1f41	0.050322775
2	0xbd96c5f5	-0.07361976
3	0xbd010ef4	-0.0315084
4	0xbd0baa79	-0.034098122
5	0xbc658fc6	-0.014011329
6	0xbe0e495c	-0.13895172
7	0xbe08cd12	-0.13359478
8	0x3cff99ad	0.031201208
9	0xbdbe1785	-0.0928183
10	0x3d4c9b40	0.049952745
11	0xbe18f620	-0.14937639
12	0x3d949740	0.07255411
13	0x3d30344b	0.04301862
14	0x3c274254	0.010208685
15	0x3c41b487	0.011822826
16	0xbdeb0b2a	-0.11476739
17	0x3b5e4fb1	0.0033922011
18	0x3c21974d	0.009862733
19	0x3d8f7096	0.07003896
20	0xbd6db6ac	-0.058035538
21	0xbdfd2da0	-0.12362218
22	0xbd99cd5c	-0.07509872
23	0x3dc9c218	0.098514736
24	0x3dad569f	0.08463787
25	0x3d9ccdab	0.076564156
26	0xbda0b593	-0.078471325
27	0x3b8f1e2c	0.0043676104
28	0x3d9f662b	0.07783159
29	0x3d325a04	0.043542877
30	0x3d6e1b87	0.05813172
31	0xbe2d149f	-0.16902398
32	0x3ca6f1f1	0.020379039
33	0xbe1d8d99	-0.15386046
34	0x3df9f5f2	0.122051135
35	0x3c81a231	0.01582441
36	0xbdd0b4c6	-0.1019073
37	0xbd873be7	-0.06603222
38	0xbdc01bbf	-0.09380292
39	0xbdee0b9e	-0.116233096
40	0xbe1676e9	-0.14693798
41	0xbe2dca29	-0.16971649
42	0xbe1c99ca	-0.15293041
43	0xbcdf0150	-0.027222306
44	0x3dd4e34d	0.10394917
45	0xbd9504b2	-0.07276286
46	0xbdc9f2ff	-0.09860801
47	0x3cdfadab	0.027304491
48	0xbda55aed	-0.08073983
49	0x3ceefdd0	0.029173762
50	0xbd85ce07	-0.06533437
51	0xbe02e943	-0.12784295
52	0x3d7f8667	0.062384035
53	0xbdfa59ba	-0.12224145
54	0xbdc67c1c	-0.09691641
55	0xbc636e5e	-0.013881294
56	0xbda605c6	-0.0810657
57	0x3e10be78	0.14135158
58	0x3dd19c40	0.102348804
59	0xbe3da2c5	-0.18519123
60	0xbd75ef65	-0.060042758
61	0x3d9c50bb	0.076325856
62	0xbda85fd2	-0.08221401
63	0xbd4f4659	-0.050604198
64	0xbdb7d04a	-0.08975275
65	0x3cebae2c	0.028769575
66	0xbe08b6f2	-0.13351038
67	0xbd0e4773	-0.034736108
68	0x3db01d0f	0.085992925
69	0x3d85f317	0.06540506
70	0x3c93d16c	0.018044196
71	0xbd82fce8	-0.06395894
72	0xbdc9ba8b	-0.098500334
73	0xbd6904c1	-0.0568893
74	0xbe065137	-0.13116919
75	0xbc3d0092	-0.0115357805
76	0x3d033fd3	0.03204329
77	0x3d74117a	0.05958698
78	0x3d64a308	0.05581954
79	0x3d0ff4ea	0.035145678
80	0xbe1eea40	-0.15519047
81	0xbd8c20a9	-0.06842167
82	0x3d0b30b4	0.033981994
83	0x3d24eb1a	0.040263273
84	0xbe0b186d	-0.13583536
85	0x3bb866ff	0.0056275125
86	0xbd9e7cda	-0.07738657
87	0x3bbf5411	0.005838879
88	0x3d1ba908	0.038002998
89	0xbc9ad875	-0.018902043
90	0xbdd442d1	-0.10364307
91	0xbe17dff7	-0.1483153
92	0xbd7dabfe	-0.061931603
93	0x3c16f7de	0.00921437
94	0xbce2c79d	-0.027683074
95	0xbdbaddef	-0.09124362
96	0x3d5cdb0e	0.053919844
97	0xbe11f69c	-0.1425423
98	0x3dbc8e06	0.09206776
99	0x3ce6f514	0.028193034
100	0xbd16549c	-0.036701784
101	0xbe1761fd	-0.14783473
102	0x3c9f262b	0.01942738
103	0xba9ecc52	-0.0012115336
104	0xbe44e623	-0.19228415
105	0xbd845b56	-0.064627334
106	0xbd3d2a09	-0.046182666
107	0xbe24040c	-0.16017169
108	0x3d68eb08	0.05686477
109	0x3d44fd93	0.04809339
110	0xbd205914	-0.03914745
111	0x3d8aa6e5	0.06770114
112	0x3b3692ad	0.0027858422
113	0xbdaf4d95	-0.085597195
114	0xbd31ab8e	-0.043376498
115	0xbdb2bcc4	-0.087274104
116	0xbc62ee35	-0.013850738
117	0xbe0db64b	-0.1383907
118	0xbd006be7	-0.031352904
119	0x3dfb60ba	0.122743085
120	0x3dbb996b	0.091601215
121	0xbd3b83c5	-0.045779962
122	0xbd096d97	-0.03355178
123	0xbd5c4f02	-0.053786285
124	0x3d5046f4	0.050848916
125	0xbd355628	-0.044271618
126	0xbdacca55	-0.08437029
127	0x3d251191	0.040299956
128	0xbda27fc2	-0.07934524
129	0xbc4ed963	-0.012625071
130	0xbd8e119e	-0.06936954
131	0x3d37275a	0.044715263
132	0x3e12b19d	0.14325567
133	0x3de59665	0.11210326
134	0x3d993c84	0.074822456
135	0x3ca4a8d2	0.020100031
136	0xbdd1206a	-0.102112606
137	0x3db5aff1	0.08871449
138	0x3db745be	0.08948849
139	0xbd2a55d7	-0.04158577
140	0xbd8f7411	-0.0700456
141	0x3c786b19	0.015162253
142	0xbda40bf2	-0.08010091
143	0xbd701fcd	-0.058624078
144	0xbcefdbfa	-0.029279698
145	0x3d19ee7a	0.037580945
146	0xbdb962c8	-0.09052044
147	0x3d39150d	0.04518609
148	0xbd8e1e8e	-0.069394216
149	0xbde942b3	-0.11389675
150	0x3df46ab7	0.11934417
151	0x3dc55ed2	0.09637226
152	0xbd890c28	-0.06691772
153	0x3d5cb73d	0.053885687
154	0x3d3f6c2a	0.046734013
155	0xbdb845a1	-0.08997656
156	0xbcb6890f	-0.022282152
157	0x3cf51714	0.029918231
158	0xbd8d9a25	-0.06914166
159	0xbd583c9d	-0.05279218
160	0xbd81ed62	-0.06344105
161	0x3d9b11ba	0.075717404
162	0xbd12c0ad	-0.03582828
163	0x3d7914cf	0.06081086
164	0x3df27e3c	0.118404835
165	0xbd5361f9	-0.051607106
166	0x3d9f7478	0.077858865
167	0xbce1e7f9	-0.027576433
168	0x3c14625c	0.009056654
169	0x3ba074eb	0.00489675
170	0xbd36106e	-0.044449262
171	0xbdf22738	-0.11823887
172	0x3d216097	0.039398756
173	0x3e22f7d9	0.15914859
174	0xbd672c1e	-0.056438558
175	0xbc4ef953	-0.012632686
176	0x3bc1ae1c	0.005910648
177	0x3d3587bc	0.0443189
178	0x3de09640	0.10966158
179	0x3d578af5	0.052622754
180	0x3d855bb7	0.06511634
181	0xbdd5e351	-0.10443748
182	0xbd8540b0	-0.06506479
183	0xbe11ee62	-0.14251092
184	0xbd3a5ad6	-0.045496784
185	0x3c9ab7fd	0.01888656
186	0x3da36858	0.07978886
187	0x3d2a57d0	0.04158765
188	0x3db0bf1c	0.08630201
189	0xbd8cba2e	-0.068714485
190	0xbddd2585	-0.10798172
191	0xbd290bf9	-0.041271184
192	0xbe0a0e8e	-0.13482115
193	0x3d0433a2	0.032275803
194	0xbe2095e5	-0.1568218
195	0xbe043395	-0.12910302
196	0xbdb203ea	-0.08692153
197	0x3da08ff5	0.078399576
198	0xbe16d056	-0.14727911
199	0xbdd50329	-0.104009934
200	0x3da0ddff	0.078548424
201	0x3de80e20	0.11330819
202	0x3daa119e	0.083041415
203	0xbc91ba45	-0.017789016
204	0xbd8c6539	-0.06855244
205	0xbd4db0e7	-0.050217535
206	0x3ccfd152	0.025368366
207	0xbba6dd3a	-0.00509229
208	0xbd2bdf1d	-0.041960824
209	0x3c604855	0.01368912
210	0x3cc2490e	0.023716476
211	0xbdd5813b	-0.104250394
212	0xbe5d300f	-0.21600364
213	0xbcf78945	-0.030216822
214	0x3d2ba695	0.041906912
215	0xbe0278b4	-0.12741357
216	0x3d0dbd6c	0.034604475
217	0x3de0a418	0.109687984
218	0xbd50cd4c	-0.050977036
219	0x3b017e2f	0.001975905
220	0x3ccb68bd	0.024830217
221	0xbda63a75	-0.081166185
222	0xbc7167b0	-0.014734194
223	0x3d02ed5b	0.03196464
224	0xbc78b737	-0.015180401
225	0xbe00d41b	-0.12580912
226	0xb9424cf7	-0.00018529953
227	0xbdb713eb	-0.08939346
228	0xbdf3d5a3	-0.11905982
229	0xbd804818	-0.06263751
230	0xbbe54806	-0.0069971113
231	0xbc87eb88	-0.016591802
232	0xbd242891	-0.04007775
233	0x3bd6fadb	0.006560666
234	0xbe03f018	-0.12884557
235	0xbe0e6d77	-0.13908945
236	0xbcdd7bb1	-0.02703652
237	0xbd99fb52	-0.07518639
238	0xbdffc488	-0.12488657
239	0x3de19193	0.11014094
240	0x3dad745f	0.08469462
241	0x3c86117e	0.016365763
242	0x3db57b75	0.08861438
243	0xbe44e39f	-0.19227456
244	0xbda24a51	-0.07924331
245	0x3cd35100	0.02579546
246	0xbdd1b86d	-0.102402546
247	0xbc95a95f	-0.018269239
248	0x3d30e0ba	0.043183066
249	0xbcdd0274	-0.026978709
250	0xbc1a2481	-0.009408117
251	0xbd600610	-0.05469328
252	0xbc9370a7	-0.017998053
253	0xbd135a08	-0.035974532
254	0x3ca31fa2	0.019912545
255	0x3d0def25	0.034651894
