Final/Jaison/Model_Train/Model/LSTM/lstm_2025-06-23.pt (torch, 215145 bytes, 9 tensors)

lstm.weight_ih_l0 f4 [256, 11]
0	0xbbfdc4ed	-0.0077444226
1	0xbded33e3	-0.11582162
2	0xbd8035e9	-0.062602825
3	0xbe3c16c0	-0.18368053
4	0x3db0d62f	0.08634602
5	0x3e425adc	0.18979973
6	0x3c59f599	0.013303184
7	0xbdf6ea87	-0.12056451
8	0x3ec44034	0.38330233
9	0x3e609925	0.2193342
10	0x3bb88aa6	0.0056317626
11	0xbbbb70f7	-0.0057202536
12	0xbdb28068	-0.08715898
13	0xbded96dd	-0.116010405
14	0x3d3948e2	0.045235522
15	0xbdd0f2be	-0.102025494
16	0xbc5dda92	-0.013540881
17	0xbd877dc8	-0.06615788
18	0x3db9d54d	0.09073887
19	0xbe846e00	-0.25865173
20	0xbc929a45	-0.017895827
21	0xbd3d17f2	-0.046165414
22	0x3e6d24b3	0.23158531
23	0x3e448e94	0.19195014
24	0x3c37effa	0.011226648
25	0xbd1ebc9f	-0.0387541
26	0x3da8c880	0.08241367
27	0x3dfb4ab5	0.122701086
28	0x3da369aa	0.07979138
29	0xbcf0b49e	-0.029383
30	0xbd7ab2bd	-0.061205614
31	0x3e4f04cb	0.20216672
32	0xbcd337f7	-0.025783522
33	0x3e017fee	0.12646458
34	0x3e1fd67f	0.15609168
35	0xbd934fe1	-0.0719297
36	0x3cdcea40	0.026967168
37	0x3dc0f3b0	0.0942148
38	0xbcbd081a	-0.023075152
39	0x3c90832f	0.017640678
40	0x3de43cda	0.11144419
41	0x3c949b94	0.018140592
42	0x3d019162	0.03163279
43	0xbd1a1330	-0.037615955
44	0xbe1880e5	-0.1489292
45	0x3dd2b656	0.10288684
46	0xbdcc5244	-0.099766284
47	0xbd0bffa8	-0.03417936
48	0x3e1ab1d4	0.15106899
49	0xbda1d15a	-0.07901259
50	0xbc419bd8	-0.011816941
51	0xbdda5d58	-0.10662335
52	0x3d8b3314	0.06796852
53	0x3c548f2a	0.012973586
54	0x3d8eed58	0.069788635
55	0x3f0db670	0.553565
56	0xbdd83e8b	-0.10558804
57	0xbdd02655	-0.10163561
58	0x3cc072dd	0.023492271
59	0xbe6b7050	-0.22992063
60	0xbd5a13eb	-0.05324165
61	0xbdaf032d	-0.085455276
62	0x3d32e6e4	0.043677226
63	0x3e458501	0.19289018
64	0xbdc4d248	-0.096104205
65	0xbd408709	-0.04700378
66	0x3e2be487	0.16786395
67	0x3d3232f3	0.04350562
68	0xbdcb7183	-0.0993376
69	0xbdcfaa9e	-0.101399645
70	0xbf06be37	-0.52633995
71	0xbe8a51f1	-0.2701564
72	0xbdff8df0	-0.12478244
73	0xbdb00b5b	-0.08595916
74	0x3c03505e	0.0080147665
75	0xbd326d6a	-0.043561377
76	0xbe1c0e37	-0.15239798
77	0xbe9d94e4	-0.30777657
78	0xbcdf5f6b	-0.027267179
79	0xbb909e27	-0.0044133845
80	0x3c288ce6	0.010287499
81	0x3e318ffe	0.17340085
82	0xbe2bc786	-0.16775331
83	0xbe6d0ed2	-0.23150185
84	0xbbd99439	-0.006639984
85	0xbc1992eb	-0.009373407
86	0xbe87f66c	-0.26555192
87	0xbd99d6f8	-0.07511705
88	0x3ed6f90f	0.41986892
89	0xbcf05086	-0.029335272
90	0x3dc6323e	0.09677552
91	0x3c910e11	0.017706903
92	0x3d7ed457	0.06221422
93	0x3d33d92a	0.043908276
94	0x3ddadc73	0.106865786
95	0x3d88d556	0.066813156
96	0x3eb165cb	0.34647974
97	0x3de57608	0.11204153
98	0xbe77c198	-0.24194944
99	0x3cd2442a	0.025667269
100	0xbd48f9bd	-0.049066294
101	0x3a55dc36	0.0008158119
102	0xbcf6f5db	-0.03014653
103	0xbe84424e	-0.25831836
104	0xbd74b355	-0.059741337
105	0xbd2e6574	-0.042577222
106	0xbddfe275	-0.10931865
107	0x3debf586	0.11521439
108	0x3a401544	0.00073273876
109	0xbe185eda	-0.14879933
110	0x3e1b1453	0.15144472
111	0x3e34ae57	0.1764463
112	0x3e07405b	0.13208143
113	0x3daee64c	0.085400194
114	0xbe5ef6e3	-0.21773867
115	0x3d9dfe71	0.077145465
116	0xbd2c8379	-0.04211757
117	0x3d035fa7	0.032073643
118	0xbadaa287	-0.0016680517
119	0x3e4bf350	0.19917035
120	0xbd1fd5db	-0.039022308
121	0xbc484bf0	-0.012225136
122	0xbe14118c	-0.14459819
123	0xb99fe09e	-0.00030494196
124	0x3d287341	0.04112554
125	0xbf0138ce	-0.504773
126	0xbe1e3311	-0.15449168
127	0x3d877d4c	0.06615695
128	0x3be3b1c3	0.006948681
129	0x3e3baad2	0.18326882
130	0xbd90284d	-0.07038937
131	0x3dd935f7	0.10605996
132	0xbd85e5da	-0.06537981
133	0xbc992bd4	-0.018697657
134	0xbe1f5daf	-0.15563081
135	0xbd96ae33	-0.073574446
136	0xbe5c0533	-0.21486358
137	0xbd8a3a21	-0.067493685
138	0xbdba8a66	-0.09108429
139	0xbd9c0379	-0.0761785
140	0xbe6b523e	-0.22980592
141	0xbe457617	-0.19283329
142	0xbe6d1fb7	-0.2315663
143	0xbcea36a7	-0.028590513
144	0x3e1afeb3	0.15136223
145	0xbb813da2	-0.003944115
146	0x3d7a0754	0.061042145
147	0x3e472c8b	0.19450586
148	0x3c9ee6b2	0.019397113
149	0xbd8ee74a	-0.06977709
150	0xbcd8acf8	-0.026449665
151	0xbe9cd011	-0.30627492
152	0x3c676493	0.0141231
153	0x3dc6d6dd	0.09708951
154	0x3e0edc4e	0.13951227
155	0xbb15e4ec	-0.0022872044
156	0x3e0ed905	0.13949974
157	0xbd6de08f	-0.058075484
158	0x3e75450d	0.23952122
159	0xbd77fce1	-0.0605439
160	0x3d8f0f00	0.06985283
161	0x3cf20175	0.02954171
162	0x3d0606cd	0.03272133
163	0xbd092591	-0.03348309
164	0x3d68100d	0.056655932
165	0xba8b7c29	-0.0010641861
166	0x3e11e0b2	0.1424587
167	0x3df4fc4e	0.11962186
168	0x3e09b95e	0.13449618
169	0xbd72a89b	-0.059242826
170	0xbd807db5	-0.06273977
171	0xbcfb09c3	-0.030644303
172	0xbdc4165f	-0.095745794
173	0xbe6d9596	-0.23201594
174	0xbdbef95e	-0.09324907
175	0xbde3ee11	-0.11129392
176	0xbe500b1e	-0.20316741
177	0x3d21d9a5	0.039514203
178	0xbda78c11	-0.081810124
179	0x3d5eb7dd	0.054374564
180	0xbcfbfe92	-0.030761037
181	0x3de7e3e4	0.113227636
182	0xbe3a6def	-0.18205999
183	0x3cc3b289	0.023888843
184	0xbf7da570	-0.9908056
185	0x3c91112f	0.01770839
186	0xbceaa931	-0.02864513
187	0x3cb08208	0.021546379
188	0xbe96012a	-0.29297763
189	0xbe7dc601	-0.24782564
190	0xbdcec970	-0.10097015
191	0xbdd77e4a	-0.105221346
192	0xbdf67840	-0.120346546
193	0xbddc5b3d	-0.1075959
194	0xbe2b0529	-0.16701187
195	0xbca06289	-0.019578235
196	0xbe8897ec	-0.26678407
197	0xbe9b464c	-0.3032707
198	0xbc474b16	-0.012163898
199	0x3d1bff91	0.038085524
200	0x3dce788c	0.10081586
201	0x3d3db259	0.046312664
202	0xbcef46a7	-0.029208494
203	0xbd133017	-0.035934534
204	0x3ca1b4d2	0.019739542
205	0x3daa6382	0.08319761
206	0x3e977240	0.29579353
207	0x3ceb0548	0.028689042
208	0xbe2a717f	-0.16644858
209	0xbd43814f	-0.04773074
210	0x3e4cff25	0.20019205
211	0x3e063e3f	0.13109683
212	0x3cc5beee	0.024138894
213	0xbd5aa50c	-0.053380057
214	0xbd53fbd2	-0.051753826
215	0x3c9d9a67	0.019238664
216	0x3e040b5d	0.1289496
217	0xbde5f72d	-0.11228786
218	0x3d6c32b2	0.057665534
219	0xbe244aba	-0.16044131
220	0xbd714a65	-0.05890884
221	0xbd47ba37	-0.048761573
222	0xbdf712f2	-0.120641604
223	0xbe187b70	-0.14890838
224	0xbd510ac2	-0.05103565
225	0xbdb86bac	-0.09004912
226	0xbe4d0e01	-0.20024873
227	0xbe737be1	-0.23777725
228	0xbe315409	-0.17317213
229	0xbd24a2e0	-0.040194392
230	0xbd675812	-0.056480475
231	0xbd1b601c	-0.037933454
232	0x3d89a53b	0.06720968
233	0xbd81f387	-0.06345277
234	0xbd2809eb	-0.041025084
235	0x3de53c05	0.111930884
236	0xbd65c0ae	-0.056091957
237	0xbd98e2bd	-0.07465122
238	0x3d2de30f	0.042452868
239	0xbdf3d72e	-0.11906277
240	0xbd4ac805	-0.04950716
241	0x3d0785f6	0.03308674
242	0xbeb0ecf7	-0.3455579
243	0x3bb519c1	0.0055267517
244	0xbd80a6cc	-0.06281814
245	0xbdc50275	-0.09619609
246	0xbd324878	-0.043526143
247	0xbe374dd4	-0.17900783
248	0xbe492008	-0.19641125
249	0xbd2ff4de	-0.042958133
250	0xbee728bf	-0.45148274
251	0xbdaaf677	-0.08347791
252	0xbe390931	-0.18069912
253	0x3e69714f	0.2279713
254	0xbde5b2a6	-0.11215715
255	0x3d996ae7	0.07491093

lstm.weight_hh_l0 f4 [256, 64]
0	0x3da5534e	0.0807253
1	0xbe8d9a98	-0.27657008
2	0xbd0cfb34	-0.034419253
3	0x3dd68622	0.104748026
4	0x3ca7dd31	0.020491214
5	0xbdcef7f1	-0.10105885
6	0xbe1e3765	-0.15450819
7	0x3d7d9c6d	0.061916757
8	0x3d1835b5	0.037160594
9	0xbdf88597	-0.12134855
10	0xbe595d19	-0.2122692
11	0xbda6e071	-0.081482776
12	0xbd41b2e7	-0.047289755
13	0xbe72b84c	-0.23703116
14	0xbe4cc0bb	-0.19995396
15	0xbe5df5b1	-0.21675755
16	0xbe94072e	-0.28911728
17	0x3d039823	0.03212751
18	0x3e3b714d	0.1830494
19	0x3da86525	0.08222417
20	0x3d97104c	0.07376155
21	0xbd26f47d	-0.040760506
22	0x3e4fb680	0.20284462
23	0xbcefec85	-0.029287586
24	0xbdf01cae	-0.1172422
25	0xbe647392	-0.22309712
26	0x3e8ecf7d	0.27892676
27	0xbe179520	-0.1480298
28	0x3e020d05	0.12700279
29	0xbe22de0e	-0.1590502
30	0xbce6d4c0	-0.028177619
31	0x3d16aaf9	0.036784146
32	0xbd271c2f	-0.040798362
33	0xbd80136f	-0.06253707
34	0xbe340fd9	-0.1758417
35	0x3d95dff4	0.07318106
36	0xbe0bbaa0	-0.1364541
37	0x3ed24010	0.410645
38	0x3da746a1	0.08167768
39	0xbe44aac4	-0.19205767
40	0x3d923ac9	0.07140119
41	0xba8609f0	-0.001022635
42	0x3e327402	0.17427066
43	0xbce87279	-0.028374897
44	0x3e2a6e86	0.16643724
45	0xbd5770b6	-0.052597724
46	0x3d9bbbf0	0.076042056
47	0x3ebd7189	0.37000683
48	0xbe44f7c9	-0.19235148
49	0xbd9a66f9	-0.07539172
50	0x3d88f25c	0.066868514
51	0xbdd9e77e	-0.10639857
52	0x3e7c9b94	0.24668723
53	0x3d9d2655	0.07673327
54	0xbdb23902	-0.087022796
55	0x3e0f24a5	0.13978823
56	0x3aae5ed5	0.0013303409
57	0xbe14a2df	-0.14515255
58	0xbde6c3f1	-0.112678416
59	0x3df983e6	0.12183361
60	0xbdf161c1	-0.11786223
61	0xbda9f18f	-0.08298027
62	0xbe17779c	-0.14791721
63	0xbd8a2d2b	-0.06746896
64	0x3df0fb08	0.117666304
65	0x3ccb2e0a	0.024802227
66	0x3e189a2e	0.14902565
67	0x3c592f33	0.013255882
68	0x3bd0ed93	0.0063759773
69	0x3da0c3dc	0.07849857
70	0x3e8bbe4f	0.2729363
71	0x3d70ffa8	0.058837563
72	0x3dae8b76	0.08522694
73	0x3c0e6ff7	0.008693687
74	0x3e45a222	0.1930013
75	0x3df5ccfe	0.1200199
76	0x3e48fec3	0.19628434
77	0xbd396016	-0.04525765
78	0x3de794b9	0.113076635
79	0xbb6a85cc	-0.0035785316
80	0x3e9cf056	0.30652112
81	0xbd420821	-0.047371034
82	0x3dca21ce	0.09869729
83	0xbca80773	-0.020511365
84	0xbd9400b5	-0.07226697
85	0x3c5f7aed	0.013640148
86	0xbdf50f64	-0.11965826
87	0xbcb5c299	-0.022187518
88	0x3da66fd2	0.08126797
89	0xbdba3b86	-0.090933844
90	0xbd963abe	-0.07335423
91	0x3da80f83	0.082060836
92	0xbd36e02d	-0.044647384
93	0x3e84fe7e	0.25975412
94	0xbdebdc6e	-0.11516653
95	0xbd3a58db	-0.045494895
96	0x3d872892	0.06599535
97	0xbd9654ee	-0.07340418
98	0xbdbe9495	-0.093056835
99	0xbf074acb	-0.528485
100	0x3cb1c1db	0.021698883
101	0xbe7e1110	-0.24811196
102	0xbe04b155	-0.12958272
103	0xbd8454bc	-0.06461474
104	0xbd0d8829	-0.03455368
105	0x3d84c2a0	0.06482434
106	0xbe259d37	-0.16173254
107	0x3d820b39	0.06349797
108	0xbddf6064	-0.10907057
109	0x3dc38193	0.09546199
110	0x3e054617	0.13015018
111	0xbde804c9	-0.11329038
112	0xbde4396f	-0.11143767
113	0x3d687a16	0.056757055
114	0xbd4c8edb	-0.049940925
115	0x3e405242	0.18781379
116	0x3c1fc831	0.009752319
117	0x3d56f21f	0.052477
118	0x3e23a06b	0.15979163
119	0x3d08aaf8	0.033366174
120	0xbe1edb1b	-0.1551327
121	0x3cb7c487	0.022432579
122	0x3e0f2395	0.13978417
123	0x3dad913f	0.08474969
124	0x3e1710ac	0.14752454
125	0x3d5f75a6	0.054555558
126	0x3dd44b4e	0.10365926
127	0xbda6ba35	-0.08140985
128	0xbe230f86	-0.1592389
129	0x3bd21702	0.006411434
130	0xbd9faf92	-0.07797159
131	0xbdf120d4	-0.117738396
132	0x3e07c7cd	0.13259812
133	0x3e1262a3	0.1429544
134	0xbce3dce7	-0.027815295
135	0xbe0f6e23	-0.14006858
136	0x3da80cd4	0.08205572
137	0xbcc4627a	-0.023972739
138	0xbcd4106c	-0.025886737
139	0x3e2dc233	0.16968612
140	0x3d806fe1	0.06271339
141	0x3dea9302	0.11453821
142	0xbd5de6e1	-0.05417526
143	0xbda2f564	-0.07956961
144	0xbe9e07f4	-0.30865443
145	0xba33a09c	-0.0006852241
146	0x3db365c3	0.08759644
147	0x3dabe4a9	0.08393223
148	0xbd4e000a	-0.050293006
149	0xbe3df17f	-0.18549155
150	0x3a7b71a4	0.0009591824
151	0xbcad1dcb	-0.02113237
152	0xbc859d52	-0.016310368
153	0xbe017593	-0.12642507
154	0x3df354aa	0.11881383
155	0x3cc8dfa1	0.024520697
156	0x3dde1942	0.10844661
157	0xbd0cb7b3	-0.034354877
158	0x3dd83feb	0.105590664
159	0x3dee4d1c	0.11635801
160	0x3d160845	0.03662898
161	0x3ddd41c0	0.108035564
162	0x3dcc0ffd	0.09963987
163	0xbeb8f6e0	-0.3612585
164	0xbd9fb4cc	-0.07798156
165	0x3daacef6	0.08340256
166	0xbe05673f	-0.13027667
167	0x3e33733e	0.1752443
168	0xbd33bfdc	-0.043884143
169	0xbd97a185	-0.07403854
170	0x3e3c1139	0.18365945
171	0x3e006782	0.12539485
172	0x3dc7947d	0.09745119
173	0xbd040f40	-0.032241106
174	0xba89c835	-0.0010511937
175	0x3dfafc0b	0.12255105
176	0x3d773905	0.060357112
177	0xbc5db2be	-0.013531385
178	0xbe3415cb	-0.17586438
179	0x3dcd4c87	0.10024362
180	0xbd908060	-0.070557356
181	0xbdb6554c	-0.08902988
182	0x3e801c6a	0.25021678
183	0xbba3142f	-0.0049767713
184	0xbb9b9b18	-0.004748713
185	0xbd6f83d3	-0.058475327
186	0xbdcedaea	-0.10100348
187	0xb9fbdc2d	-0.00048038494
188	0x3df10f96	0.11770551
189	0xbec21206	-0.37904376
190	0x3e059a5f	0.13047169
191	0x3db42e95	0.08797947
192	0xbd77910f	-0.060441073
193	0xbd88a2e6	-0.066716954
194	0x3d14bd1a	0.036313154
195	0xbd4da462	-0.050205596
196	0x3d74148b	0.059589904
197	0xbd54c6e7	-0.0519475
198	0x3d04efbb	0.032455187
199	0xbd431a6c	-0.04763262
200	0x3b2bba77	0.002620367
201	0xbda8f922	-0.08250643
202	0xbbb1ec37	-0.0054297703
203	0x3dfdb459	0.12387914
204	0xbc8ff8eb	-0.017574748
205	0x3d29ce3b	0.041456442
206	0xbe270925	-0.16312082
207	0x3ced2384	0.0289476
208	0xbe25e268	-0.16199648
209	0xbd83b9cb	-0.064319216
210	0x3d866799	0.065627284
211	0xbd70a1a3	-0.0587479
212	0xbd73673b	-0.05942462
213	0xbc5330b6	-0.012890032
214	0xbd8e928e	-0.06961547
215	0xbdfa1f0c	-0.12212953
216	0xbd3647b0	-0.04450196
217	0x3dc6250b	0.09675034
218	0xbe1b0c61	-0.15141441
219	0x3d7d5efd	0.061858166
220	0xbd4b9f32	-0.049712367
221	0xbd3575ca	-0.044301786
222	0xbc8d2392	-0.017228875
223	0xbde22d25	-0.11043767
224	0x3d8c83c7	0.06861072
225	0xbe2c93bb	-0.1685323
226	0xbd2a6d9a	-0.04160843
227	0xbe47436b	-0.19459312
228	0xbc8ec8b8	-0.017429695
229	0xbd7afb8a	-0.061275043
230	0xbe3a90a5	-0.1821924
231	0x3d95f2ab	0.07321676
232	0xbde1e58b	-0.1103011
233	0xbcfbb206	-0.030724537
234	0x3cb51fc1	0.022109868
235	0xbdbf2080	-0.09332371
236	0xbddd80e8	-0.108156025
237	0x3e2f2fd9	0.17108096
238	0xbdbe20aa	-0.09283574
239	0xbc926069	-0.017868238
240	0xbd4e93ab	-0.050433796
241	0xbdac7a83	-0.08421805
242	0xbe5431fe	-0.20722196
243	0x3cf9f3eb	0.030511817
244	0x3de35dac	0.11101851
245	0xbcf26f50	-0.029594094
246	0xbc04713a	-0.008083636
247	0xbc20f78b	-0.009824644
248	0xbe148227	-0.14502774
249	0xbd2103ef	-0.039310392
250	0x3dd27a0e	0.10277186
251	0xbd10e3d6	-0.03537353
252	0xbc9c11c8	-0.019051448
253	0xbd8961df	-0.067081206
254	0xbcf3c88a	-0.02975871
255	0x3e2a72b7	0.16645323

lstm.bias_ih_l0 f4 [256]
0	0xbc50ee4e	-0.012752129
1	0xbc59ef99	-0.013301753
2	0x3df2bce0	0.11852431
3	0x3d9c3005	0.076263465
4	0x3c9f0a2f	0.019414036
5	0xbe21865c	-0.1577391
6	0xbd07e1f1	-0.03317446
7	0xbe0fef5f	-0.14056157
8	0xbe1a6eee	-0.15081379
9	0x3d42d55c	0.047566757
10	0x3df319c5	0.118701495
11	0xbe1ff36b	-0.156202
12	0xbdc8fbac	-0.098136276
13	0xbd328b82	-0.043590076
14	0x3d87f0c6	0.06637721
15	0xbd59fd6e	-0.053220205
16	0xbc74d9bb	-0.014944489
17	0xbcb5905d	-0.022163564
18	0xbcd91869	-0.026500897
19	0x3dadba9c	0.084828585
20	0xbe449cea	-0.19200483
21	0xbc880017	-0.016601605
22	0xbe117db6	-0.14208111
23	0xbd52b5b2	-0.05144281
24	0x3aa7913f	0.0012784376
25	0x3e052227	0.1300131
26	0xbdf42774	-0.119215876
27	0x3d0e2010	0.034698546
28	0x3da33ec6	0.079709575
29	0xbd7cd2d3	-0.061724495
30	0xbddeb2f5	-0.10873977
31	0xbdf579fa	-0.11986156
32	0xbdd09623	-0.10184886
33	0x3d141680	0.03615427
34	0xbcd38c28	-0.025823668
35	0x3e28f2e7	0.1649891
36	0x3d8eb3a7	0.0696786
37	0x3d41c6c4	0.0473087
38	0x3db272e9	0.087133236
39	0x3dac61dc	0.08417103
40	0x3b9a5e90	0.0047109798
41	0xbdfb3c3b	-0.122673474
42	0xbe15e025	-0.14636286
43	0x3c0e81ea	0.008697966
44	0xbdf285bc	-0.11841914
45	0xbe8dfffc	-0.27734363
46	0x3d3970d9	0.045273636
47	0xbca04f1e	-0.019568976
48	0x3db7ea98	0.08980292
49	0xbd148c0a	-0.036266364
50	0xbd8d54fd	-0.06900976
51	0x3d2daf00	0.04240322
52	0xbb938561	-0.004501984
53	0xbe15f6a5	-0.14644869
54	0xbe033a21	-0.12815143
55	0xbe0054aa	-0.12532297
56	0xbd99fdb6	-0.07519095
57	0xbe099ae7	-0.13437997
58	0x3d2b853a	0.0418751
59	0xbcfd3dd3	-0.03091327
60	0x3acf8e89	0.0015835325
61	0xbd326371	-0.043551866
62	0x3b512dd2	0.003191818
63	0x3d958bf4	0.073020846
64	0xbe20236a	-0.1563851
65	0xbcad4d62	-0.021155063
66	0x3e020df4	0.12700635
67	0xbe073a72	-0.13205889
68	0xbe29a8be	-0.16568276
69	0x3d1c279d	0.038123716
70	0xbdea0a1f	-0.11427712
71	0xbd9a48df	-0.0753343
72	0xbe52b91f	-0.2057843
73	0xbc331388	-0.01092995
74	0xbd600f50	-0.054702103
75	0x3cd3a06b	0.02583333
76	0xbd47a5e1	-0.04874218
77	0xbdcfc16a	-0.10144313
78	0x3da30068	0.07959062
79	0xbc0d644d	-0.008629871
80	0xbd2c1e34	-0.04202099
81	0xbe55feb6	-0.20897946
82	0xbdd40b3b	-0.103537045
83	0xbd0c90e8	-0.03431788
84	0xbde43a50	-0.11143935
85	0xbd92a864	-0.07161024
86	0x3cec9e95	0.028884212
87	0x3d7741b2	0.060365386
88	0x3d2a88a9	0.041634236
89	0x3df872aa	0.121312454
90	0xbe33cc26	-0.17558345
91	0xbd9c29bb	-0.07625147
92	0x3cd6dc0e	0.026227977
93	0xbc69c8fd	-0.014269111
94	0x3c690f96	0.014224907
95	0xbd8fc7a1	-0.07020498
96	0x3c485a3c	0.012228545
97	0x3dac6082	0.08416845
98	0xbac6d01e	-0.0015168225
99	0x3dd073b2	0.10178317
100	0x3d694856	0.05695375
101	0x3cf3f524	0.029779978
102	0xbe133a4e	-0.1437771
103	0xbd485923	-0.048913132
104	0xbe1c6fa0	-0.15276957
105	0xbc9021f5	-0.017594317
106	0xbe350252	-0.17676666
107	0xbcea04e2	-0.028566781
108	0x3bcafb5b	0.0061945147
109	0xbe733565	-0.23750837
110	0xbe1429ed	-0.14469118
111	0xbdc25d9a	-0.09490509
112	0xbdb61f2a	-0.08892663
113	0xbd36ce95	-0.044630606
114	0x3cb31557	0.021860762
115	0x3c9f8dde	0.019476827
116	0xbde6348f	-0.112404935
117	0xbdd73a3e	-0.10509156
118	0xbdf2dbe9	-0.11858351
119	0xbdc59e65	-0.09649352
120	0xbe079007	-0.13238536
121	0xbc8ee4b6	-0.017443042
122	0x3db082c3	0.08618691
123	0xbe1770fa	-0.14789191
124	0xbb8d287c	-0.0043078046
125	0xbd81767c	-0.06321427
126	0x3c975a5d	0.018475706
127	0xbd0e3d91	-0.034726683
128	0xbd1b409c	-0.037903413
129	0xbc226f1a	-0.009914184
130	0xbdcb24d0	-0.09919131
131	0xbd8e6a48	-0.06953865
132	0x3c7bba4a	0.015364239
133	0x3b8ef597	0.0043627727
134	0x3da0e3f5	0.07855979
135	0xbb88c331	-0.0041736593
136	0xbd504080	-0.050842762
137	0x3d2bef9f	0.041976567
138	0xbbc39b0f	-0.005969412
139	0xbd8481bf	-0.064700596
140	0x3b2ca016	0.0026340536
141	0x3d730c16	0.059337698
142	0xbe05694e	-0.13028452
143	0x3d41e122	0.047333844
144	0xbd6c9eb5	-0.057768542
145	0x3d91c324	0.07117298
146	0x3d3a4c7a	0.04548309
147	0xbd0711e0	-0.03297603
148	0xba676d55	-0.00088282424
149	0xbd1b9e1f	-0.037992593
150	0x3c8b5ae3	0.017011112
151	0xbd02cb15	-0.031931955
152	0xbd9bdc95	-0.07610432
153	0x3de16826	0.11006193
154	0xbcd0ba7a	-0.025479544
155	0x3e12a049	0.14318956
156	0xbdc6b586	-0.097025916
157	0x3da8d655	0.082440056
158	0x3d7f258c	0.062291667
159	0x3d793fbc	0.060851797
160	0x3df0606b	0.1173714
161	0xbcd3827f	-0.025819061
162	0x3d970792	0.07374491
163	0x3d6e0b23	0.05811609
164	0x3dcda9d7	0.1004216
165	0xbe132830	-0.14370799
166	0xbd8931d9	-0.06698961
167	0x3dbc4059	0.09191961
168	0xbc980e71	-0.018561574
169	0xbcc7a138	-0.024368867
170	0x3d1794e5	0.03700723
171	0x3d68b401	0.05681229
172	0x3d67c4b2	0.056584068
173	0x3d9f567b	0.07780167
174	0x3d536f76	0.05161997
175	0xbdc84e47	-0.09780555
176	0x3e1fed25	0.15617807
177	0xbd0eafc6	-0.0348356
178	0xbc2350bd	-0.00996798
179	0x3cb98660	0.022647083
180	0xb9919031	-0.00027763986
181	0xbbd52968	-0.00650518
182	0x3c7f34b2	0.015576528
183	0xbd253be0	-0.040340304
184	0x3d1fe3e5	0.039035697
185	0x3d2e604e	0.042572312
186	0x3e081316	0.1328853
187	0x3ba1f3b5	0.004942382
188	0x3df42c0f	0.11922466
189	0xbdab5dd8	-0.08367509
190	0xbd2dcd07	-0.042431857
191	0x3b682ed3	0.00354283
192	0xbdb57e69	-0.088620014
193	0xbdf8434c	-0.12122211
194	0x3d870dc7	0.06594425
195	0x3ded1dc4	0.11577943
196	0xbdc9ad10	-0.09847462
197	0xbd0de76d	-0.034644533
198	0x3d7d83ce	0.061893277
199	0xbe43e970	-0.19132018
200	0xbd93e34a	-0.07221086
201	0xbd195514	-0.037434652
202	0xbdceb704	-0.10093501
203	0x3d25bd60	0.040463805
204	0xbe1c9d31	-0.15294339
205	0xbd5e3707	-0.054251697
206	0xbdd8fc72	-0.10595025
207	0x3b3282b5	0.0027238552
208	0xbd82f2aa	-0.06393941
209	0xbccfab36	-0.025350194
210	0x3c08643a	0.008324677
211	0xbaf7b5e7	-0.0018898816
212	0xbdd9f66b	-0.106427036
213	0x3e00dd0b	0.12584321
214	0xbd6ef48f	-0.058338698
215	0xbd438cdf	-0.047741767
216	0xbd127539	-0.035756323
217	0xbd799977	-0.06093737
218	0xbcfe8ea9	-0.031073885
219	0x3c4a827e	0.012360213
220	0xbd9ae85f	-0.075638525
221	0x3d65a168	0.056062132
222	0x3c7274d3	0.014798361
223	0xbdd6eb75	-0.104941286
224	0xbb6331aa	-0.0034667053
225	0xbe0b4e1b	-0.13604014
226	0xbdc7a3f4	-0.097480685
227	0x3e757a77	0.23972498
228	0x3de300c4	0.110841304
229	0xbdc511b0	-0.09622514
230	0xbd25095a	-0.04029212
231	0xbdedcfee	-0.11611925
232	0xbe3d760e	-0.18502066
233	0xbdb5efb3	-0.088836096
234	0xbd814585	-0.06312088
235	0x3dae42b1	0.08508814
236	0x3d98f0de	0.07467817
237	0xbe86b264	-0.26307976
238	0xbd3b3423	-0.04570402
239	0xbdd5d4e7	-0.104409985
240	0xbdd839b1	-0.10557879
241	0xbd8fba9a	-0.07018013
242	0xbd2a162b	-0.041525047
243	0x3df35f62	0.11883427
244	0x3cc9eb26	0.02464826
245	0xbc06934a	-0.008213827
246	0xbd930dc6	-0.071803614
247	0xbd92ccde	-0.071679816
248	0xbe3fadb0	-0.187186
249	0xbd8deb44	-0.06929639
250	0xbdabad78	-0.08382696
251	0xbe13fcc9	-0.14451899
252	0x3cc5a766	0.024127673
253	0xbe406ef2	-0.18792322
254	0x3d4f838e	0.05066257
255	0xbaa0b393	-0.0012260549

lstm.bias_hh_l0 f4 [256]
0	0x3ce67d0d	0.0281358
1	0xbd46133b	-0.048358183
2	0x3d7f9606	0.062398933
3	0xbd2087e1	-0.039192084
4	0xbdd69ba3	-0.10478904
5	0xbddfb4ad	-0.10923133
6	0x3dc040f0	0.09387386
7	0xbe24bfaa	-0.16088739
8	0xbda4961e	-0.08036445
9	0xbe1a51cc	-0.15070266
10	0x3d8cdb96	0.0687782
11	0xbd8e454f	-0.06946813
12	0xbe5dcaf0	-0.21659446
13	0xbcc98d27	-0.02460344
14	0xbd2b1c7e	-0.04177522
15	0xbe14c8ea	-0.14529768
16	0xbd6461a0	-0.055757165
17	0xbdf00bf9	-0.117210336
18	0xbe278fbf	-0.16363429
19	0x3bca17c0	0.006167382
20	0xbe5d3a0a	-0.21604171
21	0xbbb1e157	-0.005428474
22	0xbe068d57	-0.13139854
23	0xbd8a9696	-0.06767003
24	0x3cb4cfbc	0.022071712
25	0xbda12827	-0.078689866
26	0x3d8792f2	0.066198245
27	0x3d8ccac2	0.068746105
28	0x3e062571	0.1310022
29	0x3c782cbf	0.015147387
30	0xbd4d3476	-0.05009886
31	0xbcd37b33	-0.025815582
32	0xbe07d15d	-0.1326346
33	0x3c6f1b40	0.014593899
34	0x3d8b462a	0.06800492
35	0x3e6f2638	0.23354423
36	0xbb149d46	-0.002267675
37	0x3d5f2200	0.054475784
38	0x3d8b098b	0.067889296
39	0xbdf2e923	-0.118608736
40	0x3d0e71c4	0.034776464
41	0x3d3dce02	0.046339042
42	0xbe011915	-0.12607224
43	0xbc9877a6	-0.01861174
44	0xbd19400d	-0.0374146
45	0xbe14bd65	-0.14525373
46	0x3d894e17	0.067043476
47	0x3c703529	0.014661112
48	0xbd8b8446	-0.068123385
49	0xbd9e4dc6	-0.07729678
50	0xbe186062	-0.14880517
51	0xbc1f41fd	-0.009720323
52	0x3b8948c6	0.0041895835
53	0x3daa572f	0.0831741
54	0xbd2161e1	-0.039399985
55	0x3ce70c8a	0.028204221
56	0xbdc3b440	-0.09555864
57	0x394932c2	0.00019187763
58	0x3cd35980	0.025799513
59	0xbe150564	-0.14552838
60	0xbd9958af	-0.07487618
61	0xbe1343c2	-0.14381316
62	0xbc2db4c4	-0.01060218
63	0xbc989471	-0.01862547
64	0xbda97af9	-0.08275408
65	0xbdd7bb52	-0.105337754
66	0x3e161b32	0.14658812
67	0xbd2d2c72	-0.042278714
68	0xbddc6ab8	-0.107625425
69	0xbce1f199	-0.027581023
70	0x3d5792d5	0.052630264
71	0x3c915c54	0.01774422
72	0x3d0ba379	0.034091447
73	0xbd4ca164	-0.0499586
74	0xbd9fae2d	-0.07796893
75	0xbe2dcdfe	-0.16973111
76	0xbd71b4b8	-0.059010237
77	0xbd36bb61	-0.044612292
78	0x3d5afd18	0.053464025
79	0xbe24cfcf	-0.16094898
80	0xbd572ac3	-0.052531015
81	0xbe1a8629	-0.1509024
82	0x3c509411	0.012730614
83	0xbddae927	-0.106890015
84	0xbcf7c4bd	-0.03024518
85	0xbc1edea6	-0.009696638
86	0xbde390b0	-0.11111581
87	0xbb2eb1ce	-0.0026656273
88	0xbd8fa4d5	-0.07013861
89	0x3d552ea7	0.052046444
90	0xbe8b6245	-0.2722341
91	0x3d096bbf	0.03355002
92	0xbdd10cf7	-0.10207551
93	0xbe13bcec	-0.14427537
94	0xbd880220	-0.0664103
95	0x3ced2c3a	0.028951753
96	0x3d834d31	0.064112075
97	0x3d805a49	0.062672205
98	0xbda014fe	-0.07816504
99	0xbda86c85	-0.082238235
100	0x3ca853d6	0.020547789
101	0xbdff3731	-0.12461699
102	0xbdb3e381	-0.08783627
103	0xbda44407	-0.08020788
104	0xbcbeb90c	-0.023281597
105	0xbe0890cf	-0.1333649
106	0xbdfc1430	-0.12308538
107	0x3e049d81	0.12950708
108	0xbdf8737c	-0.12131402
109	0xbdaab5f4	-0.08335486
110	0x3c979688	0.018504396
111	0xbe1124ab	-0.14174144
112	0xbdc129d1	-0.09431804
113	0x3d8e77ac	0.06956419
114	0xbe1e7946	-0.1547595
115	0x3b253b10	0.0025212206
116	0x3d54499f	0.051828023
117	0x3b5f9f00	0.003412187
118	0xbe02bb90	-0.12766862
119	0xbd7a4f51	-0.0611108
120	0xbdafb46b	-0.08579334
121	0xbe2cde53	-0.16881685
122	0xbe068d73	-0.13139896
123	0xbdf1ad8a	-0.11800678
124	0xbdf3f44e	-0.11911832
125	0xbe364158	-0.17798364
126	0xbca48dbf	-0.020087121
127	0xbd7600b2	-0.060059257
128	0xbd208089	-0.03918508
129	0x3d058cfb	0.032605153
130	0x3e09ee73	0.13469867
131	0x3d84f2c8	0.06491619
132	0x3d6cf4c4	0.057850614
133	0x3ddec7dc	0.10877964
134	0xbcb7bffd	-0.022430414
135	0x3cc0bd09	0.023527639
136	0xbbc5b4fb	-0.0060335374
137	0xbd1feee3	-0.03904618
138	0x3da3e7e3	0.08003213
139	0x3c578923	0.013155255
140	0x3c724b75	0.014788498
141	0x3d2dabd7	0.042400207
142	0x3d8a817e	0.0676298
143	0xbd7956dd	-0.060873855
144	0x3d9c8e21	0.076442964
145	0xbd56395e	-0.052300803
146	0xbd2c4ce7	-0.042065527
147	0x3c4564bc	0.012047943
148	0xbd8c2bff	-0.06844329
149	0xbd9946b2	-0.07484187
150	0xbd35af93	-0.044356894
151	0xbd6a7d58	-0.057248443
152	0x3d2c38f6	0.04204651
153	0x3de8d39c	0.11368486
154	0xbd16c7f2	-0.036811776
155	0xbdbd58e1	-0.09245468
156	0x3dbd4a08	0.09242636
157	0x3de76f4b	0.11300524
158	0x3dca67e6	0.09883098
159	0xbd98eb36	-0.07466738
160	0xbce65a5d	-0.02811926
161	0xbdb20a14	-0.086933285
162	0xbc30dd85	-0.010795002
163	0xbd7b5045	-0.061355848
164	0x3dd0607f	0.10174655
165	0xbd9b8fa7	-0.07595759
166	0xbd0bbecc	-0.034117505
167	0x3dd3f115	0.10348717
168	0xbd37a052	-0.044830628
169	0x3ced6383	0.028978115
170	0x3d1ea553	0.038731884
171	0x3c765f9b	0.015037443
172	0xbcc0e937	-0.023548706
173	0xbcc89bb2	-0.024488304
174	0x3cf21a4f	0.02955356
175	0x3d25830e	0.040408187
176	0xba114861	-0.00055420963
177	0x3df8e812	0.12153639
178	0xbcb379fc	-0.021908753
179	0xbdee65d4	-0.11640516
180	0xbd00edca	-0.031476773
181	0xbcc675d1	-0.024226101
182	0xbda87d24	-0.08226994
183	0x3ca7fcf2	0.020506356
184	0xbce5b4ab	-0.02804025
185	0xbccf4516	-0.025301497
186	0x3ca9bca4	0.020719834
187	0xbd892e73	-0.066983126
188	0x3d8c084b	0.06837519
189	0x3de32a38	0.11092037
190	0x3d163457	0.03667101
191	0x3ddfee39	0.10934109
192	0xbe4b0888	-0.19827473
193	0x3d89b174	0.067232996
194	0x3d84dbe8	0.06487256
195	0xbc095057	-0.008380971
196	0xbc33968f	-0.010961189
197	0x39be9639	0.0003635155
198	0xbcae2315	-0.021256963
199	0x3beb7b98	0.0071863644
200	0xbb9d8959	-0.004807633
201	0xbdee0df7	-0.11623757
202	0xbc7bcfd4	-0.015369374
203	0xbe277e41	-0.16356756
204	0xbe359ac1	-0.17734815
205	0xbe10c72c	-0.14138478
206	0xbd2951b7	-0.041337695
207	0xbdd404c1	-0.10352469
208	0xbd8beadd	-0.06831906
209	0xbce2f4f0	-0.027704686
210	0x3d699d85	0.057034988
211	0x3d42582c	0.04744737
212	0xbe73c770	-0.23806548
213	0xbd67ffeb	-0.056640547
214	0xbe0889bd	-0.13333793
215	0xbdef2995	-0.11677853
216	0x3cf8bc95	0.03036336
217	0x3db469fe	0.08809279
218	0xbdcf9261	-0.101353414
219	0xbda7312b	-0.08163675
220	0xbcf52625	-0.029925415
221	0x3b30b203	0.0026961572
222	0x3d0fe07e	0.0351262
223	0xbda6a330	-0.08136594
224	0x3d90710b	0.07052811
225	0xbc4b7d09	-0.012419947
226	0x3daddece	0.08489762
227	0x3e70824a	0.23487201
228	0x3e0de567	0.13857041
229	0xbd89be15	-0.067257084
230	0x3d81240b	0.06305703
231	0xbd4945cb	-0.049138825
232	0xbde31458	-0.11087865
233	0x3d45b5a9	0.048268948
234	0xbe6bc9e4	-0.23026234
235	0x3c478c60	0.012179464
236	0xbcda20cf	-0.026626972
237	0xbd8b0e27	-0.06789809
238	0x3d658186	0.056031726
239	0xbda5ec9b	-0.081017695
240	0x3d847e63	0.06469419
241	0x3c15f134	0.009151746
242	0xbbda0ed8	-0.0066546015
243	0x3daf7e02	0.08568956
244	0xbce295fb	-0.027659407
245	0xbd84c2c9	-0.06482465
246	0xbe2f77b0	-0.17135501
247	0xbd6f3bb4	-0.058406547
248	0x3b99df80	0.0046958327
249	0xbdece98a	-0.115679815
250	0x3d362a47	0.044473913
251	0xbd2c9554	-0.042134598
252	0xbd5efae6	-0.054438494
253	0xbd082b6e	-0.033244543
254	0xbe1b3e20	-0.15160418
255	0xbd423134	-0.047410205

lstm.weight_ih_l1 f4 [256, 64]
0	0xbd3543d6	-0.044254147
1	0xbde1af7a	-0.110197976
2	0x3db19ad5	0.0867211
3	0x3c831ae1	0.016004028
4	0xbc44eca0	-0.012019306
5	0x3dbd1848	0.09233147
6	0x3dbf2e16	0.09334962
7	0x3d289fdf	0.04116809
8	0xbb584fa6	-0.0033006459
9	0x3c6e8684	0.014558438
10	0xbbba9f3b	-0.0056952513
11	0x3b3dea32	0.0028978703
12	0xbd1624e5	-0.03665628
13	0x3d3bbdcd	0.045835305
14	0x3db35820	0.08757043
15	0xbe005077	-0.12530695
16	0x3de249ee	0.11049257
17	0x3d4243df	0.04742801
18	0x3d57a0ce	0.05264359
19	0x3d826fb1	0.0636896
20	0x3d9531f1	0.07284916
21	0xbc97e0fe	-0.018539902
22	0xbdeba624	-0.11506298
23	0xbcde36b5	-0.027125696
24	0x38bfe3b1	9.1500006e-05
25	0xbd619144	-0.055070177
26	0xbd98c8e3	-0.07460191
27	0xbd4d74ee	-0.05016034
28	0x3a52e679	0.00080452074
29	0xbdc6620b	-0.09686669
30	0xbdf32c28	-0.118736565
31	0xbde46b1d	-0.11153243
32	0xbd5d0210	-0.053957045
33	0xbda5eacb	-0.08101424
34	0xbd93056e	-0.0717877
35	0x3c13f3e3	0.009030315
36	0xbdf4a55c	-0.11945602
37	0xbb810f3e	-0.0039385846
38	0xbdad7f71	-0.08471573
39	0xbdd7e310	-0.105413556
40	0xbd32f796	-0.043693148
41	0xbc549712	-0.012975471
42	0x3ca4091c	0.020023875
43	0xbdd727a1	-0.105056055
44	0x3d6328b5	0.055458743
45	0xbd82b03f	-0.063812725
46	0xbde4f9dd	-0.1118047
47	0x3dc1dfdc	0.09466526
48	0xbcdc485b	-0.02688997
49	0x3cbebc26	0.023283076
50	0x3e11ddce	0.14244768
51	0xbd02e31d	-0.031954873
52	0x3d7c554d	0.061604787
53	0xbc89033b	-0.016725173
54	0xbd020003	-0.031738292
55	0xbd490339	-0.04907534
56	0x3dccca3c	0.09999511
57	0xbdaba985	-0.08381943
58	0x3d299f44	0.041411653
59	0xbc455691	-0.012044565
60	0xbd4547ed	-0.048164297
61	0xbd230f08	-0.039809257
62	0xbd0a32c8	-0.033739835
63	0xbe2d7898	-0.16940534
64	0xbd9ecd64	-0.07754019
65	0xbd773057	-0.060348835
66	0xbd2a4aac	-0.04157512
67	0x3e3d5bf5	0.1849211
68	0x3d7e82fd	0.06213664
69	0x3d1191c1	0.035539392
70	0x3bdd6c24	0.006757276
71	0xbd9bd058	-0.07608098
72	0xbd4820da	-0.048859455
73	0x3e040569	0.12892689
74	0xbdd2af09	-0.102872916
75	0x3b86fb22	0.004119293
76	0xbe02908a	-0.1275045
77	0xbdd17f4d	-0.10229359
78	0xbd966c8a	-0.07344921
79	0x3d7756f9	0.060385678
80	0x3ca97f36	0.020690542
81	0xbdb7b6f3	-0.08970442
82	0xbdea8211	-0.114505894
83	0x3e198ef0	0.14995933
84	0xbcca5fda	-0.024703909
85	0xbdc16a8c	-0.0944415
86	0x3c85c2c9	0.016328232
87	0x3d18be76	0.037291013
88	0xbc601ed1	-0.013679222
89	0x3c859896	0.01630811
90	0x3e841552	0.25797516
91	0x3d5c49bd	0.05378126
92	0x3d49bedc	0.049254283
93	0xbe6693fc	-0.22517389
94	0x3d6ecbea	0.058299936
95	0xbd9417c5	-0.07231096
96	0xbde51d50	-0.111872315
97	0x3d1578b8	0.03649208
98	0xbe403af7	-0.18772493
99	0x3e28bf48	0.16479218
100	0xbc87f55a	-0.016596485
101	0x3e3c3f0f	0.1838343
102	0x3e3ae8dc	0.18252891
103	0x3d9cf421	0.076637514
104	0xbd6a2eec	-0.057173654
105	0xbd962f0f	-0.073331945
106	0x3da9a649	0.082836695
107	0x3cff5145	0.031166682
108	0x3c67dd0f	0.014151826
109	0x3d17de50	0.037077248
110	0x3c1e4706	0.009660488
111	0x3df69446	0.1204
112	0x3dcb5afc	0.09929463
113	0xbc79a10d	-0.015236151
114	0xbdfcb967	-0.1234005
115	0xbdb6f000	-0.08932495
116	0x3d5a4ff4	0.053298905
117	0xbd2e566f	-0.0425629
118	0xbce0e709	-0.027453916
119	0x3cae2cb7	0.021261556
120	0xbc2b318c	-0.010448825
121	0x3db2e6d1	0.08735431
122	0xbba352b2	-0.0049842233
123	0xbdee07a5	-0.11622552
124	0xbdd5d2a0	-0.10440564
125	0x3d6fe4e4	0.058567896
126	0xbe56fe7c	-0.20995516
127	0x3dbfffd7	0.093749695
128	0x3e31bb05	0.17356499
129	0xbd473395	-0.048633177
130	0x3cd5b9e0	0.026089609
131	0x3e710b05	0.2353936
132	0x3cc77ead	0.024352396
133	0x3da85d81	0.082209595
134	0xbdc6e910	-0.09712422
135	0xbd53ad04	-0.051678672
136	0x3d81839b	0.0632393
137	0xbd96cbdb	-0.07363101
138	0xbcd104c7	-0.025514973
139	0x3dd43816	0.1036226
140	0x3d353c43	0.044246923
141	0xbe4b9eca	-0.19884792
142	0xbe093a70	-0.13401198
143	0xbb4d4252	-0.0031320048
144	0xbdd8a9b0	-0.1057924
145	0xbdef92ee	-0.116979465
146	0xbd5dbfae	-0.054137878
147	0x3d0a2fbb	0.033736926
148	0x3e00ad46	0.12566099
149	0xbd061978	-0.032739133
150	0x3e3497d1	0.17636038
151	0xbe221023	-0.15826468
152	0xbd0ff9a2	-0.035150178
153	0xbe23d08f	-0.15997528
154	0x3d996a01	0.07490922
155	0x3ded57ab	0.11588987
156	0x3e1e3c58	0.15452707
157	0xbd980105	-0.074220695
158	0xbda39fdc	-0.07989475
159	0x3d118d80	0.035535336
160	0xbda76052	-0.081726685
161	0xbd800527	-0.06250983
162	0xbd090e76	-0.033461057
163	0x3d5caad9	0.05387387
164	0xbe2509c0	-0.16117
165	0x3e73f51b	0.23823969
166	0x3e313b53	0.17307787
167	0x3d705ba2	0.058681138
168	0xbd9951f1	-0.07486332
169	0xbcb1538f	-0.02164629
170	0xbab79c48	-0.0014008367
171	0xbe1b6525	-0.15175302
172	0x3cba08b4	0.022709228
173	0x3bc3983f	0.005969077
174	0x3d933c44	0.07189229
175	0x3e1b9d28	0.15196669
176	0x3b906d4b	0.00440756
177	0xbd2ccfff	-0.042190548
178	0x3d028e31	0.031873886
179	0xbcbd5478	-0.023111567
180	0x3e35a1af	0.17737459
181	0x3e1b7c2f	0.15184091
182	0xbd73245d	-0.05936085
183	0x3e055f74	0.13024694
184	0x3cec7299	0.028863238
185	0x3d08f1e1	0.0334338
186	0xbd5da46e	-0.05411189
187	0xbd98f31a	-0.07468243
188	0xbd1b2b4f	-0.0378831
189	0xbc00f082	-0.0078698415
190	0xbe2f6a35	-0.17130359
191	0xbceda862	-0.029010955
192	0xbcd8880c	-0.02643206
193	0x3ccbf738	0.024898157
194	0xbcb11f83	-0.021621471
195	0xbda6153c	-0.08109519
196	0x3db26c2e	0.0871204
197	0x3d91920f	0.071079366
198	0x3cbdc194	0.023163594
199	0x3ddfbb05	0.10924343
200	0x3d88e0dd	0.06683514
201	0x3d8a4e57	0.067532234
202	0xbdea7ce1	-0.114496
203	0x3d629468	0.055317312
204	0x3dc5b333	0.0965332
205	0x3db6f360	0.08933139
206	0x3e232a22	0.15934041
207	0x3d7cbce2	0.06170357
208	0xbd27a2ad	-0.040926624
209	0x3cb09a1b	0.021557858
210	0xbc0845ac	-0.008317392
211	0xbd93e0b2	-0.072205916
212	0x3d4c2fec	0.04985039
213	0x3b0f3b5e	0.0021855454
214	0xbd848cb7	-0.06472152
215	0xbc699d22	-0.014258655
216	0xbdc5d3dd	-0.0965955
217	0xbe0b4d47	-0.13603698
218	0x3d7428aa	0.059609093
219	0x3d7c7852	0.061638184
220	0xbd84b88d	-0.06480513
221	0xbcc12fdd	-0.023582393
222	0x3dc9f93d	0.098619916
223	0x3c24845b	0.010041322
224	0xbdc3db29	-0.09563286
225	0xbdcf4c0a	-0.10121925
226	0x3d2b4d68	0.041821867
227	0xbdf7387f	-0.12071323
228	0xbd49f2bf	-0.049303766
229	0xbbd184c4	-0.0063940007
230	0xbd574bb3	-0.052562427
231	0xbe20c084	-0.15698439
232	0xbd70910c	-0.058732077
233	0x3da9cd0d	0.082910635
234	0xbd48e210	-0.049043715
235	0x3dd25201	0.10269547
236	0xbd95442b	-0.07288393
237	0x3c8e187a	0.017345656
238	0x3d3e753f	0.046498533
239	0x3d88fada	0.06688471
240	0x3ca155d9	0.019694256
241	0xbe0047cd	-0.1252739
242	0x3d860c36	0.06545298
243	0x3e1807e7	0.14846765
244	0xbd1ac9f7	-0.037790265
245	0x3d6857a6	0.056724213
246	0x3dadf4c3	0.0849395
247	0x3a903191	0.00110011
248	0xbde6d6e7	-0.11271458
249	0x3dec4aae	0.115376815
250	0xbd9091a2	-0.07059027
251	0x3d6f466b	0.058416765
252	0xbe200729	-0.15627731
253	0x3d3213f6	0.043476067
254	0x3e0c6465	0.13710172
255	0xbd38a9f4	-0.045083955

lstm.weight_hh_l1 f4 [256, 64]
0	0x3ce8b17b	0.028404942
1	0x3d73ccbf	0.059521433
2	0x3dd0fc27	0.10204344
3	0xbd2f1500	-0.042744637
4	0x3e12bfd5	0.1433099
5	0xbdfc4109	-0.12317092
6	0x3d476ff7	0.048690762
7	0x3c4be4bc	0.012444671
8	0x3dded3bf	0.10880231
9	0x3dd5320a	0.10409935
10	0x3d27517b	0.04084919
11	0x3d30f3a7	0.043201115
12	0x3d1966a6	0.03745141
13	0xbd3f770a	-0.046744384
14	0x3e25e7ac	0.16201657
15	0xbd93bbab	-0.07213529
16	0x3df49255	0.11941973
17	0x3cb90b00	0.022588253
18	0xbb9e5b9b	-0.0048326976
19	0x3df326c3	0.118726276
20	0x3dfce766	0.12348823
21	0x3e0218d8	0.1270479
22	0xbcc1d157	-0.023659391
23	0xbdacdd77	-0.084406786
24	0x3cb580fb	0.02215623
25	0x3da5fa82	0.08104421
26	0x3d8c1308	0.068395674
27	0x3dc6fa57	0.09715717
28	0xbcd23161	-0.025658311
29	0xbd88b3c7	-0.06674915
30	0xbce50554	-0.027956642
31	0x3d3162e8	0.043307215
32	0xbc5b5961	-0.013388009
33	0x3d8b9603	0.06815722
34	0xbd921a12	-0.07133879
35	0x3e1f28dd	0.15542932
36	0xbd018cb8	-0.03162834
37	0xba7f4214	-0.00097373244
38	0xbd2356ac	-0.03987758
39	0x3bdf2afb	0.0068105436
40	0xbdcd199e	-0.10014652
41	0xbded9e36	-0.11602442
42	0xbd879b00	-0.06621361
43	0x3dc9659b	0.09833833
44	0xbcd4c7ff	-0.025974272
45	0xbd17c129	-0.037049446
46	0xbdc3eebd	-0.0956702
47	0xbdd85539	-0.1056313
48	0xbd9b5495	-0.07584492
49	0xbe133e0c	-0.14379138
50	0x3d6e7da3	0.058225285
51	0x3d3167b4	0.04331179
52	0xbcb751e9	-0.022377925
53	0xbdd69e14	-0.1047937
54	0xbda0d56c	-0.07853207
55	0x3c181c9d	0.009284166
56	0xbcf9004f	-0.030395655
57	0x3d4c5e0e	0.049894385
58	0xbd785b64	-0.060634032
59	0x3cbc2bfa	0.022970188
60	0x3d8901f2	0.06689824
61	0x3d9b8a63	0.075947545
62	0x3e18f6b5	0.14937861
63	0x3d838c04	0.0642319
64	0x3ce61121	0.02808434
65	0xbdc79331	-0.097448714
66	0x3cfbef9f	0.030753909
67	0xbd7fe8ae	-0.06247776
68	0x3d4d6329	0.050143395
69	0x3d8dc7dd	0.069228865
70	0x3db2c011	0.0872804
71	0xbae06dd1	-0.0017122572
72	0x3e01adfa	0.12664023
73	0x3dbb53f1	0.0914687
74	0x3c8733d6	0.01650421
75	0xbd8ed266	-0.06973724
76	0x3d11bf93	0.03558309
77	0xbbcc1f0b	-0.0062292865
78	0xbc235c9a	-0.009970808
79	0xbbc83b91	-0.0061106165
80	0xbd80be27	-0.06286269
81	0xbd5648b9	-0.052315447
82	0x3cfd25a5	0.03090174
83	0xbcc09479	-0.023508297
84	0xbd554524	-0.05206789
85	0x3a7521fe	0.00093510735
86	0x3d3a68c5	0.045510072
87	0xbd11bb30	-0.035578907
88	0xbc5c0df8	-0.013431065
89	0x3deb7525	0.11496953
90	0xbde4200a	-0.111389235
91	0xbd6ef89e	-0.05834257
92	0x3dc63355	0.096777596
93	0xbafd6563	-0.0019332584
94	0x3d92d0a6	0.07168703
95	0x3d6bca73	0.057566117
96	0xbcc8e114	-0.024521388
97	0xbcd66793	-0.026172435
98	0x3d97f46e	0.07419668
99	0x3e0a96a7	0.13534032
100	0xbd982f5a	-0.074309066
101	0xbd86f30f	-0.065893285
102	0x3d830861	0.063980825
103	0xbdceef1d	-0.10104201
104	0xbe0198c8	-0.12655938
105	0xbdbe081e	-0.09278892
106	0x3dd8212c	0.10553202
107	0x3d856cf8	0.06514925
108	0xbcd4f88f	-0.025997428
109	0x3c32c6d7	0.010911665
110	0x3dcc3401	0.099708565
111	0x3dc5abf4	0.09651938
112	0x3d2a3720	0.041556478
113	0x3d99bfe9	0.07507307
114	0xbdc9160f	-0.098186605
115	0x3cfa2823	0.030536717
116	0x3d1109df	0.035409804
117	0xbe191287	-0.14948474
118	0xbcfa55d5	-0.030558506
119	0xbc93a7e8	-0.0180244
120	0x3dc8c8d9	0.09803934
121	0x3d1eb461	0.03874624
122	0x3db6b012	0.089203015
123	0xbdac44b1	-0.08411539
124	0xbe391357	-0.18073784
125	0x3d83d506	0.06437115
126	0xbce45804	-0.027874
127	0x3dfc7380	0.123267174
128	0x3c5109cb	0.0127586825
129	0xbe0e33f8	-0.13887012
130	0xbd4b2fea	-0.04960624
131	0x3df6c484	0.12049201
132	0x3d08b186	0.033372425
133	0x3d699f9d	0.057036985
134	0x3cd76bb4	0.026296474
135	0xbd716f3c	-0.058943972
136	0x3db5d737	0.088789396
137	0xbc88ce6b	-0.01669999
138	0x3d9fc7b9	0.07801766
139	0xbe1be270	-0.15223098
140	0x3d8f1f3b	0.069883786
141	0x3dbb62c0	0.091496944
142	0x3d7614db	0.060078483
143	0x3b42e924	0.0029741013
144	0xbe33a616	-0.17543826
145	0x3d8469d4	0.064654976
146	0x3d602bc9	0.054729257
147	0x3e3177a2	0.17330793
148	0xbd7c1f22	-0.061553128
149	0x3df47f32	0.11938323
150	0xbe4ca310	-0.19984078
151	0x3d982783	0.07429411
152	0xbd78ca6e	-0.060739927
153	0x3e42049a	0.18947068
154	0xbd2327c9	-0.039832864
155	0x3d85ada1	0.06527258
156	0xbd645f45	-0.05575492
157	0xbdd6beae	-0.10485588
158	0xbcf07315	-0.02935175
159	0x3e16806c	0.14697427
160	0xbe720c7b	-0.23637573
161	0xbd6fd1be	-0.058549635
162	0x3e17c43c	0.14820951
163	0x3d39567a	0.045248486
164	0xbe0375f1	-0.1283796
165	0x3d9a1d97	0.07525175
166	0xbd9baae4	-0.07600954
167	0xbd238fe9	-0.039932165
168	0xbda61cac	-0.081109375
169	0xbe3d1669	-0.1846558
170	0x3dcd2eee	0.10018717
171	0x3dc67e3e	0.096920475
172	0xbe43418e	-0.19067976
173	0xbe801acf	-0.25020453
174	0x3c8f06b3	0.01745925
175	0xbd4b3f08	-0.04962066
176	0xbdac9bbb	-0.08428141
177	0xbdf8c9e9	-0.12147886
178	0x3cd8ed7c	0.026480429
179	0xba8d61b6	-0.0010786566
180	0xbcd2dabc	-0.025739066
181	0xbd84523a	-0.06460996
182	0x3b588301	0.0033037069
183	0x3e158ce6	0.1460453
184	0x3cc2d4b6	0.02378307
185	0x3d262057	0.040558185
186	0x3d376d3d	0.044781912
187	0xbddd5356	-0.10806911
188	0x3a1ae579	0.0005908828
189	0xbd3eee1c	-0.046613798
190	0x3cb2a768	0.021808341
191	0x3c8b1664	0.01697845
192	0x3e2136b3	0.15743522
193	0xbd5c142a	-0.053730167
194	0x3c636a98	0.013880394
195	0x3d77dcbf	0.060513254
196	0x3dc3b84c	0.09556636
197	0xbe23e6f0	-0.16006064
198	0xbe034705	-0.1282006
199	0x3d0ff696	0.035147272
200	0x3d9cba61	0.076527365
201	0xbd68da39	-0.05684874
202	0xbdee2293	-0.11627688
203	0x3cd28e63	0.02570266
204	0x3db2fc94	0.08739582
205	0xbd308fb0	-0.04310578
206	0xbcd08490	-0.025453836
207	0x3bb25173	0.0054418384
208	0x3d918708	0.07105833
209	0x3dbb9b69	0.091605015
210	0x3d463d7b	0.048398476
211	0xbd3ff9a9	-0.046868954
212	0x3dbc6eb6	0.09200804
213	0xbd66b4fd	-0.056324948
214	0x3d897c02	0.06713106
215	0x3d7c7c4b	0.061641973
216	0x3cc1b3eb	0.023645362
217	0x3dffe972	0.12495698
218	0x3df1ba3a	0.11803098
219	0xbd15e911	-0.036599223
220	0x3dbd65a5	0.09247903
221	0xbd7a68b6	-0.061135016
222	0xbd8258c9	-0.06364591
223	0x3e1f992d	0.15585776
224	0xbcfcb954	-0.03085009
225	0xbd804587	-0.06263261
226	0x3c2f1dec	0.010688286
227	0x3e018acb	0.12650602
228	0xbc80b92d	-0.015713299
229	0xbd5776b5	-0.052603442
230	0x3caafd19	0.02087264
231	0xbdb5cdb2	-0.08877124
232	0x3d7574c9	0.059925828
233	0xbe190332	-0.14942625
234	0x3e0a2d93	0.13493948
235	0xbd49a95b	-0.049233776
236	0x3d9a8eaf	0.07546746
237	0x3d1be862	0.038063414
238	0xbdde253c	-0.10846946
239	0x3d555547	0.05208328
240	0xbe0d84da	-0.1382021
241	0xbd6ee846	-0.058326982
242	0xbe02f56f	-0.12788938
243	0x3b146fe0	0.002264969
244	0xbdcfd5b8	-0.101481855
245	0x3d30b249	0.043138776
246	0xbb932757	-0.0044907737
247	0xbd9e045b	-0.077156745
248	0xbd66fc02	-0.056392677
249	0xbe0f0fdd	-0.13970895
250	0xbded75bb	-0.11594721
251	0xbd9afb09	-0.075674124
252	0x3df0ffca	0.11767538
253	0x3d6a8c87	0.057262924
254	0xbcd74060	-0.026275814
255	0xbc9a84c2	-0.018862132

lstm.bias_ih_l1 f4 [256]
0	0x3c7cc15a	0.015426958
1	0xbe33a553	-0.17543535
2	0xbeabf3b6	-0.33584374
3	0x3c394e6b	0.0113102
4	0xbd934186	-0.07190232
5	0xbda848a2	-0.082169786
6	0x3d05c2d3	0.032656502
7	0xbd88b593	-0.066752575
8	0xbdceca74	-0.100972086
9	0x3dded1a8	0.108798325
10	0xbdcab692	-0.09898104
11	0x3bafe582	0.0053679356
12	0xbe118577	-0.14211069
13	0xbe413731	-0.1886871
14	0x3db310fb	0.08743473
15	0xbd28df8d	-0.04122882
16	0xbe76acd6	-0.24089369
17	0xbe1f7268	-0.15570986
18	0xbcecf05e	-0.02892321
19	0x3db4d87f	0.08830356
20	0xbe7d7c2f	-0.24754404
21	0x3d0b0cf7	0.03394791
22	0xbdfa4c53	-0.12221589
23	0xbd828947	-0.0637384
24	0x3d0e0f0f	0.03468233
25	0x3e02953c	0.12752241
26	0xbe5f88da	-0.21829548
27	0xbdb3a898	-0.08772391
28	0xbdc32da9	-0.09530193
29	0xbcac96b3	-0.021067953
30	0xbdfcfd8c	-0.12353048
31	0x3da7f22f	0.0820049
32	0x3d68ca3c	0.05683349
33	0xbde0c792	-0.10975565
34	0x3d290a3c	0.041269526
35	0xbb907735	-0.004408742
36	0xbdd53828	-0.104111016
37	0x3cd0cbea	0.025487859
38	0xbd0474d0	-0.032337964
39	0x3d64b94c	0.055840775
40	0xbc0393b8	-0.008030824
41	0xbdacb671	-0.084332354
42	0xbe899ebb	-0.26878914
43	0x3c808078	0.015686259
44	0x3dd6031e	0.10449813
45	0x3d0a5fda	0.033782817
46	0xbc817468	-0.015802577
47	0xbe99e29c	-0.30055702
48	0x3d5e6f2b	0.054305237
49	0x3d6c915e	0.05775582
50	0x3dde6ba5	0.10860375
51	0xbd666462	-0.056248076
52	0x3c8477d9	0.016170429
53	0x3cee91a3	0.02912218
54	0xbd132c1f	-0.03593075
55	0x3dd751ed	0.10513673
56	0xbe7f5288	-0.24933827
57	0x3d39c70b	0.045355838
58	0xbe3670f5	-0.17816527
59	0xbdfcec11	-0.123497136
60	0x3d61def2	0.055144258
61	0xbdfb89ad	-0.12282119
62	0x3cbf5314	0.023355044
63	0xbe1040e3	-0.14087252
64	0xbdf9f76b	-0.12205394
65	0xbe10b72d	-0.14132376
66	0xbea7a4d7	-0.3274295
67	0x3d851e6a	0.06499942
68	0xbdc435ab	-0.09580549
69	0xbdd31c37	-0.10308116
70	0x3d1f247a	0.038853146
71	0x3cdd6973	0.027027821
72	0xbd9b1238	-0.07571834
73	0xbe15fb0f	-0.14646553
74	0xbe20738a	-0.15669075
75	0xbd84609c	-0.06463739
76	0x3d24dc44	0.040249124
77	0x3cea9686	0.028636228
78	0x3c300b9d	0.010744956
79	0xbcb1c54c	-0.021700524
80	0xbe95adb1	-0.2923408
81	0xbe365ae1	-0.17808105
82	0xbd995af7	-0.07488053
83	0xbdbc4656	-0.09193103
84	0x3c8f6f04	0.017508991
85	0x3cc22d1d	0.023703152
86	0xbd4896a5	-0.04897179
87	0x3ceda6c4	0.029010184
88	0xbe432c6c	-0.19059914
89	0xbc93f9a4	-0.018063374
90	0xbe240bc8	-0.16020119
91	0xbe1c2ea5	-0.15252168
92	0xbe3f7941	-0.18698598
93	0x3d7e3279	0.062059853
94	0x3db1cc5a	0.08681555
95	0x3d1c0049	0.03808621
96	0xbe32b6d3	-0.17452554
97	0xbdc51a61	-0.09624172
98	0x3d155515	0.036458094
99	0x3d9bd76a	0.07609446
100	0xbd8a5f7c	-0.067564934
101	0xbdbd829f	-0.092534296
102	0xbd0bdb99	-0.03414497
103	0xbdd44df0	-0.10366428
104	0xbd8ddced	-0.06926904
105	0xbdee99d6	-0.116504356
106	0xbe65bd6e	-0.22435543
107	0xbdcdf018	-0.1005556
108	0xbc8c2ce8	-0.017111257
109	0xbdbfc921	-0.09364534
110	0xbd9d8277	-0.076909
111	0xbe910823	-0.2832652
112	0x3cc7192d	0.024303997
113	0x3d20ca38	0.03925535
114	0x3da8f7f5	0.08250419
115	0xbe0c7117	-0.13715015
116	0xbe141150	-0.14459729
117	0xbdc813d8	-0.0976941
118	0xbe39f181	-0.18158533
119	0xbd9ab93a	-0.075548604
120	0xbe434483	-0.19069104
121	0xbe0b2f31	-0.13592221
122	0xbcdc26e6	-0.026874017
123	0xbe45c769	-0.1931435
124	0xbe1fa224	-0.15589195
125	0xbdc9c782	-0.09852506
126	0xbc824786	-0.015903246
127	0x3d33b59e	0.043874376
128	0x3d4030a0	0.046921372
129	0x3c8f3e4a	0.017485756
130	0xbe0e6b74	-0.13908178
131	0xbd8eeb95	-0.069785275
132	0xbd7278cf	-0.059197243
133	0xbbda2bea	-0.006658067
134	0xbdac2008	-0.08404547
135	0x3dd706c2	0.10499336
136	0xbe0b291d	-0.13589902
137	0xbd725231	-0.059160415
138	0xbbe28208	-0.0069124736
139	0xbcd40283	-0.025880104
140	0xbaaa9a83	-0.0013016019
141	0x3d87b3a9	0.06626064
142	0xbdfb6590	-0.12275231
143	0xbcdff063	-0.027336305
144	0xbd464124	-0.048401967
145	0x3c5a568b	0.0133262975
146	0xbc9a70ee	-0.018852677
147	0xbced60af	-0.028976766
148	0xbdb03b32	-0.086050406
149	0xbdeec867	-0.116593175
150	0x3dcb0a15	0.09914032
151	0x3d0babe3	0.03409947
152	0x3cdb8e2f	0.026801197
153	0xbe221659	-0.15828837
154	0xbd617a21	-0.05504811
155	0x3da71988	0.081591666
156	0xbdb5953c	-0.08866355
157	0x3d938b30	0.07204282
158	0xbaec3b67	-0.0018023074
159	0x3d63cefa	0.05561731
160	0xbe01d14a	-0.12677494
161	0x3d909b8a	0.07060917
162	0xbd6abdb7	-0.057309832
163	0xbdd9fa9d	-0.10643504
164	0x3dd6166d	0.10453496
165	0xbc2916d5	-0.010320385
166	0x3dd2f769	0.10301096
167	0xbd044966	-0.03229656
168	0xbd37da51	-0.044885937
169	0x3dd727b6	0.10505621
170	0x3a609434	0.0008567006
171	0xbd7a35b3	-0.061086368
172	0x3d9e3671	0.077252276
173	0x3db3f537	0.087870054
174	0x3d8846cd	0.06654129
175	0xbdf495af	-0.119426124
176	0x3cf003c9	0.02929868
177	0xbb0562c1	-0.0020353051
178	0x3d8d1741	0.06889201
179	0x3dcacb65	0.09902076
180	0x3d767d8a	0.060178317
181	0x3cb76049	0.02238478
182	0x3d77fb74	0.06054254
183	0xbdee14dd	-0.11625073
184	0x3d489f81	0.04898024
185	0x3df54a98	0.11977118
186	0x3c9d677f	0.01921439
187	0xbde48108	-0.11157423
188	0xbda1f6ec	-0.07908425
189	0x3d8fec2a	0.070274666
190	0xbc9d70a6	-0.019218754
191	0xbccd9efd	-0.025100226
192	0x3d8944a5	0.06702546
193	0xbe57ca15	-0.21073182
194	0xbe8e245c	-0.27762115
195	0xbdb5666c	-0.08857426
196	0xbbab4c0e	-0.0052275723
197	0xbe19eaaa	-0.15030923
198	0x3dc5eac7	0.09663921
199	0x3db14326	0.08655386
200	0x3b6db0ff	0.0036268828
201	0xbda4542a	-0.080238655
202	0xbda2056e	-0.07911192
203	0xbd4d986e	-0.050194196
204	0xbd084cee	-0.03327649
205	0xbdfa7524	-0.12229374
206	0xbd517228	-0.05113426
207	0xbdfb80ae	-0.12280403
208	0xbe139b29	-0.14414658
209	0xbe861282	-0.26185995
210	0xbd6a4ad5	-0.05720027
211	0x3d653b04	0.055964485
212	0xbdd3a7b1	-0.10334719
213	0x3dbe6fa5	0.09298638
214	0xbba9b3ef	-0.0051789205
215	0xbe025418	-0.12727392
216	0x3d037c5d	0.032101024
217	0x3dcd87fa	0.10035701
218	0xbe3489eb	-0.17630737
219	0xbe28152c	-0.16414326
220	0xbe1fb41c	-0.1559605
221	0xbce15fdb	-0.027511528
222	0xbdbf2099	-0.093323894
223	0xbca26858	-0.019825146
224	0x3d368a15	0.04456528
225	0x3d789a4f	0.060694035
226	0xbce6fe61	-0.02819747
227	0x3c511383	0.012761
228	0x3d55c5df	0.052190658
229	0xbe13ad54	-0.14421588
230	0xbde6552a	-0.112467125
231	0x3db893c6	0.090125605
232	0x3a71310c	0.0009200729
233	0xbe09dd8d	-0.13463421
234	0xbe1702bf	-0.14747141
235	0xbb4df401	-0.0031425955
236	0xbd4db6c8	-0.050223142
237	0x3e0281a0	0.1274476
238	0xbdea8a94	-0.11452213
239	0xbe9aa1dc	-0.30201614
240	0x3d4ce98f	0.050027426
241	0x3cdd1276	0.026986342
242	0xbd4d9965	-0.050195117
243	0x3d85142a	0.064979866
244	0xbe1287ef	-0.14309667
245	0x3d0f0472	0.03491635
246	0xbe2ff1b4	-0.17182046
247	0x3dfd9b7a	0.123831704
248	0xbe0d03b8	-0.1377095
249	0xbdda6396	-0.10663526
250	0xbea984a8	-0.3310902
251	0xbe8be183	-0.2732049
252	0x3d2c9e46	0.04214313
253	0x3db68dd4	0.0891377
254	0xbdaf9ace	-0.085744485
255	0xbe0c8e5e	-0.13726184
