Final/Jaison/Main_Code/Archive/Model/LSTM/lstm_2025-06-19.pt (torch, 215145 bytes, 9 tensors)

lstm.weight_ih_l0 f4 [256, 11]
00000000: 4efb 2abd a1d3 1e3e 107e e6bc a7fc 483d
00000010: d5cb adbd 6555 b0bd 4310 7c3c c8a5 423b
00000020: 0818 fb3c 25c9 9a3d 3bd0 0dbe 1369 7b3e
00000030: 9eb5 dabc aaae a0bc d783 88bd ccf6 96bd
00000040: 5b32 cbbe 82c5 0cbe 2d3b 3bbe 9ba5 12be
00000050: e65b 1bbe 8a12 99be 51f9 ddbd b13d d43d
00000060: 1659 ff3d a6a3 dd3d c370 47be c229 6dbd
00000070: c4fc 033e 1d9a 513e 84c3 f43b 83ad 65bd
00000080: d6d0 20ba 1831 693e 0e91 623e 5cc8 ef3d
00000090: c311 65bb 5ebc 7abd 842c 153e 677d 263e
000000a0: 9c79 6a3d 3029 e3bc 6e07 c83b 7580 1e3d
000000b0: 37ba 543e 5e47 82bd a899 eabd b1c6 d03d
000000c0: 6548 043e 6d2c 58be c511 cfbb e66c 193b
000000d0: 7afa 8fbe 18fb 6bbe c2cd 0dbe 4fe0 1a3e
000000e0: a3bf fc3d b527 48bb f90d 13bd c899 9f3d
000000f0: a3f7 b33c 07b3 163e e9ce 963d bf8d 503e
00000100: 581e 7bbd 806f 17bd 00d0 963d d1eb 31be
00000110: eeca 23bd fe3e 2cbe 25ac 4c3e 7b6e 49be
00000120: a633 17be 10c7 2cbe 2750 c73d 94a8 75be
00000130: 2faa 67be afe2 22bc 7241 ffbc 1fc7 843d
00000140: 9b91 54bd 0217 f13d 2f74 02bd 8e6e 33bd
00000150: 5e2f cc3d 49c4 fc3c ccdc 40bd 49f3 8fbd
00000160: e7fe 963d ae92 c13d 78a9 943c 5a8e 2e3e
00000170: 3c45 e8be 5e74 f2bd 1bd3 133d 645c 683d
00000180: b9ab 7c3d 7897 8a3d a6d7 eebd 8039 15bd
00000190: b5f7 803d 4547 1e3e 18ee 49bd 9755 ab3d
000001a0: a629 dbbd 537d 053e 7aaf 883d 42b1 ccbd
000001b0: 5d5b c6bd b1aa 18be b0ad b8be 9b72 fbbd
000001c0: 578d 06be 76ad 86bd fa39 3dbe 1aee ac3c
000001d0: d730 0abe bc6f 10be 0ff7 1dbe 02e9 07be
000001e0: f8b1 d33c 5952 40bd b89e 5fbe 3a05 00be
000001f0: 1658 56be 71ea 893e 054c f5bd 7761 d2bd
00000200: f912 6dbd 6240 353e 372a 94be 74be bdbb
00000210: e592 e8ba 9bd4 9e3c 3b5c 8e3c 3a2a 97bd
00000220: ad1d 8f3e bf65 22be e4ba adbd 0e64 243d
00000230: fcff 35be 414c 53be e12d 02be 7530 583d
00000240: 9129 123d 2795 613c 4f87 ee3d 0acc 00be
00000250: 84e2 0dbd 327f ad3d 5a3d b83d 36e7 cbbd
00000260: a986 d13d d46b a5bd ad0b 0bbe 91b6 a0ba
00000270: 5d86 85bd 9a1c c33c d300 1dbe 4375 afbb
00000280: 5922 69bd 58ae ac3d cfb5 aebd 0ad5 68bd
00000290: 9ee5 cfbb a8f8 553e 0a33 143d 0360 2d3e
000002a0: 2f6f d23d 638f 15be 0466 99bd 9ffe 623e
000002b0: 3a21 ba3c f14c 06bc 4007 003d da4d 413d
000002c0: 5ba1 753d 054a a63d aeef 283e 62f1 f8bc
000002d0: fc6c 0fbe e17f 58bc a6c3 3d3e b496 04bd
000002e0: 7695 023e 8707 a73c a4c0 66bd b6cb 34bd
000002f0: 4c97 b9bd 96f1 acbd f4e9 82bc bd11 9abe
00000300: fc60 35be 9130 30bd c9bb 33bd fa87 ffbd
00000310: 1e3f 74be e03c 82be dd4a a5be 9be3 57be
00000320: 7063 89be 64f3 a2be 12aa 20bd 4b2b 053c
00000330: c2ba 48be 5b52 6dbe 430a bdbe 3c61 97bd
00000340: e3d0 06be 7bbf 8fbd 8ebc e73d e7c2 733c
00000350: aaed a5bd c751 33be 8340 4b3e 4745 d93d
00000360: 3ad5 bc3d e83f 39be 88a0 6f3e 1d72 f23c
00000370: 7fd5 3ebe fce0 c4bb 3f1e 2d3a 2bea 7cbd
00000380: 53d3 c2bd 8f4f 8f3d 5c1b 753d 7d77 dbbd
00000390: 47c8 4a3d 1a8e d9bc 58df f5bd a7c3 93be
000003a0: af85 7bbd 54f1 47be 9e6d debd 8fc3 45be
000003b0: 055b c9bd 0d82 92bd 5e8b 21be f58b 05bd
000003c0: 8368 46be 654c 83bd e43f 6ebe 2752 20be
000003d0: 67b8 32be 09c2 843d f374 77be d24e 74be
000003e0: acfb 52be 04c6 733d df6a 9cbe 0065 0bbd
000003f0: a05b f7bc 7c2f dabd 811f f9bd 197b 47be
-0.04174357 0.15510418 -0.028136283 0.049069073 -0.084861435 -0.08610038 0.0153847365 0.0029700864
0.030651107 0.075578965 -0.13848965 0.24551801 -0.02669793 -0.019614536 -0.066657715 -0.073712915
-0.39686856 -0.13747218 -0.18284293 -0.14320986 -0.15171775 -0.29896957 -0.10838569 0.10363329
0.12468164 0.10822229 -0.19476609 -0.05790115 0.12889391 0.20468946 0.0074695963 -0.056073677
-0.00061346346 0.22772634 0.22125646 0.117081374 -0.0034953214 -0.061214797 0.14567763 0.16258775
0.057244882 -0.0277296 0.0061044013 0.038696725 0.2077416 -0.063612685 -0.11455089 0.101941474
0.12918241 -0.21110697 -0.006319257 0.0023410856 -0.28120786 -0.23045003 -0.13848022 0.1512463
0.12341239 -0.0030541245 -0.035901997 0.07793003 0.021968668 0.14716731 0.07363684 0.20366572
-0.061308235 -0.03697157 0.073638916 -0.17375113 -0.03998845 -0.16820905 0.19987543 -0.19671051
-0.14765796 -0.16872811 0.09732085 -0.23990089 -0.22623514 -0.009941741 -0.031159136 0.06483292
-0.051896673 0.117719665 -0.031849083 -0.043806605 0.09969972 0.030855315 -0.04708557 -0.07028825
0.073728375 0.09451805 0.018147215 0.1704649 -0.45365322 -0.118386015 0.036089998 0.056728736
0.061687205 0.067671716 -0.116622254 -0.03643179 0.06297246 0.15456875 -0.04929933 0.08365934
-0.10701303 0.13036089 0.066740945 -0.09994747 -0.09685395 -0.14908864 -0.36070013 -0.12277719
-0.13139854 -0.06576054 -0.18479148 0.02110963 -0.13495193 -0.14105123 -0.15426277 -0.13272479
0.025841698 -0.046953533 -0.2183789 -0.12501994 -0.2093204 0.26936677 -0.1197739 -0.10272496
-0.05787942 0.17700341 -0.28938457 -0.005790526 -0.0017743973 0.019388488 0.017377963 -0.07381101
0.27952328 -0.15859126 -0.08482912 0.040134482 -0.17773432 -0.20634557 -0.12712814 0.052780587
0.035684172 0.013768471 0.11646902 -0.12577835 -0.03463985 0.08471526 0.08996077 -0.09956209
0.102307625 -0.08077207 -0.13578673 -0.001226144 -0.065197684 0.02381735 -0.15332346 -0.005354555
-0.056917522 0.08431691 -0.08530771 -0.056843795 -0.006344511 0.20895636 0.036181487 0.16931157
0.10275113 -0.14605479 -0.07490161 0.22167443 0.022720922 -0.008197055 0.031256914 0.047193386
0.059968334 0.08119587 0.1649768 -0.030388538 -0.14006418 -0.013214082 0.18531665 -0.032370284
0.12752327 0.020389332 -0.05633606 -0.044139586 -0.09062061 -0.08444516 -0.015980698 -0.30091658
-0.17712778 -0.043015067 -0.043880258 -0.12477107 -0.23852202 -0.2543707 -0.3228368 -0.21082918
-0.26833677 -0.31826317 -0.03922469 0.008127998 -0.19602492 -0.23175947 -0.36921892 -0.07391593
-0.13165621 -0.07018944 0.11315261 0.014878011 -0.081019714 -0.17511664 0.19848828 0.10608917
0.09220357 -0.18090785 0.23401082 0.02959543 -0.1863613 -0.0060082655 0.0006603933 -0.061746757
-0.09512963 0.069975965 0.059840545 -0.1071615 0.049507406 -0.026557017 -0.1200549 -0.28860208
-0.061406787 -0.19525653 -0.108607516 -0.19312881 -0.09831814 -0.071537115 -0.1577582 -0.032604177
-0.19375806 -0.064110555 -0.2326656 -0.15656339 -0.17453156 0.06482322 -0.24165706 -0.23858193
-0.20603818 0.059515014 -0.30550286 -0.034031868 -0.030195057 -0.10653588 -0.12164212 -0.19480552

lstm.weight_hh_l0 f4 [256, 64]
00000000: 5f71 573d ab7e 7bbd 64fd 92bd 74db 2ebd
00000010: aac4 4cbc e3ee 61bb ea94 9c3d cf5d c83d
00000020: 1ffc d33d 6a55 923c 306f 77bb dc04 f3bd
00000030: 0533 5c3d aa93 87bc c531 503d 04d9 96bd
00000040: 2c68 d73c 37e2 6fba 7a18 ab3d 6f92 153c
00000050: 39cc e73d 8246 c2bc 1b82 2a3d 0538 023c
00000060: 2d38 88bd 15b5 863c 7438 34bc 53de 403d
00000070: 4da2 8fbd e123 0a3c 4108 b63d 31f6 9bbd
00000080: dda8 db3d 2189 aebc 5d5f 0d3d ea6d 17bd
00000090: 56ef 91bd 7a49 7f3e a3bb c1bd 27df bb3d
000000a0: 1bc9 af3d 1f97 e93c af0e 313d f003 1d3e
000000b0: 20f0 47be fd2b dc3b 86dd 053d 5673 e83d
000000c0: 4e30 f0bd d8a4 02be f7f0 2b3d aae0 c53d
000000d0: dcc0 92bd b6ce 053c d0ea 033e 4c0b 913d
000000e0: 040c d43c e69e b03c 5ffa e6bd d43b 8dbd
000000f0: 3334 313d fd0f 89bb 6563 b6bd ec4e af3d
00000100: d4b5 c13a 07eb bdbb d822 b4bd 46bc 8a3e
00000110: 32c8 243e 285c ab3d 53db afbc 47dc a13d
00000120: fc12 4a3e e6d1 14bd efa8 a5bd 3dfd b7bd
00000130: e8c9 c23c ec5e 1e3e d6b2 0b3d 1e33 ed3c
00000140: e1d3 58bb 6e62 d2bc c962 91bd 9c95 273d
00000150: e035 553c 472b b43d 75b0 20bd 8ca2 c9bc
00000160: 49f1 07bc cfac d33d 0e30 cabc 63d5 3dbe
00000170: 120c 6c3d 0f93 03be 1922 09bd fcb6 2e3e
00000180: 7843 87be ea62 b0bd 44a0 073e 7592 b9bd
00000190: 4610 4a3e f496 f3bd 6f16 473d 58bf 6abb
000001a0: 5298 cf3c 2b11 dbbd 8fc8 153e 5d61 76be
000001b0: 2cdd 983d 977c 8ebd cf67 d03d 6ca5 74bd
000001c0: 5b7d 5d3e f6ff b63d 24f9 1c3d a89b 46bd
000001d0: 0a05 613e fea0 f3bd 4d7c 9cbe b020 a23d
000001e0: 4276 5abe 0d7c 8cbd fac2 5d3d e4b2 0ebe
000001f0: e8c7 a73d 22c0 a1bd ec42 48bd 1b0c 04be
00000200: 1538 d13d 7aee 22bd 540c d03d 786d cf3c
00000210: f583 013e 528a 99bc 0627 ef3c bc47 b6bc
00000220: 7191 83bd a805 e8bd d121 4f3c 767e 763c
00000230: 2420 ffbd 79be 8fbc 9248 993d 1675 1f3d
00000240: 8561 743d 36ba 32be b1e1 b2bc 4002 d03c
00000250: b922 643c 62d1 023e e09b fb3c 84c5 573d
00000260: dc17 8fbe 7e3a 6a3d 585d f93c 16ea fc3c
00000270: 2722 fc3d 8f7e 0ebe 8405 0a3e c844 7ebd
00000280: 07dd 78be d281 e83d 0e14 1bbe 08e4 123e
00000290: 29db 463d 06a6 8d3d d4c8 32bd 64ee 6dbd
000002a0: 8757 953d f06a febc 5c9e 053d 63f7 d9bd
000002b0: f82c 2cbe 50da 87bd dfd6 8fbd ea5d 37be
000002c0: 4550 403b 990b 10bd 46e6 a0bd ba7c 25bd
000002d0: c9a4 dbbd 1a76 343e 530b ae3d 7fde cebd
000002e0: d0fc 4dbd fc93 b4bd 06a6 debc 6556 1bbd
000002f0: e293 68bd 0cf4 e4bc 1dd7 c33c 4b66 a239
00000300: aa8e 4e3c 6bc5 a2bd cc58 08bb e262 87bd
00000310: 0386 a8bd b82f be3d 01ae ed3a ce30 87bd
00000320: cdcc a8bd 4bd1 803d 6c20 1a3d b6a9 953d
00000330: f218 a3bd 6369 b0bd b680 b7bd b8f1 b0bd
00000340: 3e2c 97bd e5e7 203e f024 373e 02b6 a2bd
00000350: dbb0 833d c911 163e 58da bebd 1a1c 5bbe
00000360: 49e1 633d 9282 d8bc 1364 dc3d 16c7 45be
00000370: e0e2 893c 78cf 4f3d 92b0 943d a00c 54bd
00000380: 1d1b ee3c 9721 f9bd 601b e7bd ace4 9b3c
00000390: 51ac 42bd 83d4 a53d 0461 e1bd 474f 25bd
000003a0: 3df6 163c 463a 263d 91a5 f33c 70b6 96bd
000003b0: 0911 84bd 501f 47bd 41b7 cc3c 3354 073e
000003c0: fd27 27bd 91e1 963d 5d92 1d3d 8433 813c
000003d0: 306c 203d 5a65 013c 22d1 a0bd a9f3 83bd
000003e0: 1703 993d 1ef5 7c3c 3191 b6bb 737e 0dbe
000003f0: 68a5 87ba 7e20 1cbe 7134 e7bc 53e3 313e
0.052598353 -0.061400097 -0.07177237 -0.042689756 -0.01249806 -0.0034474663 0.076455906 0.097835176
0.10350823 0.017862994 -0.0037755482 -0.11866161 0.053759594 -0.016549904 0.050828714 -0.07365611
0.02629479 -0.0009150835 0.08354278 0.009129151 0.11318249 -0.023715261 0.041627984 0.007947926
-0.0665134 0.016443769 -0.010999788 0.047087025 -0.07013378 0.008431406 0.08888293 -0.07615317
0.107255675 -0.021305623 0.034514774 -0.036970057 -0.07125728 0.24930373 -0.09459617 0.09173422
0.0858328 0.028514443 0.043226894 0.15333533 -0.19525194 0.006719111 0.032681964 0.113501236
-0.117279634 -0.12758195 0.04197785 0.09661992 -0.07165691 0.0081669595 0.12882543 0.07082233
0.025884636 0.021560144 -0.11278223 -0.06896177 0.04326267 -0.004182814 -0.08905677 0.08559975
0.001477892 -0.0057958397 -0.087957084 0.27096766 0.16091993 0.08367187 -0.021466887 0.07903343
0.19733804 -0.036332987 -0.08088862 -0.08983848 0.023777917 0.15465897 0.034106098 0.028955039
-0.0033085274 -0.0256817 -0.0709892 0.040914163 0.013013333 0.08797317 -0.039230783 -0.024613641
-0.008297273 0.10335695 -0.024681117 -0.18538432 0.0576287 -0.12849067 -0.033479784 0.1706199
-0.26418662 -0.08612616 0.1324473 -0.090611376 0.1973277 -0.118940264 0.04860538 -0.0035819616
0.025341187 -0.10696634 0.14627288 -0.24060579 0.0746406 -0.069573574 0.1017605 -0.05972807
0.2162985 0.089355394 0.038323537 -0.04848829 0.21974578 -0.11895941 -0.30563584 0.07916391
-0.21334174 -0.06859598 0.054141022 -0.13935429 0.08192426 -0.078979746 -0.048891947 -0.12895243
0.10215775 -0.03977821 0.101586014 0.025320753 0.12647994 -0.018742714 0.029193413 -0.022251002
-0.06424225 -0.11329204 0.01264234 0.015044799 -0.12457302 -0.01754688 0.07484545 0.03893002
0.059663314 -0.17453846 -0.021836134 0.025391698 0.013924294 0.12775186 0.030713975 0.0526786
-0.2794789 0.05718469 0.030440018 0.03087334 0.123112015 -0.13915466 0.13478667 -0.062077314
-0.24303065 0.11352886 -0.15144369 0.143448 0.04854885 0.06916432 -0.043648556 -0.058088675
0.07292085 -0.031056851 0.032621726 -0.106428884 -0.16814029 -0.06633437 -0.07023405 -0.17906919
0.002934472 -0.03516731 -0.07856421 -0.04040215 -0.1072479 0.17623177 0.08498254 -0.101010315
-0.05028993 -0.08817288 -0.027178776 -0.03792419 -0.056781657 -0.027948402 0.023906285 0.00030975262
0.012607256 -0.07947811 -0.002080488 -0.06610657 -0.08228686 0.092864454 0.0018133522 -0.06601106
-0.08242188 0.062899195 0.037628576 0.073077604 -0.07963742 -0.08613851 -0.089600965 -0.08639854
-0.073814854 0.1571346 0.17885184 -0.079448715 0.06430217 0.14655222 -0.093189895 -0.21397439
0.05563477 -0.026429448 0.10761275 -0.19314227 0.016831815 0.050734967 0.072602406 -0.051769853
0.029065663 -0.1216461 -0.11284518 0.019029938 -0.047527615 0.08097174 -0.110048324 -0.040358808
0.009213981 0.040582918 0.029742034 -0.07359016 -0.06448562 -0.048613846 0.024989726 0.13215713
-0.04080962 0.07367242 0.03846966 0.015771635 0.039165676 0.007897699 -0.07852389 -0.06442959
0.074712925 0.0154393 -0.0055715074 -0.13817768 -0.0010348978 -0.1524677 -0.028223248 0.17371874

lstm.bias_ih_l0 f4 [256]
00000000: 7aef 133d 336c 2bbc b65e 1dbd ae32 ef3c
00000010: 0e69 e5bd c65e 90bd 1eeb fcbd 779f bbbc
00000020: 31df 8bbd c61e 613d 028b 12be f22c 17be
00000030: 1c96 3e3c cc4f 813c 6ab5 89bc 881f a73a
00000040: ad41 17be d824 45be d0f3 4abe 23da e8bd
00000050: 089b 03bb f64d 2dbe 8b0e 92bc f3b9 22be
00000060: 0f95 14bd b476 63bc dc2a 9abd 7ff5 84bc
00000070: 3203 bdbd f640 083e c689 60bd 93ac 14be
00000080: c0f0 c13d 228f 9fbb 6007 93bd 4b7f 9d3c
00000090: 49d8 6e3d f137 b33b 4041 7e3c 5d7b d33b
000000a0: bee5 8cbc e4fa c23c 8ec8 583d 2469 3d3d
000000b0: fb7a acbd 280a 06be f335 f2bd d5d9 87bc
000000c0: 3c16 b63c 8767 82bc 82bb 4dbe 3401 bdbd
000000d0: 4820 c73d 52d0 b03c 90a8 1a3d f6f1 65bd
000000e0: 76b0 3c3d 3096 80bc 7aa4 7bbe 3f60 a13d
000000f0: c486 04be 019f 0abe f2cd 533d 152a bbbd
00000100: c4a7 a8bd deae 34be 8150 d13c eb84 50bd
00000110: 3f19 f4bd 8c69 c63d cfa9 44be 3c2d cabb
00000120: 894a 223c 637d 233d 17f5 26be 9991 28be
00000130: 98b6 1dbe 7c4a 14bc 9ac2 b7bd bb25 2fbd
00000140: 63cc 9fbb ba3d 41be 3beb b4bd b724 06bd
00000150: c17d 17bd 3272 36be 45d2 36be 4c1d 84bd
00000160: 1c65 223d 9bdc 4dbe 687a 13be 3e97 40be
00000170: a7f0 5dbe 91f3 b43d 5544 babd bf3f b1bd
00000180: db2b c7bb 13cb ddbd 5d0b 16bd b3fb 91bd
00000190: c2a0 99bc e15a a5bd 7ce7 c8bd 71a8 4e3d
000001a0: 9afe c73c 7c44 b6bc ffbc aa3c 5bc8 d43d
000001b0: 2092 193d 0d9e 42be 6008 b93d 7ebb 3dbd
000001c0: 4752 b0bd 5637 913c f398 a9bd 18b7 963c
000001d0: af3f 9ebc 24d9 f5bc b3f7 4cbd 0a83 81bc
000001e0: 9f12 1fbd 282c b2bd 12d0 1ebd 9394 e5bd
000001f0: 381d 34bd 21da 563c 416c 06be ab4d e8bd
00000200: e0b1 3ebc a168 d1bc d398 0bbd 35c4 933d
00000210: d484 823d 77ff 9dbd 8228 14bd 3195 cebc
00000220: 37e1 433c 54e9 e6bc cba2 6dbd e809 8a3d
00000230: b294 78bd 8e59 81bd e605 283d 3c0a 3bbd
00000240: 675f 203d b396 2b3c 96d9 e83d 0245 6f3d
00000250: 51b1 3fbd e741 673c 5561 823d 20cd 453b
00000260: de3b 303d 5602 27bc 1a07 a4bd 2657 3d3c
00000270: a925 103d 224c 80bd c21b c1bd 2c10 e33d
00000280: 90d5 8b3b 9905 76bd 51d1 20bc b53d 88bd
00000290: d250 7d3d 4be4 60bd 40fc 07bd 4553 8dbd
000002a0: e761 2dbb 005c 823d e5ea 93bc 7a28 febd
000002b0: 4e3a db3c 651a 773c f7c2 b03c 6105 ad3d
000002c0: 74aa fe3d 322f b13c 5e9f 86bd 1a36 6a3d
000002d0: 3b9d cd3d b347 3b3d 337a afbd c646 97bd
000002e0: f493 fabd f4be b6bd 1c61 773d 2681 6abd
000002f0: 9a45 2fbd edce d1bc 971a 733d c65e 8abc
00000300: 3157 b0bc fe4e a8bd bac4 89bd 88e8 dc3a
00000310: f05e a6bd 988b b6bc ea24 13be 6b54 3fbd
00000320: a26c 943d b9b7 24be 4801 02be 5f19 9fbd
00000330: 4924 90bd 2a0a 8dbd 25af 23be 3941 cf3d
00000340: ba63 f53c 1ce0 e7bd dc9d 08bd 39b9 4c3d
00000350: 5446 3abe 79c4 803d c6a1 31bc 8c3d 46bd
00000360: 92a1 b5bc 06fc 34be 791b 51bd 18a8 153d
00000370: 11ee c8bd e6f4 4e3d 7f95 c73c 7ca1 52bd
00000380: 8d12 bcbd 16d7 22be 4113 52be edce bb3b
00000390: 2ffa 343b eddb cdbb 2c98 ff3b 4516 debd
000003a0: 8b8e b0bd 3c3c 4dbd cdb4 ff3d 87b7 c03c
000003b0: de9e 94bd c381 21be e9de d53c 3fdb 13be
000003c0: 0af3 ccbd f5a1 f6bd 1847 10bd d920 88bd
000003d0: b2d5 9ebd 5236 a83c c763 0ebd 8a17 d1bd
000003e0: 9135 af3d 28de 5bbd aad3 80bd 18e2 b53d
000003f0: 69f3 c43b f65c 23be 9acb 29bd 8312 55bd
0.036117055 -0.010462808 -0.0384204 0.02919897 -0.11201678 -0.070493266 -0.123495325 -0.022903187
-0.0682968 0.05496099 -0.1431084 -0.14763239 0.011632469 0.01578512 -0.016810138 0.0012750486
-0.14771147 -0.19252336 -0.1981957 -0.11369731 -0.002008142 -0.16924271 -0.0178292 -0.15891246
-0.036274966 -0.0138832815 -0.07527706 -0.016230343 -0.09229125 0.1330603 -0.05481889 -0.14518957
0.094697475 -0.0048693577 -0.07179141 0.019225737 0.058311734 0.005469315 0.0155184865 0.006453915
-0.017199393 0.023801275 0.05292564 0.046242848 -0.08421894 -0.13089812 -0.11826696 -0.016583363
0.022227399 -0.015918506 -0.2009106 -0.09228745 0.09722954 0.02158371 0.03775841 -0.056138955
0.046066724 -0.015696615 -0.24574462 0.078796856 -0.12942034 -0.13537218 0.051710077 -0.09138886
-0.08235124 -0.17644832 0.025551083 -0.05090801 -0.11918878 0.096881 -0.19205402 -0.006169943
0.009905466 0.0399145 -0.16304432 -0.16461791 -0.15401685 -0.009050962 -0.08972664 -0.042760592
-0.0048766597 -0.18871203 -0.08833929 -0.032749858 -0.036985163 -0.17817 -0.17853649 -0.064509004
0.039647207 -0.20103686 -0.14402163 -0.18807694 -0.21673833 0.08835519 -0.090950646 -0.08654737
-0.006078226 -0.10829749 -0.03663193 -0.07128086 -0.018753413 -0.080739744 -0.09809777 0.050453607
0.024413396 -0.022249453 0.020842073 0.10389777 0.03749287 -0.19005604 0.090348005 -0.046321385
-0.08609443 0.017726582 -0.08281126 0.018397853 -0.019317476 -0.030010767 -0.050040912 -0.015809555
-0.038836118 -0.086998284 -0.03877265 -0.11209979 -0.043973178 0.013113529 -0.13127233 -0.11342939
-0.011639088 -0.025562586 -0.03408129 0.07215158 0.06372991 -0.07714742 -0.036171444 -0.025217624
0.011955551 -0.028187431 -0.05801658 0.06740171 -0.060688682 -0.06315909 0.04102125 -0.045664057
0.039153483 0.010472941 0.11369626 0.05841542 -0.04679996 0.014114833 0.06366221 0.0030182078
0.043025844 -0.010193428 -0.08009167 0.011556422 0.035192166 -0.06264521 -0.094291225 0.11087069
0.004267402 -0.060063932 -0.00981553 -0.06652395 0.061844654 -0.054905217 -0.03319955 -0.06900648
-0.002645606 0.06365204 -0.018056342 -0.12410064 0.0267612 0.015081977 0.021577341 0.084482916
0.12434855 0.02162895 -0.06573366 0.0571805 0.10039755 0.045722675 -0.085682295 -0.07386546
-0.12235251 -0.0892314 0.060395345 -0.05725207 -0.042790987 -0.025611365 0.05935153 -0.016890895
-0.021525951 -0.082181916 -0.06726976 0.0016853968 -0.08123577 -0.02228336 -0.1436955 -0.046711367
0.072472826 -0.1608571 -0.12695801 -0.07768511 -0.07038171 -0.06886704 -0.15984781 0.10119862
0.02995478 -0.11322042 -0.03335367 0.04998133 -0.1819089 0.06287474 -0.010841792 -0.04839854
-0.02217177 -0.17674264 -0.05105159 0.03653726 -0.098110326 0.050526522 0.024363277 -0.051423535
-0.09183226 -0.15902361 -0.20515157 0.0057314546 0.0027614941 -0.0062823207 0.0078001227 -0.10844091
-0.08620938 -0.050106272 0.12485657 0.023525013 -0.07256864 -0.15772156 0.026107268 -0.14439104
-0.100072935 -0.120426096 -0.03522405 -0.0664689 -0.07755603 0.020533714 -0.034763124 -0.10209568
0.08555139 -0.05367866 -0.06290372 0.088810146 0.006010462 -0.1595343 -0.041453935 -0.052019607

lstm.bias_hh_l0 f4 [256]
00000000: 2390 c0bd 7282 3dbe 290a 14bd e458 8d3d
00000010: 557b 37be 9176 a53d 6e02 40be 476d 8dbc
00000020: e52b 04be be1e 16bd 0050 1cbe 8ea4 74be
00000030: 5c13 443d b27e edbd 07c4 a53d 12ea dfbd
00000040: d540 563d 92ed 02be 43fd 06be c2ee 643d
00000050: a6eb 073d 40ec 85bb b552 f6bd 133a 41be
00000060: e41b 2bbd 83b0 1ebe 31d7 833c 5b29 8ebd
00000070: 93e3 d5bd 80c3 d8bd 415c a1bd 55cf febd
00000080: 5f70 cc3d 19d1 36be 3c40 1bbe 3e34 8abd
00000090: 9918 d5bd 1a3a 253c f7ab 38be 10af 2dbe
000000a0: 8f07 97bc 28ed 01bd 282b 983c da52 bdbd
000000b0: 22ec 9fbc b95b 85bd 3bc5 b23d bf3d d6bd
000000c0: 2fae b8bd 8b5b c4bb 27f4 1ebe 9c71 e7bd
000000d0: 9535 b8bc dce5 57bd 7f29 0ebe e3ca 0abe
000000e0: 7820 c2bd 170a e4bd 2e5a 32be 87a8 5f3d
000000f0: 0518 983d 3138 70be 379f acbc f250 c83d
00000100: 3b62 4cbd abb7 d5bd b941 f8bd 3cae f1bd
00000110: bb00 5ebe 4720 44bd 3ecf 8fbd 026d aa3d
00000120: 2da3 b4bd ec81 4e3d 0250 00be 0a52 49be
00000130: f94c d2bd 8038 a53d 3e14 a2bd 5b4e 6cbd
00000140: c0e5 35bd e9aa fabd 8cbe 2fbe 403f a1bb
00000150: 478b 3bbd 34ac c5bd c5a5 cebd 4fd9 0ebe
00000160: 2ed0 38bc 6fb9 5ebe aeea 7c3d a702 e23c
00000170: 8275 23be 16a6 06be 730f 98bd 3f97 4f3d
00000180: a042 60bc 70f8 bcbd 08ed 23be 54d9 a7bd
00000190: 8ed6 c4bd 2e2e e6bd bac4 c73c 1a81 063c
000001a0: 91b3 b2bd 81a8 c3bc cf3f beba cd6b a83c
000001b0: 732a d43d 7fb0 0ebe a8e7 c53c 805e b83c
000001c0: 68d5 60bd bd1a 49be 49c0 0ebe 9eab a33d
000001d0: bc72 723c 8545 17bc 8e72 97bd 4477 cbbd
000001e0: 0271 eabd a9e0 cc3c db53 82be c99c 9c3d
000001f0: 2887 4b3d bd54 febd fb89 9bbd f1ee 02bd
00000200: f9ac 083d bd39 b2bc 4155 6c3d a28c 67bc
00000210: bd8a 873d f837 a63d e6d4 90bc 6a6d 923d
00000220: 4c62 1dbd 57e5 30bd e7d9 6f3d aa9b 353a
00000230: e6fa 72bd abb3 21bc 4bc9 d2bc 4610 66bd
00000240: e9d5 9b3d d35e c83d 9004 9dbd a1a7 06bd
00000250: a706 8a3d 9896 7f3d 9976 8dbd 5379 2a3d
00000260: a2db f9bc b90c 3ebc 6361 6bbd f8b9 e9bc
00000270: e383 e9bc b88f aa3d 3d58 f4bc 433a c63d
00000280: 84a4 bfbd 0a8f 093d 1203 cc3d 9cd4 583d
00000290: e575 c43d 610a d7bd 2ee2 543d bb5d 0cbd
000002a0: 134a 4dbd 420e d2bd ec7b 3fbd 2005 d7bd
000002b0: d162 78bd 3510 463d 0403 90bd d13f 2dbd
000002c0: 9777 b1bd e1e8 c73c 24b7 2a3d 4503 153d
000002d0: 0992 ffbd 90a1 493d 8895 8abd 1c06 be3d
000002e0: 2c5f 033d 4422 7f3d 32fb 1fbd c236 e5bc
000002f0: f158 f03b 4a00 a0bd 34a2 dabd 2f45 aebc
00000300: 301d 60bd ddc1 2cbe b56d 69bc 483e d6bc
00000310: 6873 abbd c4d4 7cbd aaec 9dbd b845 c1bd
00000320: d4d3 8a3d 712e 2fbe 5d1b 93bd 3b7f 63be
00000330: 55eb ffbd 4145 b0bd 319a 003d 9309 033e
00000340: cfe8 fc3c 533e 07bd aaf5 4bbe 33f8 d23d
00000350: 0cb4 ddbd 5fa3 b13c 8e60 81bd d4cb 3ebe
00000360: 7620 03be 91ec 0cbe f135 21bd 6a23 0c3d
00000370: 2c07 92bd c1d6 84bd b0e7 aa3c f2e3 94bd
00000380: fdce b9bd b407 4a3d b92f e7bd ed86 f53d
00000390: c96c 0c3d d28e 923d 4793 36be c422 193d
000003a0: ef88 6abd baba 0cbe e629 fcbc 7acb 7e3d
000003b0: f488 8fbd 708e 14be be4c 823d c477 a23b
000003c0: d287 1cbc a3a8 cebd 064c e2bd c727 ebbd
000003d0: 8c8a 733c 34b1 9fbd a3a1 91bd 35b7 adbd
000003e0: 882f 92bd 513c d9bc b35b 1bbd f987 233d
000003f0: 79e7 9abc 9465 70be f07d 6aba 9803 9fbd
-0.09402492 -0.18506792 -0.036142502 0.0690172 -0.17918141 0.08079255 -0.18750927 -0.017264022
-0.1290737 -0.03665041 -0.15264893 -0.23890898 0.047870025 -0.11596431 0.0809403 -0.10933317
0.052307922 -0.12785938 -0.13182549 0.05589176 0.033183716 -0.004087001 -0.12027494 -0.1886981
-0.041774645 -0.15497021 0.016093822 -0.06941482 -0.10443797 -0.10584164 -0.07878924 -0.12441889
0.099823706 -0.17853202 -0.15161222 -0.06748246 -0.10405082 0.010084653 -0.1803435 -0.16961312
-0.018436221 -0.03172031 0.018575266 -0.09244318 -0.019521777 -0.06511635 0.08729025 -0.10460996
-0.09017598 -0.005992358 -0.15522824 -0.11300966 -0.022486487 -0.052709445 -0.13883017 -0.13553958
-0.09478849 -0.11134737 -0.17417213 0.05460408 0.07426456 -0.23458935 -0.021072013 0.09781064
-0.049898367 -0.104354225 -0.121219106 -0.11800811 -0.21679966 -0.047882345 -0.0702195 0.08321573
-0.08820186 0.050416872 -0.1253052 -0.19660202 -0.102685876 0.08067417 -0.07914017 -0.057691913
-0.04440856 -0.1223963 -0.17162532 -0.00492087 -0.045787122 -0.09651986 -0.10090212 -0.13950084
-0.011280103 -0.21750425 0.061747245 0.027589155 -0.15962794 -0.13149294 -0.07424822 0.05068135
-0.01368776 -0.09227073 -0.16008389 -0.08195749 -0.096112356 -0.11239277 0.024385799 0.008209491
-0.08725656 -0.02388406 -0.0014514866 0.020559216 0.10359659 -0.13934515 0.024158314 0.022505999
-0.05489102 -0.19639106 -0.13940538 0.07991718 0.014797863 -0.009232883 -0.073948964 -0.099348575
-0.11447336 0.02500947 -0.25454602 0.07647092 0.049689442 -0.12418506 -0.07594677 -0.031966154
0.033368085 -0.021756047 0.057698492 -0.014132651 0.06618259 0.08116144 -0.017679643 0.07149775
-0.03842382 -0.043187466 0.058557417 0.0006927798 -0.059321307 -0.009869496 -0.02573075 -0.056167863
0.076091595 0.09783711 -0.07666886 -0.032874707 0.0673955 0.062399477 -0.06907386 0.04161961
-0.030500237 -0.011599713 -0.057465922 -0.02853106 -0.028505271 0.083281934 -0.029827232 0.09679081
-0.09357551 0.03358368 0.09961523 0.052937135 0.09592799 -0.105000265 0.051973514 -0.034269076
-0.05011947 -0.10256626 -0.04674904 -0.104990244 -0.060641114 0.0483553 -0.07031825 -0.04229719
-0.08665388 0.024403038 0.041678563 0.03638007 -0.12479026 0.049226344 -0.06766802 0.09278509
0.032073185 0.062288538 -0.039057918 -0.027980212 0.0073348214 -0.07812555 -0.10675469 -0.021273224
-0.054715335 -0.16870828 -0.014247348 -0.026152745 -0.08371621 -0.061726347 -0.07711156 -0.09437126
0.06778684 -0.1710756 -0.071829535 -0.22216503 -0.12496058 -0.08606959 0.03139705 0.12796621
0.03087273 -0.03301842 -0.19917932 0.103012465 -0.10825357 0.021684347 -0.063172445 -0.18632442
-0.12805352 -0.13762118 -0.039358083 0.03421346 -0.07130274 -0.064862736 0.02086243 -0.072700396
-0.09072683 0.049323753 -0.11288399 0.11988626 0.034283433 0.07156147 -0.1782962 0.03738667
-0.057259496 -0.13743106 -0.030781697 0.06220577 -0.070085436 -0.1450746 0.06362294 0.004958125
-0.009553866 -0.10090759 -0.110496566 -0.11482196 0.014864575 -0.07797471 -0.07110908 -0.084822096
-0.07137972 -0.026518019 -0.037929248 0.039924596 -0.018909203 -0.23476249 -0.0008945158 -0.07764357

lstm.weight_ih_l1 f4 [256, 64]
00000000: 39ac 2c3c 8839 9fbd 710c a6bd 3f50 d9bd
00000010: 87e1 0f3e 353a 2bbe 024e 81bd d11d 6bbd
00000020: a45e 4c3d 7e08 c33d a4c0 963d 2fca 7bbd
00000030: e22f bdbd f787 01be 4f8e 6fbd f19d 2ebd
00000040: 55c4 fc3d 3dee 82bd 98cf a1bd ffff e5bd
00000050: 4df4 723d 3f23 263c a69b 7d3d 023d 1b3c
00000060: 87ef 25be 252b a2bd 1535 d3bd 0628 cc3d
00000070: 8f78 313c 5f74 0abd 7252 d53c d12f aebd
00000080: 0ea5 273d 41b0 ca3d 0c99 16be e21a 123e
00000090: 9779 1e3c 580c 333e d9c7 0cbd f686 a2bd
000000a0: 204d a53c 6179 0e3d 630a 50bd a139 0a3e
000000b0: 3eb9 7cbd 25bf 89bd 69ec 743d 9d9e 1cbd
000000c0: 874f 243d 1499 c5bd 8eb7 93bc b75a 1f3e
000000d0: a922 aabd 020d 6ebd a458 0e3e 5269 99bd
000000e0: 102f c93c 5d82 f13d 58de b83d a57b a1bc
000000f0: 05dd e83c fc97 6d3d 047a 4ebb 0c45 39be
00000100: 53aa d93d 0a32 84bd 4249 bd3d f292 94bb
00000110: 7668 763c 9ae1 afbd e91e a73d 9e3f 5d3d
00000120: a533 4c3d 1c18 be3d 611d f23c cf27 f6bd
00000130: b1df 863d 3b58 f03c d1df 043e 5865 813d
00000140: f52d 9cbd e32a b83c 867f a33d b310 4d3d
00000150: 75a5 dc3d bd11 fe3c 217b 133e a977 cdbd
00000160: 5e25 7abd c35a 993c 835a f73d 793f afbd
00000170: c1c9 9dbd 94ed 29bc 063c f13d 080f 90bd
00000180: d199 26be 0f08 8b3d 175c 1ebc 6cc0 9cbd
00000190: b187 13be 5858 7ebc 59bc e8bd 7de3 9bbd
000001a0: b4e5 cd3d 29fe d13d 9d02 d43d f33d 173e
000001b0: 7b42 58bd dc0e 8c3c a78b aa3d bd1f a4bd
000001c0: c708 de3c d6ef 06be 8261 85bd b374 fe3d
000001d0: 0691 c6bc e3d5 e63c d928 eb3d a9d4 c7bd
000001e0: ba01 9bbc 8c5d 383d 91f2 173d e1f2 f0bb
000001f0: 0b1d 91bd ba66 a6bd a068 80bc 943c efbd
00000200: a790 27bd e658 1fbd 4d52 17bd 8f3f fa3c
00000210: cc54 2a3d f7bb 40bd 655e aabd 687b a03c
00000220: 7fd9 3cbd 61d4 993d 53dc 10be f220 7e3d
00000230: 321c babd 05f6 56bd 5c68 cfbd 264d 33bd
00000240: 2ae2 3ebd 2683 e33c d198 1cbe 4954 8c3d
00000250: 2dbb b13d 94b9 11be 39fe 653d 174c 7dbc
00000260: e5dd 93bd 016d 98bc dad8 26be 1554 083e
00000270: f5b3 d1bd 458e 82bd 4bba 15bd 1875 bbbd
00000280: 0a5c 38bb f6c6 9fbd b9ab 1dbe 789f b2bb
00000290: b7f3 893d 78ba bbbc 5336 b53d 0fab e03d
000002a0: 3608 b3bc 6cf3 313d 2f4b baba 7cc0 073e
000002b0: 3cb1 26bd b617 a4bd 3303 1bbe c379 503d
000002c0: 4e86 6abd 3408 f7bd 1dfd c9bc 8818 6ebd
000002d0: bee2 c2bd ff00 993d 6958 923d 5165 853c
000002e0: 80a8 1dbd 7378 58bd 63ae 79bd 79a3 0d3e
000002f0: 6eb8 823d 727d dc3c 24da 243e c8ae 20bd
00000300: 2fe9 86bd 7fdf 63bd b81d ea3d dd25 a03d
00000310: bae4 a83d f3a7 fbbd 979a de3d 28dc 81bc
00000320: 11d3 013d 0f7b 7a3d b71e c33d 12c0 d3bd
00000330: b050 d9bc 13d6 aa3d ec52 b13d 60d8 d6bd
00000340: 9100 f0bd 646b acbc ecc3 c03d 4a21 3bbd
00000350: f71b 9bbd 0a69 863d b32c 913d f433 58bd
00000360: 462f 1ebd c9e2 aa3d 879a e5bd 9bd8 cb3d
00000370: 7dca 9e3b 146d 40bd 1183 0a3e b5fe 423c
00000380: 9e1d 1d3d 5aa3 023d 2967 7b3c b60b 3bbc
00000390: c673 c23c 192b e33d 96db db3c f594 ac3d
000003a0: 49a1 2d3d 61b8 63bd 1097 ad3d d7ce 0a3d
000003b0: 7774 99bd 956b f73d e384 37bc 5c5c c93d
000003c0: e818 0ebe e1a7 cf3d 7779 90bd 6c3e dc3d
000003d0: 9417 14be 4206 dbbc c93a 813d 3251 81bd
000003e0: 1353 473d cb95 353d 3a02 14be 68cc 9dbd
000003f0: 73f6 663d 2cd9 bbbd e762 763d 01f2 4cbd
0.010539108 -0.07774645 -0.08107842 -0.10611009 0.14050876 -0.16721423 -0.06313707 -0.057401482
0.049894944 0.09523104 0.07360962 -0.061472114 -0.092376485 -0.12649523 -0.058485325 -0.042631093
0.12342135 -0.063930966 -0.079009235 -0.11230468 0.059315015 0.010140239 0.061916016 0.009474995
-0.16204654 -0.079183854 -0.10312859 0.09968571 0.010831966 -0.033802386 0.02604029 -0.08505214
0.040928893 0.09896899 -0.1470682 0.14268067 0.009672544 0.17485178 -0.034370277 -0.07935898
0.020178378 0.034783725 -0.050791156 0.13498546 -0.0617001 -0.06725911 0.05979577 -0.038237203
0.040114906 -0.09648338 -0.018031862 0.15561949 -0.08307392 -0.058117874 0.13901001 -0.074907914
0.024558574 0.11792443 0.09026784 -0.019712279 0.028425703 0.05800627 -0.0031505832 -0.18092746
0.1062819 -0.06454857 0.092424884 -0.004534119 0.015039554 -0.08587952 0.081601925 0.05401575
0.04985394 0.09281942 0.029555025 -0.12019312 0.065856345 0.029338947 0.12976004 0.06318158
-0.07625953 0.022481387 0.079833075 0.050064754 0.10773746 0.031014318 0.14402439 -0.10032589
-0.061070792 0.018720036 0.120778106 -0.08557028 -0.07704497 -0.010371584 0.11779027 -0.07034117
-0.16269614 0.067886464 -0.009665511 -0.07653889 -0.14407231 -0.0155239925 -0.113640495 -0.07611749
0.10053578 0.10253555 0.10352061 0.14769726 -0.052797776 0.01709693 0.08327418 -0.08013866
0.027103795 -0.13177428 -0.06512739 0.12424602 -0.024239074 0.028178161 0.114824004 -0.097573586
-0.018921722 0.04501109 0.037096564 -0.007353172 -0.07085618 -0.08125062 -0.01567489 -0.11681476
-0.040909436 -0.03890314 -0.036943723 0.030547885 0.041584775 -0.047054257 -0.083187856 0.019590095
-0.046105858 0.07511211 -0.14146547 0.062043138 -0.09087409 -0.052480716 -0.10127327 -0.043774746
-0.046602406 0.027772497 -0.1529267 0.068520136 0.08678279 -0.14230949 0.05615065 -0.015460036
-0.072200574 -0.018606665 -0.1629366 0.13313325 -0.10239402 -0.06374792 -0.036554616 -0.09153193
-0.0028131031 -0.07801621 -0.15397538 -0.005451139 0.06735938 -0.022916064 0.08848252 0.10970127
-0.021854501 0.043445036 -0.001421308 0.1325702 -0.040696368 -0.08012335 -0.15137939 0.05089737
-0.05725699 -0.120621115 -0.024656827 -0.058128864 -0.09515904 0.07470893 0.07145769 0.016283663
-0.038490772 -0.052849244 -0.060957324 0.13831891 0.063828334 0.026915286 0.16098839 -0.039229184
-0.06587445 -0.055633064 0.1143145 0.07819722 0.08246751 -0.12287893 0.108693294 -0.015852049
0.03169543 0.061152514 0.09527343 -0.10339369 -0.026527733 0.08341613 0.08658394 -0.10490489
-0.11718858 -0.021047302 0.09412369 -0.045686044 -0.07573693 0.06563003 0.07088604 -0.05278392
-0.038619302 0.08344037 -0.112111144 0.099534236 0.004845916 -0.046979025 0.1352656 0.011901547
0.038358323 0.031894065 0.0153444195 -0.011416366 0.023736846 0.110922046 0.026838105 0.08426849
0.04239014 -0.05559576 0.084760785 0.033888664 -0.07492917 0.120810665 -0.011201116 0.09832069
-0.13876688 0.10139442 -0.070544176 0.107540935 -0.1446212 -0.026736382 0.063100405 -0.06314315
0.04866321 0.044332307 -0.14453974 -0.07705003 0.056387376 -0.091722816 0.060152914 -0.05003548

lstm.weight_hh_l1 f4 [256, 64]
00000000: 456c 79bd d8a6 c1bc acc4 d0bd b6cb 063d
00000010: 21e8 e3bd 6a40 c73d fc6e 43bd 1280 3dbd
00000020: 1ce9 1bbe cda9 073d ce83 9dbd 066c e9bb
00000030: 4de3 79bd b76f e93b bd8c dc3d ecd0 3f3d
00000040: 74f2 fabd 3160 e73c a1d8 2e3d e80d 923b
00000050: 2f04 7f3d 57ce 1fbe 5a47 303d ba3c 803d
00000060: 4d61 0c3e 14a3 2cbe f2d6 2d3d 362b 09ba
00000070: 96c7 9b3c c2c9 233e dc60 e4bd d95f 493d
00000080: d818 ba3d 0931 80bd 40cf 7bbd 42d1 12be
00000090: 4c40 883c 4fbc 0bbd 8a12 943d 2390 a3bd
000000a0: a706 78bd 10de 16be f2c5 2cbd 1ea9 063e
000000b0: 8d60 e4bd 2b88 093d 0aae 0a3c 73d7 e93b
000000c0: f67a d13d ec0b b23c 243b 40bc 1689 dabc
000000d0: 7f67 f03d 1c2c 403d 40d7 ad3d fa31 0f3d
000000e0: 8a4b 94bd 5da9 033e a53c 2b3d ec1e ea3c
000000f0: 1b2b b03c e0f0 883d 641c a4bd 44ac a33d
00000100: cb54 913d da0f bdbd 0431 1a3d cf85 0d3e
00000110: b776 18bc c998 19bd 7b25 9c3c 6adb 09be
00000120: cf59 2ebe dd7e dd3d 61ca 62bc 5524 fb3d
00000130: 54cf 673c 9a12 3cbd 12a3 b9bd f7f0 373d
00000140: c132 cfbd 190e 69bd 46a8 17be 69d2 37bb
00000150: 435c b23c dcea f73b 59cb ba3d 72b1 31bd
00000160: 3461 4c3d b415 29be 6216 11bd 8dd2 01be
00000170: 5ff5 16bd 418d bb3d f1ac 713d 5178 2e3c
00000180: 6a95 123d bac6 aa3c 59d5 9a3c 1c20 c8bc
00000190: 4539 05bd 0902 debc 0d47 f4bd ad1e 873d
000001a0: b56a 92bd 56c1 1a3d fd03 94bc 40fc aa3d
000001b0: 2308 04be e403 243c af2b 9a3d 26e2 13bc
000001c0: 2a6c 82bd 8aab f33d 43e9 593d fd72 273b
000001d0: 8209 bcbd 5472 253e 64e7 00bd 2b67 c0ba
000001e0: 3546 953d 9871 383d 9fee ec3d bb1d 01be
000001f0: fe9d 01bd 86f2 4c3d 2670 e9bd 0ff0 8e3d
00000200: d470 7e3b c83e 913d 2ec4 c2bd 659d 61bd
00000210: a6cd 113c 797e 81bd 9b89 973d d9b0 04be
00000220: ec77 9a3d 520c 1f3d d9bb 84bc f0f0 583d
00000230: 6d17 99bc 5b90 4cbd d064 a8bd 88ad f839
00000240: 3fcc f73c a552 63bd 5824 dfbd fa70 803c
00000250: cbb6 39bd 18dd 0cbc 10e7 c03d bc3c abbd
00000260: 8e2f babd ef2c 1ebe 2e94 593d eedb 05be
00000270: 60ea 173e 1d39 283d aff7 fbbc bf09 073e
00000280: a654 033d 3eb8 3c3d 1e5d 90bd 0a9d a73d
00000290: c2d2 01bd 672e d9bd d04b 0b3c 1614 0bbd
000002a0: e1d3 973d ce18 ecbc f819 163e 8a95 263d
000002b0: 1b0a c5bd a8b3 d43d d1db e2bd b5a0 f6bd
000002c0: e75d 823d 1463 a23d e0d0 803c 729b be3d
000002d0: 2549 7c3d 75f2 80bd 3135 a1bd a08c 2cbd
000002e0: 173e fcbc be6d 0e3e 737b 173e 1913 06be
000002f0: 3b35 c2bd a2cd c93c bb7b 2f3c 3229 093e
00000300: c471 6fbd d73d 1bbc f313 153b dcb2 11bd
00000310: 9a79 d0bd ab3c 7e3d fa5c 0cbe fe71 723c
00000320: 7db0 24be b4bf 763d a533 853d babd dd3d
00000330: 9396 2bbd 49a2 1cbe a411 9bbc 4c12 f1bd
00000340: 6b7d 3abe e394 ca3c 5184 e23c 4c78 2bbd
00000350: 449b 703d aea4 06be c8b5 86bd 2583 2dbd
00000360: c38f f03d 95b8 2dbd 816e 213e 496e e9bc
00000370: 1af7 cd3d 8f75 663b fc08 d2bd b6f1 093d
00000380: 43d0 603b 8261 acbc 5348 d03d aa78 6fbd
00000390: e98a 7abd dda0 393d b038 f0bd c20d bc3c
000003a0: 202c 2bbd 44da b4bd d897 5d3d 2390 adbd
000003b0: 478e ddbd f9d1 473e 411c 0abe e362 fdbd
000003c0: 9f6a 0d3e edf3 1a3e 8744 10bc 5ece a9bd
000003d0: 269f b43b df22 513d c01a 28bd 5467 8abd
000003e0: 7147 afbd 98da 853d 27f5 e43d 5044 2fbe
000003f0: 2c09 30be 393c 9fbd bfe0 e0bc 5d7f 7cbc
-0.06089427 -0.023639128 -0.10193762 0.032909118 -0.111282595 0.09729083 -0.047713265 -0.046264715
-0.15225643 0.03312092 -0.076911554 -0.007123473 -0.061007787 0.007123913 0.10769031 0.046830103
-0.122532755 0.02824411 0.042687062 0.004457224 0.06225985 -0.15606056 0.043036796 0.06261583
0.13708992 -0.16859084 0.042441316 -0.0005232574 0.019016068 0.15994933 -0.11151287 0.049163673
0.0908677 -0.06259353 -0.061476946 -0.14337638 0.016632222 -0.034115132 0.072300985 -0.07986476
-0.06055322 -0.14733148 -0.042180963 0.1315045 -0.11151228 0.033577126 0.008464346 0.0071362793
0.10228531 0.0217342 -0.01173285 -0.026676696 0.1173849 0.046917066 0.08488321 0.03495977
-0.072409704 0.12857576 0.041805882 0.028579198 0.02150493 0.06686568 -0.080132276 0.079918414
0.07096251 -0.09231539 0.0376444 0.13820575 -0.009305648 -0.037499223 0.01906084 -0.13462606
-0.17026447 0.10815213 -0.013842196 0.12262789 0.014148552 -0.045916177 -0.09064306 0.044907536
-0.101171024 -0.05689821 -0.14810285 -0.0028048998 0.02177251 0.007565839 0.09120817 -0.043382116
0.049897388 -0.16512185 -0.035421737 -0.12677975 -0.036855098 0.091578014 0.05900282 0.010648803
0.035787024 0.020846713 0.01890056 -0.024429373 -0.03252532 -0.02710058 -0.11927614 0.06597648
-0.07149259 0.037782036 -0.018068308 0.08348894 -0.12893729 0.010010693 0.07527863 -0.009026086
-0.06368287 0.11897953 0.05320097 0.0025550716 -0.09181501 0.16156894 -0.03147067 -0.0014679184
0.072887816 0.045030206 0.11568951 -0.12608998 -0.031644814 0.050035976 -0.11398344 0.06979381
0.0038824575 0.07092053 -0.095100746 -0.055081744 0.008899128 -0.06322951 0.07399293 -0.12958087
0.075424045 0.03883011 -0.016202854 0.05296415 -0.018687928 -0.049942356 -0.082223535 0.00047431537
0.03024876 -0.055498738 -0.10895604 0.015678871 -0.04534034 -0.008597635 0.09419072 -0.083611935
-0.090911016 -0.15446828 0.05311983 -0.13072178 0.148355 0.041070092 -0.030757753 0.13187312
0.03206315 0.046074145 -0.07049011 0.0818425 -0.031695135 -0.10604554 0.008501962 -0.033954702
0.074134596 -0.028820422 0.14658344 0.040669955 -0.09621068 0.10385829 -0.11077083 -0.12042371
0.06365567 0.07929054 0.0157246 0.093069926 0.061593194 -0.06296245 -0.078714736 -0.042126298
-0.030791325 0.13909051 0.14793186 -0.13093223 -0.09482809 0.024634186 0.010710652 0.13394621
-0.058458105 -0.009475193 0.0022747486 -0.035570964 -0.10179444 0.062069576 -0.13707343 0.014797686
-0.1608295 0.060241416 0.06503991 0.10827203 -0.041891646 -0.15296282 -0.01892931 -0.11771068
-0.18211906 0.024729198 0.027650984 -0.04186277 0.058741823 -0.13148758 -0.06577641 -0.042361397
0.1174617 -0.04241236 0.1576481 -0.02849497 0.100568965 0.0035165285 -0.1025562 0.03367778
0.003430382 -0.02104259 0.10170045 -0.058464684 -0.06116763 0.045319427 -0.11729562 0.022955779
-0.041790128 -0.08830693 0.054099888 -0.084747575 -0.10818153 0.19513692 -0.1348734 -0.12372377
0.13810204 0.15132113 -0.008805401 -0.082913145 0.005512136 0.051058646 -0.041041136 -0.067579895
-0.08558548 0.06535834 0.111795716 -0.17115903 -0.17190999 -0.077751584 -0.027450917 -0.015411225

lstm.bias_ih_l1 f4 [256]
00000000: f5e1 bdbc 4632 9c3d 7469 7dbd f794 48bb
00000010: ec01 ed3d 90c4 91bc f65b dabd 79da a3bc
00000020: 9f8d 32bc 9595 24bc e1e6 0dbd f6cb c3bd
00000030: 8d05 693d 5f19 ccbd 1989 053d 4741 38be
00000040: cb64 94bc 95ca 2ebd ae1e 143d b06e 07be
00000050: 3797 62bc a21e b5bc 8d71 10bc f4de 51be
00000060: cf2f adbd 6958 e03d 4a3f d1bd 07a9 8abd
00000070: 56ff 9cbc 0798 95bd 383d a9bd 24e6 7bbd
00000080: 0576 3f3d 34e0 fb3d 76c8 34bd 70c0 853c
00000090: feaa bf3b c7df c6bd 75f6 373d 915b 82bd
000000a0: e19a 793a 506e 3d3d e319 a8bd f45a 0bbe
000000b0: 35cc 88bd 0ba2 dbbd e3c3 4f3d c7ee 2fbe
000000c0: ba6a 04be ed48 b5bd 9230 41bd 0a64 1cbc
000000d0: aba7 a8bd 6a01 c2bd 3be2 debc ad36 633d
000000e0: 6e6b 02bd 934c c53c df16 6d3c 9a92 093e
000000f0: 6ed7 8d3d 3466 05be 5b0d 19bc 08d6 b0bb
00000100: daf1 a0bc 1e04 88ba 0d2e e33d e240 41bd
00000110: 08c4 98bc 68a8 f6bd 0bcd 813b 7cdf b23d
00000120: 343c cb3d 4850 843d c3fa fabd 6e0c 38bd
00000130: e222 f13c 05ea c2bd acfe 8bbd dde5 dcbd
00000140: 41ae 06be d0da 423c 3123 1abd ab9a 46be
00000150: 624d 263d eec9 eeba 6b2d 9fbd 3c04 a8bd
00000160: cba6 42be 0299 4bbb 4884 14bd 78bc 12be
00000170: 809c 84bd b8c7 963a 28cf 08bd 0085 363c
00000180: f471 f53c c327 b53d f3f5 97bd 6ad6 f53d
00000190: 0a9c ccbd 9757 02bd 84c9 4d3d fe3c f9bb
000001a0: 5ece 77bc 1eb9 483d 32d6 3d3c 6ba9 abbd
000001b0: a217 643c f51c f6bd abdb ca3d 901c e6bc
000001c0: 0370 0c3c 5384 1dbe f195 72bd b420 13bd
000001d0: e661 52bd 93f7 83bd fe7b 3dbd d664 bebd
000001e0: 99e8 7c3c b3b6 19bc c6fc 1f3d 767e 1e3c
000001f0: c7d7 ba3d 4fb2 06be 7e13 c63d e37a 943d
00000200: 1712 323e e7be bf3c 9e6b 263e 4c0c 72bc
00000210: 7f39 073e 24f4 ddbc f13f 0cbc 34ec c23d
00000220: 97e2 173e 692c 673d be03 09bd 3bc2 63bd
00000230: df32 b13d 9f3e 8f3d ea6b d83d 471d a53d
00000240: e164 6b3d a3ab febd 6a45 233d a52c 0f3d
00000250: 59b8 0bbe a9e4 b2bc f2f9 73bd bca5 b73d
00000260: be34 2c3d 9098 b23d 0f99 20be 158c a13d
00000270: d7c7 10bc c6c3 dcbd a161 393d 34a0 14be
00000280: f725 1ebd e49b a13d bda9 f3bc 4745 b53d
00000290: 2d58 053d dd95 183d 6c53 7dbc 57cf 27bd
000002a0: 2386 c83d e60d b63d 5e66 673d 9b40 5b3d
000002b0: 21fa e73d c929 9e3d 7cb9 013e f8f1 003b
000002c0: ea32 8e3d ca06 e9bd f487 543d 1d5f 843d
000002d0: 2e95 2e3c f8c3 7ebd 428d b3bc 963c d43d
000002e0: c6bb 8fbc ecc5 22bc 880c c2bd 2df2 99bc
000002f0: 11ba 9d3d 7b3e 3ebd d66e 113e 6bfc 483d
00000300: 3ced f13b 3004 053d 2a44 21bd cbcd 13be
00000310: bed9 823d 9fb9 cdbd 9fcd 783d 9938 433d
00000320: 6e3d 873d d033 0c3e f16b 24be db7b 9cbd
00000330: e1e9 143c 7b52 f6bd 4574 8bbd fb72 0bbe
00000340: dd50 16be 7a61 c5bd 3164 abbd c2fd b6bd
00000350: a79b d1bd aef6 a93d 3b67 77bd 3df9 1ebe
00000360: 2f34 69bc a13b a03c 6cdd e6bd c499 51be
00000370: 7f63 25bd d864 933d 9552 b4bd 5fa0 9f3d
00000380: 1565 1dbe 2425 a83d b3cc 2fbc 64be 733d
00000390: fdf1 133d 7e3b 00be f57f 52bd 2cf2 7cbe
000003a0: 3224 1cbe a098 0ebe 40fa 93bc ca8a c0bd
000003b0: d3ee 8b3d 25fb 453d 1cf0 023e 29e1 d43c
000003c0: b231 fabd ec76 8a3d 39cc c4bd ca5b 8a3d
000003d0: d42d 253d 79d4 10be 7bf6 8ebd ea86 99bc
000003e0: 3f1e 0b3c cb97 4ebd 0f02 21bd 3adc ff3d
000003f0: 9181 5b3d 5321 72be 71ff f0bd 2f63 5cbd
-0.023179034 0.076267764 -0.061868146 -0.0030606368 0.11572632 -0.017793924 -0.106620714 -0.020001637
-0.010898023 -0.010045429 -0.03464401 -0.09560387 0.05689006 -0.09965777 0.03260145 -0.17993651
-0.018114468 -0.042673666 0.03616207 -0.13225818 -0.013829998 -0.022109333 -0.008816135 -0.20495206
-0.084563844 0.10954363 -0.102171496 -0.06770521 -0.019164722 -0.073043875 -0.0826363 -0.061498776
0.04674341 0.12298623 -0.044136487 0.016327113 0.0058492413 -0.09710651 0.044912774 -0.06365121
0.0009521675 0.04624778 -0.082080625 -0.13608915 -0.066795744 -0.107242666 0.05072392 -0.1718093
-0.12931338 -0.088518 -0.04716546 -0.009545336 -0.08235105 -0.09472926 -0.027207484 0.055472065
-0.031840734 0.024084365 0.014470785 0.1343483 0.069258556 -0.13027269 -0.009341563 -0.0053966083
-0.019646574 -0.0010377204 0.11092768 -0.047181018 -0.018648162 -0.1204384 0.0039612106 0.087340325
0.09923592 0.06460625 -0.1225486 -0.04493373 0.029435579 -0.09517292 -0.06835684 -0.107860304
-0.1315241 0.011892989 -0.037631217 -0.19394939 0.04060114 -0.0018218139 -0.07772335 -0.08203933
-0.19008939 -0.0031066542 -0.036258966 -0.14329708 -0.064751625 0.0011503613 -0.033400685 0.011140108
0.029961564 0.088454746 -0.07419958 0.12003787 -0.099906996 -0.031821813 0.05024101 -0.007606148
-0.015124885 0.049004667 0.011586713 -0.08381923 0.01392165 -0.12017242 0.099051796 -0.028089792
0.008571628 -0.15382509 -0.059225027 -0.03591986 -0.051362894 -0.064437054 -0.046260826 -0.09296577
0.015436315 -0.009381938 0.039059423 0.009673705 0.091231875 -0.13153957 0.096716866 0.07250001
0.17389713 0.023406459 0.1625199 -0.01477344 0.13205527 -0.027093954 -0.008560167 0.095177084
0.14832531 0.056438837 -0.033450834 -0.055605154 0.08652281 0.06994366 0.10567458 0.08062225
0.057469252 -0.12435081 0.03986112 0.034954686 -0.13644542 -0.02183755 -0.05956454 0.08967158
0.042042486 0.08720505 -0.15683387 0.07888047 -0.008836708 -0.10779528 0.04525912 -0.14514238
-0.038610425 0.07891062 -0.029744023 0.08851104 0.032554794 0.037252296 -0.015461784 -0.04096922
0.097912095 0.0888937 0.05649411 0.05352841 0.11327005 0.07722814 0.12668413 0.0019675475
0.06943305 -0.11378248 0.051887468 0.06463454 0.010655684 -0.06219861 -0.021917943 0.10363118
-0.017545592 -0.009934884 -0.094750464 -0.018792236 0.07701505 -0.046446305 0.14202437 0.04906885
0.007383017 0.032474697 -0.039371647 -0.14433973 0.06389187 -0.1004517 0.06074297 0.047661398
0.06603514 0.1369164 -0.16056801 -0.07640811 0.009088964 -0.12027451 -0.06809286 -0.1361808
-0.14679284 -0.09637733 -0.08368719 -0.08935119 -0.102347665 0.082990035 -0.060401183 -0.15524764
-0.014233633 0.019559683 -0.112727016 -0.20468813 -0.04037809 0.07196969 -0.08804814 0.0779426
-0.15370591 0.08210209 -0.010729956 0.059507743 0.03611945 -0.12522694 -0.05139156 -0.24701756
-0.15248182 -0.1392541 -0.018063664 -0.09401472 0.068326615 0.048335213 0.12786907 0.025986271
-0.1221651 0.06760964 -0.09609265 0.067557886 0.04032691 -0.14143552 -0.06980606 -0.01874109
0.008491098 -0.05043773 -0.039308604 0.12493177 0.05359036 -0.23645525 -0.117674716 -0.053805526
