Final/Jaison/Archive/Model_Evaluation_Code/Model/LSTM/lstm_2025-06-20.pt (torch, 215145 bytes, 9 tensors)

lstm.weight_ih_l0 f4 [256, 11]
-0.04146372 0.19012593 0.044001542 -0.034231246 0.109781444 0.047434557 -0.06011203 0.1734031
-0.063551694 -0.02842136 -0.058544785 -0.011058152 0.018243337 -0.041457098 -0.080691606 0.038445283
-0.018635068 0.1272135 -0.049922768 -0.11794132 -0.13269345 -0.006641125 0.35778624 0.045004375
-0.113625266 -0.024056552 -0.050524037 -0.30225876 -0.16683376 -0.027113685 0.15997656 -0.196268
-0.17664753 0.06871174 0.19839785 -0.016778883 0.045668915 -0.24279341 -0.07415567 0.1537447
0.042155847 0.022153253 0.016292362 0.08838365 0.4292067 -0.008823111 -0.07358445 -0.105071075
0.006617901 -0.06998914 -0.16009071 0.017192986 -0.13137245 0.083039634 0.12331918 0.054192975
0.14084482 0.0849715 -0.032813996 -0.14588454 -0.09615115 0.03065515 -0.010824191 -0.100931704
-0.076485984 0.065863416 0.054343868 -0.011305417 -0.07655093 -0.018530266 -0.33740482 -0.124491
0.029548345 0.06102174 -0.4133314 -0.16522463 -0.12521632 0.12553993 0.23339322 0.17256789
-0.05513575 -0.10562708 -0.013154327 0.077912435 0.07657856 0.103483394 -0.07848883 0.004894202
0.21791092 0.081084765 0.15489002 -0.05067052 -0.05171556 0.14943022 0.14276344 0.10684963
0.15323436 0.06692723 0.011192675 0.15453477 0.13931316 -0.04026395 0.14823835 0.25472155
0.113860756 -0.015002219 0.053224873 0.12930806 -0.036456004 -0.019685162 -0.16672121 0.09969945
0.14031897 -0.04369711 0.06509972 -0.025722899 -0.00070580526 0.13980156 0.053213656 0.037996728
-0.108362496 -0.1937936 -0.13053653 -0.04082977 0.006728693 -0.12764814 -0.07136033 -0.11640541
0.11089468 -0.61309594 -0.18540837 -0.30603248 0.18755987 0.15200506 0.01172663 0.018561522
-0.040757228 -0.11134867 0.15852548 0.11431432 -0.14180595 0.08743888 -0.01569252 0.13480237
0.019653961 0.07655591 0.043552402 -0.06029625 0.088232815 0.101102024 0.038661823 -0.0011514949
0.042456605 -0.01749941 -0.029441139 0.18806724 0.012694362 0.1346041 -0.037676938 -0.07509117
0.106010206 0.08394008 0.09217582 -0.06258885 -0.030176338 0.12543045 -0.024849724 0.014107584
-0.034744952 -0.04387519 -0.21145886 -0.11436469 -0.08015708 -0.25912416 -0.27093375 -0.21545614
-0.13511576 0.110094115 0.055147212 -0.0313653 -0.54133743 0.035659086 0.11329013 0.0050429637
-0.031866655 -0.053349722 -0.05706552 -0.040826082 -0.017154252 -0.07107215 -0.022071829 -0.19789582
-0.14169464 -0.17868651 -0.05336274 -0.12711851 -0.19812092 -0.09617127 0.07395318 0.05998704
0.00882653 -0.1475855 -0.2923453 -0.10847108 -0.12541288 -0.14078736 -0.1237857 0.009757182
-0.043690074 0.10496994 0.12981033 0.050071847 0.14448962 -0.04278651 -0.2904398 0.024365848
0.19846056 -0.82774633 -0.31360352 -0.1035555 0.07729055 0.109368525 0.1116024 0.13605021
0.062297534 0.13534977 0.1858388 -0.027577803 0.17095573 0.07990266 0.045201853 0.072838195
0.17562364 0.0060139135 -0.041651167 -0.30120078 0.10278882 0.17118394 0.12400965 0.031862605
0.14976864 0.057147667 0.076416545 0.13048401 -0.07421718 0.046983592 -0.36929867 -0.07734957
0.112253234 0.011395666 0.00078658573 0.019178478 -0.088790916 0.09612626 0.021684222 0.14778826
00000000: ddd5 29bd 5fb0 423e f63a 343d 1036 0cbd
00000010: 18d5 e03d bd4a 423d 0838 76bd 9590 313e
00000020: 6427 82bd e9d3 e8bc a8cc 6fbd 402d 35bc
00000030: 0d73 953c ebce 29bd a441 a5bd cd78 1d3d
00000040: 92a8 98bc 4144 023e d17b 4cbd 388b f1bd
00000050: cbe0 07be cb9d d9bb c22f b73e 8256 383d
00000060: 5db4 e8bd 3f12 c5bc 4bf2 4ebd a9c1 9abe
00000070: 78d6 2abe 851d debc e5d0 233e 7bfa 48be
00000080: 17e3 34be beb8 8c3d ce28 4b3e de73 89bc
00000090: 540f 3b3d d69e 78be eede 97bd 406f 1d3e
000000a0: 9cab 2c3d bd7a b53c 8f77 853c 7d02 b53d
000000b0: fbc0 db3e cf8e 10bc 72b3 96bd 812f d7bd
000000c0: fada d83b 7756 8fbd d2ee 23be 4ed8 8c3c
000000d0: 8086 06be af10 aa3d c48e fc3d 74f9 5d3d
000000e0: a039 103e 8a05 ae3d f867 06bd c262 15be
000000f0: e5ea c4bd 8220 fb3c f357 31bc 48b5 cebd
00000100: afa4 9cbd 66e3 863d ad97 5e3d 5b3a 39bc
00000110: bcc6 9cbd c9cc 97bc 53c0 acbe 23f5 febd
00000120: 5f0f f23c eff1 793d 2ca0 d3be a530 29be
00000130: b538 00be 8a8d 003e a2fe 6e3e a3b5 303e
00000140: 06d6 61bd 0353 d8bd 3f85 57bc 8e90 9f3d
00000150: 38d5 9c3d 1aef d33d c0be a0bd 8b5f a03b
00000160: 0a24 5f3e c50f a63d 7d9b 1e3e e48b 4fbd
00000170: b2d3 53bd 3c04 193e 9430 123e fbd3 da3d
00000180: 78e9 1c3e 2511 893d 7b61 373c 5d3e 1e3e
00000190: 1ca8 0e3e d0eb 24bd cbcb 173e dd6a 823e
000001a0: d42f e93d decb 75bc 5302 5a3d 5569 043e
000001b0: e452 15bd c742 a1bc f7b8 2abe 3a2f cc3d
000001c0: c7af 0f3e befb 32bd 0153 853d d4b8 d2bc
000001d0: ca05 39ba 2428 0f3e 90f6 593d 75a2 1b3d
000001e0: 28ed ddbd d471 46be 5eab 05be 1e3d 27bd
000001f0: 5e7c dc3b 32b6 02be 5d25 92bd f665 eebd
00000200: c01c e33d dbf3 1cbf b1db 3dbe 4ab0 9cbe
00000210: b20f 403e 37a7 1b3e 0d21 403c 550e 983c
00000220: 0df1 26bd c60a e4bd 8154 223e a01d ea3d
00000230: 9435 11be 2813 b33d 9a8d 80bc a209 0a3e
00000240: 5801 a13c 58c9 9c3d 0164 323d 33f9 76bd
00000250: 68b3 b43d 940e cf3d dc5b 1e3d c2ed 96ba
00000260: fae6 2d3d ec5a 8fbc 8b2e f1bc b394 403e
00000270: 03fc 4f3c a8d5 093e 2253 1abd 66c9 99bd
00000280: e11b d93d c7e8 ab3d adc6 bc3d 952e 80bd
00000290: 5e34 f7bc d770 003e a691 cbbc 7f23 673c
000002a0: b950 0ebd 79b6 33bd ac88 58be 0938 eabd
000002b0: 6529 a4bd ecab 84be d4b7 8abe 89a0 5cbe
000002c0: c95b 0abe 0679 e13d 0be2 613d e778 00bd
000002d0: 1795 0abf 430f 123d a804 e83d 723f a53b
000002e0: 9c86 02bd 3d85 5abd 89bd 69bd 4039 27bd
000002f0: 1387 8cbc 468e 91bd fbcf b4bc 34a5 4abe
00000300: 6618 11be 99f9 36be e392 5abd 5b2b 02be
00000310: 36e0 4abe 71f5 c4bd c474 973d f8b4 753d
00000320: 269d 103c a720 17be 48ae 95be 1626 debd
00000330: 3c6c 00be 902a 10be 5b83 fdbd 96dc 1f3c
00000340: 5df4 32bd 7bfa d63d 00ed 043e 2318 4d3d
00000350: 16f5 133e e840 2fbd 87b4 94be e39a c73c
00000360: 3f39 4b3e 2fe7 53bf a490 a0be e814 d4bd
00000370: 824a 9e3d 9bfc df3d cd8f e43d bf50 0b3e
00000380: b32b 7f3d 2199 0a3e 874c 3e3e d8ea e1bc
00000390: 050f 2f3e 01a4 a33d 9425 393d 312c 953d
000003a0: afd6 333e 5d10 c53b 6a9a 2abd fd36 9abe
000003b0: f282 d23d d84a 2f3e c5f8 fd3d 5d82 023d
000003c0: f35c 193e ac13 6a3d 4780 9c3d 9a9d 053e
000003d0: 2dff 97bd de71 403d b714 bdbe 7469 9ebd
000003e0: 06e5 e53d e3b4 3a3c e032 4e3a 2f1c 9d3c
000003f0: 03d8 b5bd d8dd c43d 1ca3 b13c ce55 173e

lstm.weight_hh_l0 f4 [256, 64]
0.026246984 0.014779117 -0.17452632 -0.08501163 0.00029078737 -0.04403456 -0.10722723 0.100692555
0.029613577 -0.10849708 0.046992287 -0.110667415 0.052337997 -0.073776335 0.06156948 0.12702201
2.8363367e-05 0.06001436 0.1060486 -0.011814808 0.051189445 0.0886501 0.04571335 -0.0886974
-0.0070292857 -0.040615097 -0.19640176 -0.096796185 0.04590793 0.17431796 0.059007306 0.008469318
0.004514911 -0.11762992 0.18791634 -0.17484538 0.037086837 -0.084302306 -0.03846802 -0.11131756
-0.030446818 -0.10507294 0.11990016 0.021340106 -0.12412707 0.109670386 0.07273959 -0.039396
-0.052290853 -0.04116051 -0.10139888 -0.0987267 -0.06047429 0.05766892 -0.042274036 -0.014658834
-0.10669288 -0.017595157 0.015920449 0.04663918 0.06415955 -0.060432043 0.059999324 -0.009504553
-0.0074179303 -0.022718003 0.090041496 0.009487348 -0.03460304 -0.06925181 -0.07980626 -0.12310708
-0.05751298 -0.03188948 -0.036617886 -0.07326723 0.06180902 -0.10353207 0.081074834 0.01757459
0.05374906 -0.05968911 0.111777246 -0.03209571 -0.087222494 0.016338151 0.03763366 -0.08436754
-0.045573115 -0.11456007 0.045960188 -0.04786875 -0.12553407 -0.0742239 0.08950493 0.07710045
0.12532808 -0.060734928 0.13554808 0.09317543 -0.051827714 0.12046346 -0.08688721 -0.058435015
-0.0076877708 0.13706581 0.021999288 -0.062372454 0.10947267 0.10248182 -0.060059007 0.034329124
0.12285189 0.0023216698 -0.004810166 0.02842471 -0.075035214 -0.020355554 -0.024396354 0.032647345
0.1141238 -0.06383535 0.09972624 -0.030803872 0.093780704 -0.052460648 -0.046064407 0.05944213
0.06951099 -0.08468537 0.031144384 0.07604932 -0.10845352 0.1313733 0.06363396 0.030169005
-0.17337221 -0.0055073556 -0.094476536 -0.17244926 -0.13520877 0.04933849 -0.17196131 -0.009571742
-0.01343745 0.0021717886 -0.008989083 -0.027436996 0.13722411 -0.0163194 -0.029827122 0.12708598
0.047231793 -0.00080985227 -0.10949169 -0.016653216 0.011445565 -0.022876108 0.088550135 0.083269075
0.12531716 -0.012436214 0.0039498345 0.08731218 0.033219654 0.050807368 0.041939665 -0.06901126
-0.06680137 -0.02757874 0.045880415 0.103280954 -0.042444754 -0.094651505 -0.13056289 0.064117774
-0.067721196 -0.030279348 -0.044303793 0.036670227 0.098625794 0.12947388 -0.034384325 -0.008435032
0.10139436 -0.04030294 0.07186002 -0.050423354 0.08214009 -0.01509041 0.055483703 -0.10892308
0.052613508 0.108205445 0.052854408 0.07343895 -0.12032544 0.10481375 -0.07121064 0.0056420523
0.002460493 -0.027777502 0.10643128 0.09067124 -0.00030088748 -0.0003675515 0.07387979 0.069242254
-0.058339328 0.05625446 0.0906417 -0.052025855 0.072486736 0.11964474 -0.077879615 0.0027956995
0.07562667 0.034851324 -0.0977824 -0.07748991 -0.06716172 0.05563712 -0.020494645 -0.043521486
-0.045810085 0.11272333 0.006858787 0.047132336 -0.0033548167 0.11088261 0.025577676 -0.114490606
-0.06484586 -0.05500153 -0.090146765 -0.0057499483 -0.09635154 -0.0060406527 0.053137276 0.045614816
-0.10752655 -0.07983964 0.0662583 -0.06365002 -0.03043649 -0.0040868646 -0.036798768 -0.053797763
0.063092545 -0.08940721 0.063398495 -0.051835354 -0.11216157 0.018077234 0.12045622 0.119365305
00000000: ea03 d73c 1c24 723c 07b7 32be 941a aebd
00000010: d274 9839 955d 34bd f399 dbbd e637 ce3d
00000020: 2c98 f23c b833 debd fc7a 403d 99a5 e2bd
00000030: 5e60 563d 0c18 97bd 4730 7c3d 0f12 023e
00000040: deed ed37 9ed1 753d 0230 d93d e592 41bc
00000050: 06ac 513d 2f8e b53d ec3d 3b3d fca6 b5bd
00000060: ec55 e6bb 045c 26bd 8b1d 49be 143d c6bd
00000070: f409 3c3d 6880 323e a5b1 713d e5c2 0a3c
00000080: d2f1 933b f5e7 f0bd 246d 403e ab0a 33be
00000090: 5ee8 173d b0a6 acbd a490 1dbd 76fa e3bd
000000a0: 9b6b f9bc 7b30 d7bd 378e f53d 72d1 ae3c
000000b0: 5536 febd de9a e03d 7ff8 943d b35d 21bd
000000c0: ef2e 56bd ec97 28bd 37aa cfbd 3931 cabd
000000d0: e4b3 77bd 3f36 6c3d 8a27 2dbd 9b2b 70bc
000000e0: cc81 dabd b823 90bc 9a6b 823c ba08 3f3d
000000f0: 1566 833d 9787 77bd dac1 753d fcb8 1bbc
00000100: 1c12 f3bb 1b1b babc ad67 b83d d270 1b3c
00000110: ebbb 0dbd e5d3 8dbd 7771 a3bd 911f fcbd
00000120: bb92 6bbd 8b9e 02bd a3fc 15bd 210d 96bd
00000130: 742b 7d3d 9f08 d4bd 900a a63d 96f8 8f3c
00000140: f927 5c3d 917c 74bd 78eb e43d cb76 03bd
00000150: b5a1 b2bd 96d7 853c c125 1a3d e4c8 acbd
00000160: e0aa 3abd 789e eabd c040 3c3d 0612 44bd
00000170: 018c 00be b302 98bd 5c4e b73d d7e6 9d3d
00000180: 0156 003e 30c5 78bd 1ecd 0a3e c3d2 be3d
00000190: 4c49 54bd 8cb5 f63d ecf1 b1bd 8e59 6fbd
000001a0: b2e9 fbbb fb5a 0c3e da37 b43c 427a 7fbd
000001b0: 3533 e03d fde1 d13d 6f00 76bd b29c 0c3d
000001c0: c699 fb3d 2827 183b 999e 9dbb f0da e83c
000001d0: 10ac 99bd b1c0 a6bc ddda c7bc 39b9 053d
000001e0: bdb9 e93d 1cbc 82bd 453d cc3d 6758 fcbc
000001f0: 1910 c03d fae0 56bd 08ae 3cbd 9779 733d
00000200: c75b 8e3d 866f adbd 8222 ff3c bfbf 9b3d
00000210: e11c debd b986 063e 8652 823d fd24 f73c
00000220: 7c88 31be 0c77 b4bb ea7c c1bd 8a96 30be
00000230: 2b74 0abe 2817 4a3d a016 30be ccd2 1cbc
00000240: c028 5cbc 9154 0e3b f246 13bc 8dc3 e0bc
00000250: 7a84 0c3e 43b0 85bc 0258 f4bc d422 023e
00000260: 2076 413d 444c 54ba 2e3d e0bd 536c 88bc
00000270: 2e86 3b3c ad66 bbbc c659 b53d fa88 aa3d
00000280: 2453 003e 43c1 4bbc 9d6d 813b bad0 b23d
00000290: 5511 083d 631b 503d edc8 2b3d c755 8dbd
000002a0: 28cf 88bd cfec e1bc 1aed 3b3d f784 d33d
000002b0: 8dda 2dbd a6d8 c1bd 47b2 05be 2e50 833d
000002c0: 69b1 8abd 650c f8bc e577 35bd 8533 163d
000002d0: 52fc c93d cd94 043e 94d6 0cbd 1733 0abc
000002e0: d9a7 cf3d b214 25bd 592b 933d b888 4ebd
000002f0: 1039 a83d c43d 77bc e142 633d 1013 dfbd
00000300: 4381 573d d19a dd3d dd7d 583d 2967 963d
00000310: 2f6d f6bd 97a8 d63d e2d6 91bd f7e0 b83b
00000320: 3940 213b a58d e3bc a5f8 d93d d8b1 b93d
00000330: 6fc0 9db9 edb3 c0b9 4a4e 973d e2ce 8d3d
00000340: 38f5 6ebd 146b 663d 5ba2 b93d 1019 55bd
00000350: ed73 943d 4d08 f53d 597f 9fbd 0e38 373b
00000360: 28e2 9a3d 43c0 0e3d 2442 c8bd 08b3 9ebd
00000370: 158c 89bd c0e3 633d 63e4 a7bc 9643 32bd
00000380: 5ba3 3bbd 7ddb e63d adbf e03b d60d 413d
00000390: 7cdc 5bbb 6c16 e33d 4688 d13c 0d7a eabd
000003a0: e8cd 84bd 4949 61bd de9e b8bd 106a bcbb
000003b0: f553 c5bd abf0 c5bb 79a6 593d 9ad6 3a3d
000003c0: e136 dcbd f782 a3bd 6eb2 873d f15a 82bd
000003d0: f255 f9bc 1beb 85bb 4eba 16bd 0b5b 5cbd
000003e0: aa36 813d 211b b7bd 12d7 813d 4f51 54bd
000003f0: f7b4 e5bd b516 943c c0b1 f63d cc75 f43d

lstm.bias_ih_l0 f4 [256]
-0.014311488 0.07663485 -0.15343152 0.029981697 0.017590258 -0.15239586 0.02851507 0.047052346
-0.060481697 -0.09030931 -0.10697278 -0.043667253 0.02205291 0.0320373 0.043438256 -0.1918014
-0.12888655 -0.017196303 0.09414951 -0.04748481 -0.10767102 0.09934567 0.01505366 0.0700185
-0.12856428 0.05104029 -0.1771561 0.038131177 -0.027725678 -0.08310871 -0.030553548 -0.085064195
-0.046698194 -0.02374775 -0.19293424 -0.063558534 -0.015095909 0.06043582 0.093755886 0.061926827
-0.20171887 -0.006169748 0.071669064 0.04488178 0.09993801 -0.08452877 -0.070351906 -0.08369554
0.08894773 0.065555766 -0.09339899 -0.1258108 -0.11196338 0.08602756 -0.057616185 0.030207843
0.08292941 -0.14161284 0.03965819 0.06601089 -0.14093387 -0.10784548 -0.041821662 -0.073638216
-0.10979222 0.053445317 -0.0069879713 0.042778164 -0.12029102 -0.12775357 -0.09606983 -0.096557535
0.016647065 -0.0811162 0.08619966 -0.118479475 -0.13513023 0.047149334 -0.0040565063 -0.11184156
-0.11167829 0.037423693 -0.088854305 -0.006517134 -0.06818785 -0.10783084 -0.14610322 -0.070093326
0.01775541 -0.09621649 -0.24373859 0.08195403 -0.012844022 -0.033911854 -0.14927217 -0.09687908
-0.11944705 0.035774913 -0.13678391 -0.092625864 -0.15712796 0.10277135 0.12666528 -0.06915236
0.039813053 -0.027568884 -0.14781263 -0.029172063 -0.110195085 -0.10483961 -0.07854235 0.06011381
0.05245197 -0.118314534 -0.08705787 -0.01887209 -0.027770689 -0.07494457 -0.100342646 -0.087676555
-0.010681725 0.036645275 -0.054268442 -0.12117962 -0.10847403 -0.14175685 -0.09139608 -0.009595155
0.115870416 0.015942523 -0.016528092 -0.0333015 0.015275353 -0.054602493 0.04099161 0.026515683
-0.03992238 0.05168577 0.034215324 0.004094748 0.011807806 -0.1227665 0.08831921 0.01953525
0.038622227 -0.013428844 0.044461925 -0.09104089 -0.03376942 0.07930054 0.0343585 0.009639965
0.0021292197 0.03721822 -0.0096139675 0.077886276 0.015531057 0.133071 -0.021877475 0.010002952
0.053839333 -0.0661021 0.019682085 0.0062503815 -0.08402891 0.038779948 -0.057570312 0.028213546
-0.036922958 -0.08322733 0.008991475 -0.016241688 0.04732012 0.02047185 -0.038890522 0.023446865
-0.04711088 0.07435684 0.09022126 -0.06628581 0.008496219 0.06605467 -0.06789102 0.017094832
0.08363785 0.09545909 -0.055187464 0.006708005 -0.05564324 -0.007005035 -0.043573115 0.05574604
-0.09221909 -0.122343235 -0.1355716 0.00050586375 -0.046251558 -0.096886285 0.024471592 -0.10862816
-0.008625257 0.040742006 0.011734637 0.027115837 0.09001722 -0.10572025 -0.00017141647 -0.2220865
0.024771817 0.019901454 -0.0038032546 -0.03805565 -0.10462287 0.14132951 -0.063346274 0.04567543
-0.12475399 -0.019555222 0.0545652 -0.068855114 -0.030171605 -0.06081445 0.030609705 0.09156724
-0.11719807 0.004060553 -0.0036600514 -0.06528781 -0.17339103 -0.09846098 -0.096490264 0.03708858
-0.12330691 0.04356838 -0.14693989 -0.059707783 0.07560307 0.035330296 0.10039396 0.01399898
-0.14182086 -0.10419446 -0.08232164 -0.085500516 -0.011600247 -0.0131218145 0.07007894 0.020767506
-0.043947447 -0.20079225 0.03908785 -0.032995723 0.056331962 0.02572766 -0.04634038 0.018066254
00000000: bb7a 6abc bbf2 9c3d 271d 1dbe 2d9c f53c
00000010: 7219 903c a90d 1cbe 7098 e93c f6b9 403d
00000020: a8bb 77bd 16f4 b8bd 8b14 dbbd 6fdc 32bd
00000030: 4ea8 b43c 8b39 033d 50ec 313d 9667 44be
00000040: d6fa 03be 43df 8cbc 75d1 c03d 6f7f 42bd
00000050: a082 dcbd be75 cb3d a0a3 763c dc65 8f3d
00000060: 5ba6 03be a00f 513d 6968 35be 702f 1c3d
00000070: f620 e3bc e634 aabd 6f4b fabc 2336 aebd
00000080: 9b46 3fbd a48a c2bc 8e90 45be fa2a 82bd
00000090: d554 77bc 8d8b 773d 1603 c03d fca6 7d3d
000000a0: 648f 4ebe 992b cabb 3bc7 923d f5d5 373d
000000b0: 4dac cc3d 6b1d adbd a914 90bd 9168 abbd
000000c0: 3a2a b63d 1a42 863d f847 bfbd 8cd4 00be
000000d0: 0e4d e5bd 382f b03d f3fe 6bbd 7076 f73c
000000e0: e5d6 a93d f502 11be a070 223d b830 873d
000000f0: f850 10be 17de dcbd 314d 2bbd a2cf 96bd
00000100: beda e0bd 7ae9 5a3d 5afb e4bb 2838 2f3d
00000110: 235b f6bd d5d1 02be 42c0 c4bd f5bf c5bd
00000120: 6d5f 883c 4020 a6bd 7389 b03d 5ea5 f2bd
00000130: 945f 0abe a91f 413d 71ec 84bb 300d e5bd
00000140: 96b7 e4bd 9649 193d 3ff9 b5bd af8d d5bb
00000150: 12a6 8bbd 6ad6 dcbd 159c 15be 178d 8fbd
00000160: cb73 913c 270d c5bd 9c96 79be 84d7 a73d
00000170: bc6f 52bc 28e7 0abd ceda 18be 8a68 c6bd
00000180: a8a0 f4bd b788 123d 1511 0cbe a1b2 bdbd
00000190: 27e6 20be c979 d23d 8bb4 013e c19f 8dbd
000001a0: 0313 233d 24d8 e1bc 325c 17be 40fa eebc
000001b0: f6ad e1bd 26b6 d6bd d0da a0bd e639 763d
000001c0: e0d7 563d e44e f2bd 664b b2bd a499 9abc
000001d0: 5b7f e3bc 8a7c 99bd 7280 cdbd c48f b3bd
000001e0: 6702 2fbc 5b19 163d 9648 5ebd 052d f8bd
000001f0: a227 debd b528 11be de2d bbbd ff34 1dbc
00000200: 784d ed3d e599 823c ec65 87bc 2767 08bd
00000210: 7945 7a3c dda6 5fbd d2e6 273d 6b37 d93c
00000220: a685 23bd 75b4 533d 5e25 0c3d 3c2d 863b
00000230: 8775 413c 016d fbbd b4e0 b43d 6308 a03c
00000240: 5732 1e3d a704 5cbc b51d 363d a573 babd
00000250: ce51 0abd 5268 a23d 80bb 0c3d f2f0 1d3c
00000260: 618a 0b3b 2272 183d e783 1dbc d782 9f3d
00000270: f975 7e3c c443 083e 6438 b3bc 6ce3 233c
00000280: a286 5c3d 8a60 87bd 533c a13c 00d0 cc3b
00000290: 5917 acbd b9d7 1e3d d9ce 6bbd 1820 e73c
000002a0: 873c 17bd 1773 aabd fb50 133c 4a0d 85bc
000002b0: bed2 413d 95b4 a73c ab4b 1fbd a413 c03c
000002c0: 57f7 40bd 6648 983d edc5 b83d dbc0 87bd
000002d0: ba33 0b3c ac47 873d 720a 8bbd 760a 8c3c
000002e0: 524a ab3d 0e80 c33d 400c 62bd d3ce db3b
000002f0: 2bea 63bd 7e8a e5bb b979 32bd f655 643d
00000300: 5ddd bcbd 178f fabd 48d3 0abe f19b 043a
00000310: 4672 3dbd 516c c6bd a678 c83c 7178 debd
00000320: f350 0dbc 17e1 263d a342 403c 0822 de3c
00000330: f35a b83d dc83 d8bd 42be 33b9 a56a 63be
00000340: 44ee ca3c 6008 a33c 0640 79bb 3ee0 1bbd
00000350: 8444 d6bd afb8 103e b1bb 81bd 2916 3b3d
00000360: 057f ffbd 4632 a0bc c27f 5f3d e903 8dbd
00000370: 712a f7bc 9318 79bd 34c1 fa3c 9b87 bb3d
00000380: 8b05 f0bd 630e 853b 79dd 6fbb 9eb5 85bd
00000390: 6b8d 31be e9a5 c9bd b09c c5bd 32ea 173d
000003a0: 5588 fcbd c274 323d 6977 16be 2690 74bd
000003b0: c8d5 9a3d 80b6 103d 599b cd3d fa5b 653c
000003c0: 7d39 11be e863 d5bd 3f98 a8bd e51a afbd
000003d0: f60e 3ebc e1fc 56bc 8c85 8f3d 9e20 aa3c
000003e0: 3d02 34bd 7c9c 4dbe 951a 203d 8626 07bd
000003f0: 58bc 663d d0c2 d23c 69cf 3dbd aeff 933c

lstm.bias_hh_l0 f4 [256]
0.006652917 -0.06525735 -0.027976338 -0.028666357 0.041102823 -0.07928993 -0.06872762 -0.058273878
0.053572394 -0.03913267 -0.14325652 -0.14504826 -0.009883339 -0.0953486 -0.063111104 -0.042032596
-0.008505449 -0.0013990417 0.008255296 -0.01933257 -0.05480862 -0.032003324 -0.10995629 -0.07180727
-0.047311332 -0.13903596 -0.08578839 -0.07795779 -0.06653853 -0.031247437 -0.025151517 0.09074419
-0.124095656 -0.080753505 -0.16851301 -0.08749922 -0.05377017 -0.0014383949 -0.00042714164 -0.027216889
-0.11838697 -0.104568824 -0.13137355 0.029887373 -0.089311905 -0.09720295 -0.120454594 0.060654424
-0.13176562 0.050189313 0.04682433 -0.115651146 -0.0735877 0.05995649 0.04822529 -0.07382942
8.786051e-05 -0.042161636 -0.095362425 0.017846877 0.056557 -0.03339867 -0.03431927 0.10649777
0.077809066 -0.07111932 0.047886427 0.014901389 -0.162173 -0.023523673 0.05561114 -0.10383355
0.06362522 0.0010778878 0.011302034 -0.005044431 -0.006094783 -0.0031337647 -0.054463677 -0.092596345
0.07016744 -0.042924058 0.04870562 -0.055918887 -0.012200228 -0.12311208 0.036409657 -0.13003497
-0.023952546 -0.13873613 -0.28880295 0.07893292 -0.19293171 -0.02667202 0.00890101 -0.14639615
-0.1499294 0.07637082 -0.08763946 -0.09610119 0.044352904 0.027629355 0.041233 -0.00672545
-0.07482011 -0.04289203 -0.030608127 -0.1330342 -0.008457244 0.032299083 -0.11496033 -0.09347335
-0.02245097 0.015989821 -0.04887887 0.071063004 0.0910741 0.046696912 -0.1147292 -0.16914204
-0.123888955 -0.08761348 -0.11672095 0.00084806624 -0.109911636 -0.07852024 0.06257105 0.06083505
-0.0069732596 -0.050362106 0.057326604 0.021869808 -0.12485203 0.004732463 0.05897884 0.11126144
-0.09695588 -0.088628344 0.008242482 -0.06061094 0.05759204 0.06183714 0.033330724 0.06895106
0.0072185844 0.008932095 0.011131035 0.08794371 0.053861648 -0.12559766 -0.020189315 0.062474824
0.12067321 -0.12129613 -0.0169926 -0.026668161 0.103972554 -0.07502431 0.048005052 -0.002136368
0.023001894 0.038894363 -0.05189745 -0.07712875 0.009111979 -0.029806841 0.0026688527 0.013017554
-0.07089219 -0.06230046 -0.022048775 0.014804436 0.008639742 -0.0054196627 -0.05250394 0.0036976954
0.03843283 0.08796161 -0.037137885 0.015808236 0.0528155 0.039260987 -0.05469524 -0.08299972
0.041907955 -0.022538679 0.12912472 -0.11091287 0.13593575 -0.057922192 -0.054698203 0.04308626
1.9964614e-06 -0.040460955 -0.13650443 -0.04639992 -0.04912717 0.014857055 -0.06608075 -0.049656108
-0.059048563 -0.04589291 -0.078988746 0.052623924 0.01978864 -0.1242612 0.017797794 -0.057979003
0.07971634 -0.072669685 -0.035415903 -0.10168851 -0.07999982 0.07352969 -0.124144055 0.05814304
-0.10911453 -0.12735036 -0.01879494 -0.1524044 -0.08726441 0.1215662 -0.112894505 -0.09080868
-0.10543756 -0.076118775 0.041530468 -0.03227206 -0.05670951 -0.10931835 0.015523097 -0.12023695
-0.058261495 -0.11902194 -0.11930461 0.034197927 -0.10869755 0.018652873 0.024093077 -0.047625106
0.097873725 0.07980347 -0.09981082 -0.12961146 0.13657582 -0.04585068 0.08717665 -0.12488006
-0.059757978 -0.18906379 -0.016140759 -0.036811557 0.08087248 0.014235644 0.07088954 0.07041057
00000000: b600 da3b a5a5 85bd a22e e5bc b5d5 eabc
00000010: 6f5b 283d c262 a2bd 11c1 8cbd 97b0 6ebd
00000020: ba6e 5b3d 9449 20bd d6b1 12be 8887 14be
00000030: baed 21bc 2046 c3bd 6540 81bd 5f2a 2cbd
00000040: 705a 0bbc 0d60 b7ba 3941 073c 565f 9ebc
00000050: 017f 60bd eb15 03bd c330 e1bd b10f 93bd
00000060: 87c9 41bd 715f 0ebe d3b1 afbd 55a8 9fbd
00000070: 5a45 88bd a0fa ffbc 8e0a cebc 17d8 b93d
00000080: dd25 febd 1862 a5bd ad8e 2cbe cb32 b3bd
00000090: 1c3e 5cbd 8688 bcba fbf1 dfb9 f4f5 debc
000000a0: de74 f2bd 2e28 d6bd ca86 06be 5dd6 f43c
000000b0: 29e9 b6bd 5712 c7bd e6b0 f6bd c670 783d
000000c0: 91ed 06be 4f93 4d3d deca 3f3d 82da ecbd
000000d0: 26b5 96bd f094 753d e287 453d e133 97bd
000000e0: c141 b838 aeb1 2cbd 604d c3bd 9d33 923c
000000f0: 50a8 673d 0bcd 08bd 5d92 0cbd 811b da3d
00000100: 5c5a 9f3d 02a7 91bd 8f24 443d f524 743c
00000110: ae10 26be b8b4 c0bc 82c8 633d afa6 d4bd
00000120: f04d 823d ea47 8d3a 2b2c 393c c14b a5bb
00000130: bfb6 c7bb d95f 4dbb 4e15 5fbd 27a3 bdbd
00000140: f2b3 8f3d 23d1 2fbd 8b7f 473d 340b 65bd
00000150: 77e3 47bc 3022 fcbd 4b22 153d e327 05be
00000160: 2138 c4bc d810 0ebe fbdd 93be 95a7 a13d
00000170: e48f 45be 487f dabc 8bd5 113c dfe8 15be
00000180: 1887 19be 4e68 9c3d 517c b3bd b3d0 c4bd
00000190: 64ab 353d f556 e23c efe3 283d 2a61 dcbb
000001a0: 493b 99bd 8eaf 2fbd e5bd fabc 1e3a 08be
000001b0: 4190 0abc 0b4c 043d 5270 ebbd f56e bfbd
000001c0: 19eb b7bc 16fd 823c 3635 48bd 7b89 913d
000001d0: 0f85 ba3d 4345 3f3d 25f7 eabd 9233 2dbe
000001e0: 7eb9 fdbd b26e b3bd 650b efbd c350 5e3a
000001f0: 5a19 e1bd 38cf a0bd 4025 803d 2c2e 793d
00000200: f17f e4bb 7f48 4ebd 4dcf 6a3d 5028 b33c
00000210: 6cb2 ffbd c712 9b3b cc93 713d 0add e33d
00000220: ce90 c6bd c782 b5bd 7a0b 073c 2d43 78bd
00000230: a2e5 6b3d f148 7d3d cc85 083d 3736 8d3d
00000240: e089 ec3b ec57 123c f25e 363c d51b b43d
00000250: 089e 5c3d ac9c 00be 1064 a5bc 9ae5 7f3d
00000260: 8423 f73d 1b6a f8bd 1134 8bbc 3077 dabc
00000270: 90ef d43d 58a6 99bd f2a0 443d 4f02 0cbb
00000280: 786e bc3c b24f 1f3d 6c92 54bd aef5 9dbd
00000290: 694a 153c 7a2d f4bc ebe7 2e3b 9447 553c
000002a0: ed2f 91bd c42e 7fbd a29f b4bc 4e8e 723c
000002b0: b48d 0d3c 6d97 b1bb 5f0e 57bd 0955 723b
000002c0: be6b 1d3d 3725 b43d e51d 18bd 4680 813c
000002d0: 1155 583d 21d0 203d 1e08 60bd c2fb a9bd
000002e0: ada7 2b3d 09a3 b8bc 4539 043e 4926 e3bd
000002f0: be32 0b3e d23f 6dbd 390b 60bd 387b 303d
00000300: f2fa 0536 63ba 25bd d1c7 0bbe d80d 3ebd
00000310: 9239 49bd 016b 733c 5855 87bd 3464 4bbd
00000320: e8dc 71bd 34fa 3bbd dac4 a1bd 2f8c 573d
00000330: c91b a23c a87c febd aecc 913c 647b 6dbd
00000340: 5242 a33d d8d3 94bd 4410 11bd 1142 d0bd
00000350: f2d6 a3bd bc96 963d 3d3f febd 6527 6e3d
00000360: 7077 dfbd 2268 02be d9f7 99bc e60f 1cbe
00000370: afb7 b2bd b3f7 f83d 3c35 e7bd e7f9 b9bd
00000380: a6ef d7bd 29e4 9bbd da1b 2a3d b52f 04bd
00000390: 3b48 68bd 4de2 dfbd 9654 7e3c ca3e f6bd
000003a0: 9ba3 6ebd c6c1 f3bd fa55 f4bd 2013 0c3d
000003b0: d29c debd e9cd 983c d85e c53c 8b12 43bd
000003c0: 0572 c83d 0070 a33d 9d69 ccbd deb8 04be
000003d0: 88da 0b3e eccd 3bbd ac89 b23d 1ec1 ffbd
000003e0: c8c4 74bd f099 41be a039 84bc b7c7 16bd
000003f0: 79a0 a53d 9e3c 693c 892e 913d 6b33 903d

lstm.weight_ih_l1 f4 [256, 64]
-0.13791427 0.040338285 -0.0428423 0.08607994 0.05736942 -0.02257512 0.004501736 0.114274666
0.23421948 0.16633017 0.08258358 0.04732749 0.10297189 0.065880604 0.088738054 -0.082443364
-0.041093603 -0.05622425 -0.13353622 -0.10326396 -0.12505086 0.3544854 0.06885891 -0.13641703
-0.0676456 0.18677774 0.098222114 -0.056797445 -0.044098627 0.048516143 -0.15697774 -0.009598774
-0.11713048 0.13633795 -0.042156927 0.018307839 0.04674898 -0.0014280453 0.08089542 -0.054436322
-0.0007999725 0.09739412 0.08090381 -0.04911437 -0.05780473 0.089790784 0.5132795 0.18256535
-0.07712988 -0.03707558 0.12304205 0.038508847 0.15798761 -0.22294948 -0.10088579 0.30168352
-0.1771727 0.084369294 -0.1036023 0.020225601 -0.09648647 0.007854217 0.14998533 0.1301709
-0.16012372 0.052559458 0.071793005 0.0033912063 0.1748366 0.028491782 0.03962035 0.1269386
0.12566404 0.01623348 -0.0021634027 -0.10390289 0.018093247 0.099896364 0.026880322 0.02353297
-0.025949981 0.0058827144 -0.10667264 0.017655626 -0.12785661 0.18904307 0.07540698 -0.12846266
0.08829745 -0.015950015 0.038207978 0.071374975 0.0060335197 -0.032751083 -0.04209806 0.1156108
0.09145786 -0.008136667 -0.024481993 0.018073808 -0.08878379 -0.0775447 0.03812266 -0.025413249
0.030214334 0.15750827 -0.07879225 0.0011160994 -0.01743457 0.038781255 0.06677762 -0.017730271
-0.12545846 -0.011217613 0.030481879 -0.011411711 0.1126784 -0.08384619 0.053906567 0.047340136
-0.018681461 -0.06842038 0.0075055803 0.14440803 -0.045816116 0.118346766 -0.023413649 0.07403332
-0.0074733007 -0.07216131 0.1130388 0.0042899856 0.1384436 0.058732066 -0.048811924 0.012943871
0.021156287 0.08209908 0.038623385 0.02324981 0.09227618 -0.09153272 -0.044792652 -0.08048124
0.009192619 -0.13196218 0.08240134 0.056586538 0.0031797308 0.1967878 -0.074057 -0.090964414
0.07577399 -0.008952935 -0.07086177 -0.10618825 0.057014894 -0.19468212 -0.08151157 0.024262665
-0.031546332 -0.0011558192 -0.08441312 0.007882786 0.015090948 -0.053005684 0.16690621 -0.07492764
0.07567733 -0.018266082 0.055003274 0.09043292 0.00037483725 -0.07495673 0.17679277 0.05183179
-0.011139532 -0.06805798 0.029697658 0.03250963 -0.030631755 0.006804997 -0.025180047 0.17678466
-0.17028777 -0.05531385 -0.06563055 0.09793231 0.01516818 -0.050890185 0.06402338 -0.10685992
-0.066739015 0.05797593 0.042878207 0.13642645 0.080793105 0.13611262 0.11000736 -0.15348586
0.14233725 -0.086070776 -0.128932 0.029149486 0.020641256 0.03122587 -0.07430449 0.014943954
-0.06615063 -0.1186039 -0.1038945 0.06391343 0.099088006 0.19692783 -0.026916327 -0.09461225
-0.032370195 -0.030779593 0.07553295 0.014232771 -0.077482395 0.0033830402 0.09308735 -0.10032818
0.058109775 -0.05011829 -0.16118318 -0.060829856 -0.0118639795 -0.02321259 0.002358423 -0.14673786
-0.03472835 0.019713964 -0.11652253 -0.073034145 -0.057309113 0.09043186 0.1538676 0.05245606
0.021640152 -0.10230317 -0.07914495 -0.014249065 0.011727724 0.0232496 0.034047566 0.2548103
-0.06831045 0.052935172 -0.10825021 -0.055921167 -0.07622879 -0.04645041 0.06602859 0.08713429
00000000: 6639 0dbe c239 253d 687b 2fbd ae4a b03d
00000010: 32fc 6a3d 75ef b8bc 4c83 933b d608 ea3d
00000020: 3bd7 6f3e 7552 2a3e 9421 a93d 78da 413d
00000030: ede2 d23d 69ec 863d 4cbc b53d 11d8 a8bd
00000040: c451 28bd 664b 66bd b8bd 08be 0e7c d3bd
00000050: 550d 00be 1c7f b53e e605 8d3d e8b0 0bbe
00000060: c789 8abd aa42 3f3e ad28 c93d 70a4 68bd
00000070: c3a0 34bd ddb8 463d c6be 20be 2d44 1dbc
00000080: 1be2 efbd 2d9c 0b3e beac 2cbd 52fa 953c
00000090: dc7b 3f3d 402d bbba 7fac a53d 9ff8 5ebd
000000a0: 3fb5 51ba 9276 c73d e6b0 a53d 262c 49bd
000000b0: a7c4 6cbd 3be4 b73d 4966 033f 69f2 3a3e
000000c0: 45f6 9dbd 90dc 17bd 78fd fb3d 74bb 1d3d
000000d0: 81c7 213e de4c 64be 369d cebd 4376 9a3e
000000e0: c36c 35be cfc9 ac3d 712d d4bd 29b0 a53c
000000f0: b39a c5bd f9ae 003c c195 193e 854b 053e
00000100: 79f7 23be 9648 573d 3608 933d 003f 5e3b
00000110: 5e08 333e 9967 e93c f348 223d 31fc 013e
00000120: 13ae 003e 13fc 843c e0c7 0dbb 0acb d4bd
00000130: 4a38 943c 7796 cc3d 1f34 dc3c 37c8 c03c
00000140: 0e95 d4bc c9c3 c03b 2f77 dabd 88a2 903c
00000150: d8ec 02be 8294 413e fa6e 9a3d b78b 03be
00000160: 4bd5 b43d 9ba9 82bc f87f 1c3d 0b2d 923d
00000170: d5b4 c53b 0026 06bd 046f 2cbd 5bc5 ec3d
00000180: 424e bb3d a84f 05bc 768e c8bc 860f 943c
00000190: 47d4 b5bd c1cf 9ebd 8226 1c3d 722f d0bc
000001a0: 0d84 f73c d949 213e d55d a1bd 154a 923a
000001b0: f1d2 8ebc 18d9 1e3d b4c2 883d 133f 91bc
000001c0: 2f78 00be 14ca 37bc 22b5 f93c 2ff8 3abc
000001d0: efc3 e63d 8db7 abbd 22cd 5c3d bbe7 413d
000001e0: dd09 99bc fc1f 8cbd 5ff1 f53b b3df 133e
000001f0: aea9 3bbd ca5f f23d fbcd bfbc c89e 973d
00000200: 97e2 f4bb 4fc9 93bd e380 e73d 0293 8c3b
00000210: 29c4 0d3e 0991 703d 03ef 47bd 8812 543c
00000220: f34f ad3c 9023 a83d 8e33 1e3d 6376 be3c
00000230: 4bfb bc3d 8275 bbbd 8078 37bd 59d3 a4bd
00000240: a39c 163c 1821 07be 09c2 a83d 49c7 673d
00000250: 0863 503b be82 493e 32ab 97bd 8d4b babd
00000260: 652f 9b3d 55af 12bc fa1f 91bd 3a79 d9bd
00000270: 7388 693d c05a 47be 8aef a6bd 7fc2 c63c
00000280: ba36 01bd db7e 97ba c9e0 acbd cd26 013c
00000290: 0640 773c 7d1c 59bd 76e9 2a3e aa73 99bd
000002a0: b7fc 9a3d c0a2 95bc 1d4b 613d e534 b93d
000002b0: ce85 c439 ea82 99bd 2a09 353e 924d 543d
000002c0: 9582 36bc fb61 8bbd 8148 f33c d128 053d
000002d0: 72ef fabc 74fc de3b 6346 cebc 0a07 353e
000002e0: eb5f 2ebe c790 62bd 4f69 86bd bc90 c83d
000002f0: f583 783c 3a72 50bd b11e 833d 60d9 dabd
00000300: 77ae 88bd 2b78 6d3d 0fa1 2f3d 60b3 0b3e
00000310: db76 a53d 1b61 0b3e 8a4b e13d 662b 1dbe
00000320: dbc0 113e e045 b0bd c006 04be e7ca ee3c
00000330: da17 a93c 65cd ff3c f42c 98bd 7cd7 743c
00000340: fb79 87bd 9ae6 f2bd a4c6 d4bd 0be5 823d
00000350: a7ee ca3d 73a7 493e a17f dcbc 11c4 c1bd
00000360: 9c96 04bd 7c25 fcbc 05b1 9a3d 9130 693c
00000370: 17af 9ebd ffb5 5d3b 95a4 be3d dc78 cdbd
00000380: 8404 6e3d d648 4dbd 340d 25be ba28 79bd
00000390: 2361 42bc 5428 bebc c68f 1a3b 7342 16be
000003a0: 503f 0ebd 2e7f a13c 5da3 eebd ed92 95bd
000003b0: f6bc 6abd 5734 b93d 788f 1d3e 2adc 563d
000003c0: b046 b13c 5384 d1bd bf16 a2bd e974 69bc
000003d0: a425 403c f275 be3c 7675 0b3d 7f76 823e
000003e0: 59e6 8bbd 8dd2 583d 49b2 ddbd 980d 65bd
000003f0: d71d 9cbd c942 3ebd ff39 873d 7673 b23d

lstm.weight_hh_l1 f4 [256, 64]
0.1427023 -0.10346745 0.07146158 -0.03392105 0.11204154 0.07159552 0.061875004 0.1311524
0.09615687 -0.07135225 0.07078491 0.10399847 -0.07482478 0.06460975 -0.013983488 0.13432096
0.0021930393 0.11253041 0.0625251 0.053257238 0.07544574 0.09235141 -0.13340202 0.02740763
0.1265434 0.09964597 -0.063211314 -0.01873884 -0.09245713 -0.047944967 -0.19918112 0.12795803
-0.029653361 0.015926188 -0.13342495 0.12329656 -0.02241576 0.13973156 0.02112369 0.085341915
-0.02237187 0.088092655 0.11515539 -0.05426928 -0.029025579 0.056622192 -0.0737885 -0.06799591
0.041363854 0.0068029035 -0.0830189 -0.034056593 0.0015225332 0.043194994 -0.112141564 0.10178345
-0.03328082 0.080569044 -0.037169624 -0.055357084 0.12481855 0.03358395 -0.15372822 0.0664086
-0.11287877 -0.056419607 -0.027715277 0.15144356 -0.118151836 -0.050849274 -0.0074627036 0.04460491
0.0336745 -0.1438976 0.030132538 -0.07346944 -0.101771384 -0.06216579 0.083091184 0.083118156
0.13152142 -0.120100655 0.00553281 -0.072108366 0.0059751766 -0.0056496435 0.053236555 -0.103034616
0.12256396 0.11123739 -0.095577314 -0.023985429 -0.030630004 0.049360115 -0.063457906 0.1464325
0.0029950861 0.15803568 -0.05371446 0.083263285 -0.043423917 0.044859525 -0.0014203856 0.046425536
-0.041448 -0.118664525 -0.109534524 0.015795937 -0.051208973 0.05842033 0.030595824 -0.0452354
-0.06949761 0.016915454 -0.023049628 0.10650544 0.03147784 -0.0692641 -0.019450944 0.12322911
0.0817882 -0.013749369 0.09469825 -0.051751398 -0.019759635 -0.14445396 -0.066438854 -0.1660673
-0.055377893 -0.16329598 0.08987674 -0.07734664 -0.10353304 0.1058054 0.15356578 -0.012267744
-0.06968824 0.052673306 0.13071612 0.0004892986 -0.071413405 0.006533934 0.031166885 0.104153596
0.06699517 -0.05211385 -0.012737854 -0.040027812 -0.1217565 -0.024609389 0.1068045 -0.050194602
-0.050969232 0.15177284 -0.14475061 0.037622675 -0.06692455 -0.03214148 0.028925452 0.05043756
-0.073436424 -0.055310518 -0.15122727 -0.006249817 0.004040344 0.0015915986 0.002886256 -0.02247553
-0.09642179 -0.16388349 -0.023868155 -0.024500065 0.036635622 -0.033187374 -0.056723066 -0.07590588
0.044101615 0.15473746 0.064166054 0.12774915 0.029617054 0.050578207 0.064181745 0.09931506
0.022605358 -0.14006351 0.04139298 -0.05811326 -0.13867138 0.034712598 -0.058859076 -0.113938116
0.035883825 -0.124983616 -0.059379116 -0.059777994 -0.10609388 0.019267939 0.15719284 0.008123784
-0.1179533 -0.09551489 0.023784619 -0.0021658307 0.02384677 0.074538 0.01269174 0.056916922
0.07326548 -0.0893462 0.09039119 -0.01352415 -0.03281127 0.035323467 0.08599995 -0.13938266
0.0441443 0.05920195 0.0281158 -0.08950283 -0.091882214 -0.04718674 -0.13881955 0.001385836
0.02394062 0.13919927 -0.09113119 0.05968984 -0.0565609 -0.032604434 -0.07962756 0.095659
0.09797282 -0.09597176 -0.030545803 0.029214168 -0.023577202 -0.044186365 0.07851273 -0.100333475
-0.051809337 0.022502933 0.051632836 -0.014011449 0.06952556 0.09609912 -0.123677954 -0.10339124
0.07007909 -0.116090685 -0.141396 0.101405926 0.104707986 0.03688993 -0.16424564 -0.009117931
00000000: 8d20 123e bee6 d3bd 735a 923d cdf0 0abd
00000010: 0976 e53d aca0 923d a570 7d3d d14c 063e
00000020: e5ed c43d 2121 92bd aef7 903d 26fd d43d
00000030: bc3d 99bd 1e52 843d 001b 65bc 6f8b 093e
00000040: 18b9 0f3b 5876 e63d 290d 803d 4324 5a3d
00000050: 4c83 9a3d bc22 bd3d 8a9a 08be f785 e03c
00000060: 9894 013e 3013 cc3d ef74 81bd 3282 99bc
00000070: 2a5a bdbd f161 44bd 23f6 4bbe 6e07 033e
00000080: 9beb f2bc a377 823c 8da0 08be e882 fc3d
00000090: 42a1 b7bc ca15 0f3e 970b ad3c bec7 ae3d
000000a0: 3645 b7bc ec69 b43d 97d6 eb3d 7749 5ebd
000000b0: 0dc7 edbc acec 673d 6d1e 97bd 7141 8bbd
000000c0: 256d 293d e4ea de3b d005 aabd ed7e 0bbd
000000d0: bd8f c73a 3ced 303d 7aaa e5bd d773 d03d
000000e0: 7851 08bd 6201 a53d 2d3f 18bd 1cbe 62bd
000000f0: dea0 ff3d 538f 093d ee6a 1dbe 3b01 883d
00000100: fc2c e7bd 3f18 67bd 260b e3bc 0514 1b3e
00000110: 97f9 f1bd 5447 50bd b289 f4bb a3b3 363d
00000120: 46ee 093d e459 13be 83d8 f63c 2577 96bd
00000130: 846d d0bd 8ea1 7ebd b62b aa3d da39 aa3d
00000140: 8dad 063e 55f7 f5bd 934c b53b 8dad 93bd
00000150: 6acb c33b a520 b9bb 930e 5a3d d003 d3bd
00000160: d002 fb3d 6ed0 e33d 0abe c3bd 177d c4bc
00000170: c6eb fabc d52d 4a3d 38f6 81bd 67f2 153e
00000180: 3549 443b 1bd4 213e b203 5cbd f185 aa3d
00000190: 47dd 31bd 9fbe 373d 3b2c baba b428 3e3d
000001a0: 61c5 29bd 6306 f3bd a353 e0bd 7b66 813c
000001b0: 80c0 51bd 284a 6f3d 18a4 fa3c c148 39bd
000001c0: c354 8ebd 4792 8a3c 93d2 bcbc 861f da3d
000001d0: e8ee 003d 56da 8dbd 9657 9fbc 8b5f fc3d
000001e0: 9280 a73d 0945 61bc 28f1 c13d 46f9 53bd
000001f0: f5de a1bc bdeb 13be 1811 88bd 8c0d 2abe
00000200: eed3 62bd 1037 27be 4c11 b83d ea67 9ebd
00000210: 2109 d4bd 80b0 d83d 5940 1d3e a6fe 48bc
00000220: b5b8 8ebd f7bf 573d 72da 053e 4644 003a
00000230: 3141 92bd 9c1a d63b b251 ff3c 7b4e d53d
00000240: c434 893d 5575 55bd 6fb2 50bc 34f4 23bd
00000250: 795b f9bd a199 c9bc 51bc da3d db98 4dbd
00000260: 1dc5 50bd 576a 1b3e 8139 14be 3c1a 1a3d
00000270: bd0f 89bd c9a6 03bd 12f5 ec3c 9d97 4e3d
00000280: d665 96bd 488d 62bd 52db 1abe 44cb ccbb
00000290: dd64 843b 309d d03a 5727 3d3b 9a1e b8bc
000002a0: ca78 c5bd 13d1 27be 2687 c3bc 5cb4 c8bc
000002b0: 3c0f 163d 7cef 07bd 7256 68bd 8b74 9bbd
000002c0: e5a3 343d 7f73 1e3e 7e69 833d acd0 023e
000002d0: 779f f23c 182b 4f3d b871 833d b265 cb3d
000002e0: df2e b93c cf6c 0fbe af8b 293d 2b08 6ebd
000002f0: dfff 0dbe cc2e 0e3d 3716 71bd 6358 e9bd
00000300: ebfa 123d 69f7 ffbd 8437 73bd c5d9 74bd
00000310: c047 d9bd ccd7 9d3c 29f7 203e 9f19 053c
00000320: 8091 f1bd 509d c3bd f6d7 c23c 9cf0 0dbb
00000330: 4d5a c33c 61a7 983d 04f1 4f3c b821 693d
00000340: 360c 963d 24fb b6bd 041f b93d 6594 5dbc
00000350: 1c65 06bd 57af 103d be20 b03d 54ba 0ebe
00000360: a7d0 343d be7d 723d 1b53 e63c 424d b7bd
00000370: be2c bcbd e246 41bd b626 0ebe f1a4 b53a
00000380: 1e1f c43c 418a 0e3e fda2 babd 557d 743d
00000390: 67ac 67bd 3a8c 05bd c613 a3bd dee8 c33d
000003a0: f9a5 c83d d88c c4bd 313b fabc 8d52 ef3c
000003b0: fa24 c1bc c3fc 34bd 48cb a03d a37b cdbd
000003c0: 0736 54bd 1258 b83c f47c 533d 4790 65bc
000003d0: 6b63 8e3d 9ecf c43d de4a fdbd c9be d3bd
000003e0: a085 8f3d f4c0 edbd 1dca 10be e9ad cf3d
000003f0: 2471 d63d e519 173d 0230 28be 6063 15bc

lstm.bias_ih_l1 f4 [256]
-0.06798408 0.07699787 -0.023258893 -0.008730041 -0.15976077 -0.03557781 0.09841036 -0.12912507
0.0385461 0.06195034 -0.03919946 0.07287867 -0.26665837 0.09969051 -0.14315875 -0.00036022728
-0.05624352 -0.048389025 0.10374173 -0.13367337 -0.022819374 0.057487506 -0.057100024 -0.0009205283
-0.059812754 -0.070217475 0.1184124 -0.09377408 -0.051503573 -0.11806066 -0.12080125 0.13932267
0.017510504 -0.022883894 -0.01953122 -0.15217179 -0.0282663 -0.100500144 -0.07356613 0.024506895
-0.05436728 -0.07878242 0.070804164 -0.020495737 -0.036202796 -0.09075564 -0.050995696 0.0624905
0.055051412 0.037990294 -0.025810521 0.07473086 -0.038305044 0.10367143 -0.103465274 -0.06246854
-0.07909768 -0.03897013 -0.25407186 -0.1490097 0.06646301 0.06482658 0.014402497 0.05541496
-0.07165693 0.07675402 -0.08329323 -0.0073721693 -0.096391745 0.042887315 0.08512831 -0.1088237
-0.15614149 0.04992527 0.07975734 -0.15664367 -0.0419754 -0.062054336 0.09721265 0.015181739
-0.03211022 -0.02665921 0.006084815 -0.20258239 -0.08801281 0.045311917 -0.05989593 -0.040094215
-0.13259828 -0.11074962 -0.025863502 -0.07647497 -0.04344464 0.015908202 -0.0988623 0.011137898
0.064820655 -0.09228364 -0.058521688 -0.09588603 -0.01162824 -0.07593342 -0.054417938 -0.054544233
-0.09363119 -0.09858377 0.035198867 0.06999635 0.08652916 -0.09238775 0.0006828311 0.062398206
-0.13375469 -0.05059539 -0.07469797 0.04823855 -0.037568595 0.010175867 0.11531411 0.04099103
-0.07256495 0.025509119 -0.1677927 -0.06775762 0.059927255 -0.13793717 0.012865018 0.009932309
-0.036016647 0.05804195 0.021924274 0.099549636 -0.059065647 -0.08984022 -0.15562311 0.06104721
-0.032301024 -0.030889595 0.027514165 -0.00035497412 -0.095615156 -0.08843803 -0.025076484 -0.117818154
0.08289073 0.11339805 -0.14151002 0.056556337 0.09805841 -0.0395437 -0.012115073 0.12842084
-0.08494412 -0.04452091 -0.007860966 0.0062416163 -0.06774483 -0.02394285 -0.052524786 -0.10306697
0.03099552 0.06803418 0.048935093 0.10765657 -0.14624633 0.015005233 -0.13863929 -0.07659397
-0.012944505 0.006440455 -0.10089793 0.0890828 0.124754794 -0.049681783 -0.014991254 0.029274669
0.113179736 0.015032358 0.1043204 0.07160851 0.038274154 -0.11060352 -0.010782231 0.032171458
-0.09484814 -0.04694054 -0.042073734 0.048547134 -0.064969175 -0.0085525615 -0.05457205 0.0728998
0.026434233 0.05654155 -0.051456295 0.021225875 -0.088689715 0.005285532 0.013990523 -0.117511
-0.055322774 0.045053575 -0.1122994 -0.07087576 -0.03463676 -0.021300307 0.07119233 0.01396193
-0.13339779 0.039839808 0.11114137 -0.17379078 -0.06724969 0.006249503 -0.15582138 0.029343095
-0.1098038 0.055498887 -0.11532519 -0.021151172 -0.11273436 0.056634232 -0.055857554 0.084891535
-0.018190406 0.088615395 -0.16387157 -0.20721792 0.08436106 0.0898857 0.07003659 0.026145363
0.07216649 0.08892264 -0.12339264 -0.08179558 0.112462476 0.008310741 0.11826255 0.011493694
0.012276677 0.09112072 -0.12585557 0.104097836 0.09573983 -0.06469374 -0.06837753 -0.046516936
-0.02121714 0.021069068 -0.20419988 -0.04762846 0.0294947 -0.0049623903 -0.1678187 -0.023496011
00000000: 3d3b 8bbd 0fb1 9d3d 6f89 bebc 7208 0fbc
00000010: 5498 23be 0aba 11bd 5f8b c93d 5d39 04be
00000020: 84e2 1d3d a4bf 7d3d 9d8f 20bd 6a41 953d
00000030: 7287 88be 8a2a cc3d 3598 12be e3dc bcb9
00000040: 9b5f 66bd 9233 46bd 8b76 d43d ace1 08be
00000050: b2ef babc 0578 6b3d b7e1 69bd 9c4f 71ba
00000060: 38fe 74bd 2ece 8fbd 3382 f23d a00c c0bd
00000070: 69f5 52bd cac9 f1bd a566 f7bd 9aaa 0e3e
00000080: 3072 8f3c 0177 bbbc f0ff 9fbc ecd2 1bbe
00000090: ba8e e7bc 05d3 cdbd d7a9 96bd afc2 c83c
000000a0: 3ab0 5ebd ad58 a1bd c601 913d ade6 a7bc
000000b0: 6249 14bd 18de b9bd dde0 50bd 0af6 7f3d
000000c0: 977d 613d b69b 1b3d 9670 d3bc 7e0c 993d
000000d0: c0e5 1cbd b051 d43d 9ae5 d3bd 03df 7fbd
000000e0: f7fd a1bd 259f 1fbd b515 82be 0096 18be
000000f0: c21d 883d ccc3 843d 73f8 6b3c ccfa 623d
00000100: dec0 92bd 3631 9d3d a495 aabd 3d92 f1bb
00000110: 0969 c5bd 9caa 2f3d c057 ae3d f6de debd
00000120: 8ee3 1fbe 717e 4c3d d157 a33d 3367 20be
00000130: 66ee 2bbd b02c 7ebd 6d17 c73d d4bc 783c
00000140: 0286 03bd 6a64 dabc 2163 c73b c271 4fbe
00000150: 0f40 b4bd fd98 393d 6f55 75bd d539 24bd
00000160: d8c7 07be b2d0 e2bd b2df d3bc e99e 9cbd
00000170: 02f3 31bd eb51 823c 5178 cabd bb7b 363c
00000180: b1c0 843d 34ff bcbd 70b4 6fbd e55f c4bd
00000190: 6084 3ebc fb82 9bbd 58e5 5ebd c669 5fbd
000001a0: b6c1 bfbd 4ae6 c9bd b02c 103d 3f5a 8f3d
000001b0: 3336 b13d ca35 bdbd 0500 333a 4395 7f3d
000001c0: fdf6 08be 1d3d 4fbd 40fb 98bd c995 453d
000001d0: 87e1 19bd aeb8 263c ce29 ec3d 36e6 273d
000001e0: ef9c 94bd 80f8 d03c d9d1 2bbe 82c4 8abd
000001f0: 4876 753d 673f 0dbe ccc7 523c 20bb 223c
00000200: 3186 13bd 65bd 6d3d 899a b33c aee0 cb3d
00000210: d2ee 71bd 26fe b7bd aa5b 1fbe a40c 7a3d
00000220: 144e 04bd 2d0c fdbc 6365 e13c d21b bab9
00000230: e1d1 c3bd ff1e b5bd 336d cdbc a54a f1bd
00000240: 9dc2 a93d 3d3d e83d 01e8 10be 9ea7 673d
00000250: d9d2 c83d 93f8 21bd 4d7e 46bc c180 033e
00000260: 2ff7 adbd 8f5b 36bd 48cb 00bc 7986 cc3b
00000270: cdbd 8abd cc23 c4bc 3b24 57bd c714 d3bd
00000280: 51ea fd3c 8155 8b3d 2a70 483d 0c7b dc3d
00000290: 99c1 15be 82d8 753c 75f7 0dbe 4ddd 9cbd
000002a0: 3015 54bc 740a d33b 93a3 cebd 0b71 b63d
000002b0: 717f ff3d 207f 4bbd e09d 75bc 6ed1 ef3c
000002c0: c7ca e73d 474a 763c efa5 d53d 7ca7 923d
000002d0: 5cc5 1c3d 1984 e2bd f4a7 30bc 38c6 033d
000002e0: be3f c2bd b944 40bd 8255 2cbd 5cd9 463d
000002f0: 8f0e 85bd 0b20 0cbc f186 5fbd 7e4c 953d
00000300: 9b8c d83c 1d98 673d d6c3 52bd e3e1 ad3c
00000310: f4a2 b5bd 4232 ad3b 8238 653c 9ba9 f0bd
00000320: 229a 62bd 198a 383d 3afd e5bd 4f27 91bd
00000330: 46df 0dbd fb7d aebc 49cd 913d 94c0 643c
00000340: 6e99 08be 112f 233d 169e e33d 36f6 31be
00000350: 35ba 89bd a2c8 cc3b a48f 1fbe ee60 f03c
00000360: d1e0 e0bd cd52 633d 9d2f ecbd 3945 adbc
00000370: 46e1 e6bd 4cf9 673d e4ca 64bd 9ddb ad3d
00000380: 0c04 95bc fd7b b53d f3cd 27be ef30 54be
00000390: 7ec5 ac3d fe15 b83d 586f 8f3d cd2e d63c
000003a0: 06cc 933d 131d b63d 48b5 fcbd 7184 a7bd
000003b0: ba52 e63d c629 083c a333 f23d 0c50 3c3c
000003c0: 1e24 493c 809d ba3d 48e0 00be 3f31 d53d
000003d0: 3e13 c43d 277e 84bd 8509 8cbd 8b88 3ebd
000003e0: 91cf adbc 0a99 ac3c c619 51be 0f16 43bd
000003f0: de9e f13c 8c9b a2bb aad8 2bbe b57a c0bc
