Final/Tarun/Model/LSTM/lstm_2025-06-23.pt (torch, 216389 bytes, 9 tensors)

lstm.weight_ih_l0 f4 [256, 11]
00000000: 1def 1ebe eaf8 9ebd 6500 1ebb 910d 9b3d
00000010: afc7 7cbe 9c12 06be b429 35be a94d 173c
00000020: b8fe f1bd 79c3 34bc b603 f5bd 0288 e93d
00000030: 22e8 0f3d f2e4 263e 100a bf3a 6b5e ffbe
00000040: bc1a f0bd 33e5 983d 8cbb ccbc 1885 bf3d
00000050: cc43 393d eb20 debd 6378 ce3d b62f 6e3e
00000060: ae9b 4a3e 6089 89bd 8cdd 923d 3f79 66bd
00000070: 961c 913d 7af3 923d d09c 7c3e 48cc 743d
00000080: 286d 1b3e 97f4 553c d03b 543d 3080 c03d
00000090: 0a9a d53d 6856 11be 1fc8 d9bd 1006 293e
000000a0: 8f6b ef3d 2b50 9bbd 68d8 253e 7e96 fcbc
000000b0: eb88 a33d b2aa 7cbd fc75 273d 051b 933d
000000c0: f55d 71bd fd0d 6bbe 1fb0 18be 240a 093e
000000d0: 13ee 0abf ceed 7fbe f6fe af3c 1ba6 bf3d
000000e0: bb42 1f3d 0fc4 3cbd d5cb 103c 7907 1ebe
000000f0: 3e47 3dbe 8d59 853c 5b2c 33be ba71 973e
00000100: 9b6c 26be bca0 7b3d b451 cc3d c995 2c3e
00000110: 2bc9 f03b 79bb 99bd fd73 19be 2a91 103e
00000120: dcc5 173e f5f8 7fbd 1cb1 803d be55 273e
00000130: 1162 2c3e 0e18 c73c 4584 6b3d 5bc5 813d
00000140: 39c2 3fbd 71f0 2dbf 97fc 133e 78f1 f93d
00000150: a677 a4bd c138 963e 60dd 583e 0930 de3d
00000160: 34f1 093e 7572 2dbe 51cc 43bd 84f9 8ebd
00000170: 49f1 703e 042b 8bbe 3870 8fbd a38d 8ebc
00000180: b13d 39be 0e34 8ebe 1442 47be 2b2c ad3e
00000190: edb9 c73d ac9e 2a3e 9149 033e 94d7 05be
000001a0: 0494 2cbd 803b 8f3d 91bf 8dbc 963c 8e3d
000001b0: 57d6 a6bd 04e7 003d 1ab6 c43d 2d83 f7bd
000001c0: 12c2 84bd 6de8 86bd 1c37 24bd 998a 44be
000001d0: 43a5 4cbd 7e19 4abe 2f76 c23d 9532 48be
000001e0: ff5b 813d d0b9 b83b 029e e63c b2e4 af3d
000001f0: 45f2 80bd 9eab dbbd fdcd 0b3e 1b2b a03a
00000200: ca37 b93d 1f70 2dbe 2308 8c3d 55cb 5a3d
00000210: ca79 5f3d 7774 fc3b 5eaa 3dbd 69fa 81bd
00000220: cb2c 4ebe a1bb b9be b311 52be 028e 24be
00000230: 7cc2 d83d fd04 eabd 527b 67be 09f0 72bd
00000240: 8d0d 123e 3d92 903d 1d2a 85ba 08eb fabe
00000250: bf79 0fbd 4e20 143e 8a25 6cbc b6d8 693e
00000260: 3bd1 e3bd 3021 8d3c f7a1 8fbd 9864 6ebd
00000270: 5a18 00bc 4e39 44bd f63d 163e 6a2a 1abe
00000280: 86e1 54bb 539a 09bd 5c7f 8ebe b86a 29bd
00000290: b743 c5bd b39d aabd 2c6c 013c d550 d83d
000002a0: 9fcd 54bd 5fd3 863d 1044 0cbe 899a 103d
000002b0: 5033 fc3c 5ee9 033e 7ce4 06be 54df 6b3d
000002c0: b9a7 203e 63e7 fa3d 1262 d43b 4a2c eb3d
000002d0: 506b b6bd 8969 2f3e 5807 ee3d 6465 fc3d
000002e0: d33a 0b3e 7c8d 9f3d 2534 b03d b7ff 453d
000002f0: b1e8 d5bd 94a4 c23b 56db d8bb 459d 43be
00000300: 600e acbb 2d85 123c 8d1c ec3d 2824 42bd
00000310: 1a4b b83d 07bf 8e3c c433 4bbd 0bc6 c9bc
00000320: 77f0 0a3d 9620 f4bd 8d03 23be e26e c8bd
00000330: fc2e b5bb 55a5 25bc da18 103f 4a52 e1bd
00000340: 1749 05be a29e a43c 4771 b8bd 533c 14be
00000350: 2259 41be eed8 fd3d a488 57be 4a9e 22bc
00000360: ba33 9bbe 9f73 ac3e e310 6fbe 9ae3 69be
00000370: cbd4 9dbd 5145 19bc bf99 4cbe 42af 3ebe
00000380: d587 9e3d 567b 69be 6af9 46bd 3853 4fbe
00000390: d39d 00be 6f92 c6bd 490a 42be 34bf 753b
000003a0: 4105 c03d 7412 203e 5de0 c03d efc9 f6bd
000003b0: 6f5b afbd 16af 483e e184 e93c 0722 5cbe
000003c0: 2c14 163d b254 c03c d2a0 04be d40d 3a3d
000003d0: 1eeb 1e3e 9c8b 98bc bfa6 1d3e 0cde cbb8
000003e0: 87e8 2c3e b114 513d a72c 533e e58d ec3c
000003f0: 6d4c 033e 9104 533e be52 9e3c 2f3b 4f3d
-0.15520902 -0.0776232 -0.0024109122 0.07570947 -0.24685548 -0.13093036 -0.1769169 0.009234824
-0.11816162 -0.011032932 -0.119635984 0.114028946 0.03513349 0.16298273 0.0014575142 -0.49876723
-0.11723849 0.07465591 -0.024991773 0.093515575 0.04523067 -0.10846122 0.10081556 0.23260388
0.1978595 -0.06715655 0.07171163 -0.056267973 0.070855305 0.07175346 0.24669194 0.05976513
0.15178359 0.013058803 0.051814854 0.0939945 0.10429771 -0.14193118 -0.10633873 0.16506219
0.11690437 -0.0758365 0.16195834 -0.030833479 0.079850994 -0.061686225 0.040884003 0.07182888
-0.058927495 -0.22954555 -0.14910935 0.13382775 -0.5426952 -0.24993059 0.02148388 0.09357854
0.038882 -0.046085414 0.00883766 -0.15432538 -0.18484208 0.016278053 -0.17497389 0.29578954
-0.16252367 0.061432585 0.09976521 0.16854014 0.0073482 -0.07506461 -0.14985652 0.14117876
0.14821571 -0.062493283 0.06283781 0.16341302 0.16834284 0.024303462 0.05749919 0.06336471
-0.046816085 -0.6794501 0.14451824 0.1220426 -0.08030634 0.29340175 0.21178198 0.10849006
0.13470918 -0.16938193 -0.047802273 -0.06981185 0.23529543 -0.27181256 -0.07003826 -0.017401522
-0.1808994 -0.2777409 -0.194588 0.3382276 0.097522594 0.16662091 0.12821032 -0.13070518
-0.042133346 0.069937706 -0.01730326 0.069451496 -0.08146351 0.031470314 0.096050456 -0.12085567
-0.064823285 -0.065873004 -0.04009162 -0.19193496 -0.049962293 -0.19736287 0.09495198 -0.19550546
0.06316375 0.005637385 0.028151516 0.08588542 -0.06296209 -0.10726093 0.13652797 0.0012219878
0.09043844 -0.16937302 0.068374895 0.05341657 0.054559506 0.0077043134 -0.046305053 -0.0634659
-0.20134275 -0.36275962 -0.20514564 -0.16069797 0.1058397 -0.11426733 -0.22605637 -0.059310947
0.14262982 0.07059143 -0.0010159645 -0.4900744 -0.035028215 0.14465448 -0.014413247 0.22836575
-0.11123892 0.01722774 -0.07013314 -0.058201402 -0.007818306 -0.047906213 0.14672074 -0.15055242
-0.0032483055 -0.03359444 -0.27831542 -0.04136154 -0.09632056 -0.0833086 0.007899325 0.105622925
-0.051953908 0.065832846 -0.13697839 0.035303626 0.030786186 0.12881991 -0.13173097 0.05758603
0.15688981 0.12251165 0.0064814175 0.11483057 -0.08907187 0.17130102 0.116224945 0.12324026
0.13596658 0.07790658 0.08603696 0.04833957 -0.10444773 0.0059400294 -0.0066179438 -0.19102962
-0.005250737 0.008942884 0.11528883 -0.047397763 0.089986995 0.017425073 -0.049609914 -0.024630567
0.03392073 -0.11920278 -0.15919323 -0.09786774 -0.0055292826 -0.010110219 0.5628792 -0.110020235
-0.13016163 0.020095173 -0.09005981 -0.14476137 -0.18881658 0.12394892 -0.21048218 -0.009925434
-0.30312902 0.33681962 -0.23346286 -0.2284073 -0.07706603 -0.009354905 -0.19980524 -0.18621543
0.07740752 -0.22800955 -0.048577704 -0.20246589 -0.12560205 -0.09695899 -0.18949236 0.0037498
0.09376002 0.1563204 0.09417794 -0.120502345 -0.085623614 0.1959804 0.028505744 -0.21497355
0.03664033 0.023477886 -0.12951973 0.045423344 0.15519378 -0.018621258 0.1539564 -9.721154e-05
0.16885577 0.051045123 0.20622502 0.028876254 0.12822123 0.2060721 0.019326564 0.05059355

lstm.weight_hh_l0 f4 [256, 64]
00000000: 51ff e93c f274 df3d e705 453d 9847 c0bc
00000010: 6517 aebd 3e9f aebd c270 e33d cbef 19be
00000020: 0523 f9bd bbd7 dbbd ef3b d73d e20d b13d
00000030: 99f6 e53d a980 053e 4f99 3f3d 702e 793a
00000040: 36a5 443e bec8 e83d 775e e13d 1985 063d
00000050: 10c1 f23c 6225 23bd ab93 0c3e 5728 69bd
00000060: 5545 a03d c9bc e4bc 68ad 953d ecbd 4dbe
00000070: 0ebb c63d 896e 74bd 3885 653c de0f 87bd
00000080: f4b6 b1bd 37ac 1abd 3372 aebc 57ac 11bd
00000090: 20a6 88bd d809 3ebd 7933 543e 0a08 b73d
000000a0: e5d2 1bbd 7859 da3d 44d7 703d f479 833c
000000b0: 71f6 b3bd 1bfc 81bd ea94 d63d f411 fa3d
000000c0: 8b76 afbd 561c 02bd ff1e a23d 54cd bdbc
000000d0: b033 2dbd e93e 4c3d 8cd8 0f3e c5d6 a1bd
000000e0: 625e 07bc ec84 d7bd 9b69 5ebe 7da4 5dbd
000000f0: fe29 fe3b d1ef ebbd 0fd8 573d b74c 2cbe
00000100: 8224 acbd c782 f83d 4929 f63d fb05 ab3d
00000110: a9b5 40bd 60e1 68bd 7e7b 1dbd 71bd bfbd
00000120: 5ce1 e5bc e717 c23c 5f3d cd3d 7c41 9d3d
00000130: fc6a 3abd 27d5 1e3d be9c 3abd 3e8b 993d
00000140: 8e53 8d3d 52ed 273d afe1 06be 413b 193d
00000150: fa20 c1bd a733 203c f4b4 663d 1ce0 28bd
00000160: 1b86 c3bc 1bb1 27bd 0c78 b9bd 4c67 343e
00000170: f1f1 983d d2f9 4bbd a617 8bbd 4847 343e
00000180: 6842 cc3d 28ff b3bd b787 fabd 72e6 26bd
00000190: ccc7 80bd 6a69 b2bc 32d8 1c3c 34a5 42be
000001a0: e6e8 0ebd 610e 4dbd f194 b73d 2d83 f93d
000001b0: 3fe2 03bd 5e2b 603d 86d2 223d b535 5dbd
000001c0: 3699 64bd 3b18 92bd d470 0cbd b472 73bd
000001d0: 6458 0abc b40b a0bb 8e9d 4fba 0be0 e03d
000001e0: 44a8 9e3d 5420 dabd 8d03 e3bc ff7c 143d
000001f0: f71f 0ebd f92e d43d aca4 7abb c4d9 cfbd
00000200: 9dbb ca3c 8634 90bd b2c1 3bbc bca0 2abd
00000210: ce56 9f3e eab0 e8bc 0cce db3d 0df6 043d
00000220: 6f47 f7bc 171f c63d a9e5 ea3d 6826 5fbd
00000230: b8ad fb3d 6ca6 ca3d fcd8 283e 16f3 20bd
00000240: eb16 f6bc 79f4 983d 8266 9dbd 8240 acbd
00000250: 8088 4abd a52d b1bd 8475 8ebd f354 c73c
00000260: a089 e73d e326 583d 44be 1cbe d9cc b83d
00000270: 702a 053e a81f d63d 9f61 8abd bc72 0e3e
00000280: ca8b b73c abc4 7d3d fda4 9bbd c98a bf3d
00000290: 0cd9 fa3d b137 2f3d 86cf b3bd 6d0f 14be
000002a0: 2111 873d a869 72be 6e02 74be ac5d b7bd
000002b0: 58b9 113e 0d79 303c 4da3 a7bd 4263 833d
000002c0: 205e 5d3d 033c 933d d02c e13c 8116 99bd
000002d0: dbd8 073e 050f af3c e9e1 fd3b 2d75 573d
000002e0: 92ee ce3d 5137 77bc 6131 7b3c c523 c2bd
000002f0: 03f5 4abe 482a db3c e331 543e d50a f73c
00000300: 9c47 563c 05b3 0b3e a7d1 123e fc50 d23d
00000310: 8825 b83c 1505 823d c957 883d 94ea e5bd
00000320: 643c 223e 304c 3ebc 5c1b db3d 957f dfbd
00000330: 5855 e23d c998 fe3d 0a50 01bd 11e9 1f3d
00000340: 1a1e 043c 9d67 123c fe33 e5bd 2918 22be
00000350: 9b25 983c 4e4f c03d e59f f33c 58d3 b43c
00000360: 9c40 be3b 1a15 a0bd 47ba b33d 49f6 0b3e
00000370: 3f35 9cbd 0894 963d 277d 1abd edd5 1b3e
00000380: a8f1 ed3c 990e 0d3d a959 c23c ef74 16bd
00000390: ed25 933d b9d1 973d e8c6 8cbd 0d50 9bbd
000003a0: 2e1f e8bd fcfa 683c 66f9 773e 646a 943c
000003b0: 39f6 223e b46e a73d 28ff aa3d 825d 5a3c
000003c0: 6e58 2bbc c15c 2a3d 3f2c 2a3d a835 8e3c
000003d0: 5463 4a3d 67ff 33bd c95e f53d dc64 60bd
000003e0: a813 ea3d 6aea 59bd a64f d7bd f74b 81bd
000003f0: e676 a8bd d58d b03d c7bb 91bd fef3 803c
0.028564127 0.109109774 0.048101332 -0.023471639 -0.08500556 -0.08526467 0.11105491 -0.1503288
-0.121648826 -0.10734507 0.10509478 0.08645226 0.112286754 0.13037361 0.046777066 0.0009505516
0.19203648 0.113664135 0.11004346 0.032841776 0.029633075 -0.039830573 0.13728206 -0.056923237
0.07825724 -0.027922051 0.07308465 -0.2009198 0.097036466 -0.059675727 0.014008813 -0.06594823
-0.08677474 -0.037761893 -0.021294689 -0.035564747 -0.06672311 -0.046396106 0.2072276 0.0893708
-0.03804292 0.10661596 0.058799043 0.016049363 -0.08787239 -0.063469134 0.10477622 0.122104555
-0.08567532 -0.031765305 0.07916068 -0.023169197 -0.04228562 0.049864683 0.1404745 -0.07902292
-0.008262249 -0.105234 -0.21719973 -0.054111946 0.0077564707 -0.11520351 0.052696284 -0.1682614
-0.08405401 0.12134319 0.12019593 0.0835075 -0.047048245 -0.05685556 -0.03844785 -0.09362305
-0.028061561 0.023693038 0.10021471 0.07678506 -0.045512185 0.038777497 -0.045559637 0.074972615
0.069007024 0.04099781 -0.13172029 0.037410025 -0.09430118 0.00977794 0.056324914 -0.041229352
-0.023867657 -0.040940385 -0.090561 0.1761753 0.07468022 -0.049798794 -0.0679162 0.17605317
0.099736035 -0.087889016 -0.12232917 -0.040747114 -0.06288108 -0.021778781 0.009573029 -0.19008332
-0.034890078 -0.05006254 0.08963955 0.12183223 -0.032198187 0.05472886 0.039751552 -0.054006297
-0.055810176 -0.07133528 -0.03428729 -0.05943556 -0.0084439255 -0.0048842076 -0.0007919901 0.10980233
0.07746938 -0.10650697 -0.027711654 0.036252018 -0.034698453 0.10360522 -0.0038245125 -0.10148957
0.024747664 -0.07041268 -0.011459755 -0.041657194 0.31120914 -0.028404672 0.1073266 0.032461215
-0.03018543 0.09673899 0.114695854 -0.054479986 0.122889936 0.09895024 0.16489023 -0.039294325
-0.030040225 0.074685045 -0.076855674 -0.084107414 -0.049446583 -0.08651284 -0.06956008 0.0243325
0.11305547 0.05277146 -0.15306956 0.090234466 0.1300447 0.10455257 -0.06756901 0.13910955
0.022405524 0.061955135 -0.075998284 0.09352643 0.1224843 0.04277772 -0.08779816 -0.1445901
0.06595064 -0.23673117 -0.23829052 -0.08953413 0.1423086 0.010771048 -0.08185444 0.06415416
0.054044843 0.07189181 0.027487189 -0.074749954 0.13266318 0.021369467 0.007747878 0.052601982
0.101040974 -0.015088872 0.015331597 -0.09479479 -0.19820027 0.02675356 0.20722155 0.030156532
0.013078596 0.1364251 0.14337789 0.10269353 0.022478834 0.063486256 0.06657369 -0.11226383
0.1584335 -0.011614844 0.10698578 -0.10913006 0.11051434 0.12431485 -0.03157047 0.03904063
0.008063817 0.008935836 -0.11191557 -0.15829529 0.01857262 0.09390126 0.02973933 0.022073433
0.005806042 -0.07816525 0.08775764 0.13668169 -0.076273434 0.073524535 -0.03771701 0.15218325
0.029045895 0.03443775 0.023724394 -0.03673261 0.07184968 0.07413048 -0.06873876 -0.07583628
-0.11334072 0.014219996 0.24216232 0.018117137 0.15914239 0.08175412 0.083494484 0.013327958
-0.010458095 0.041592363 0.041546103 0.01735957 0.049411133 -0.043944743 0.119809695 -0.054783687
0.114295304 -0.05320207 -0.105132386 -0.06313317 -0.08225803 0.08620802 -0.07115894 0.015741345

lstm.bias_ih_l0 f4 [256]
00000000: 0c37 32be 8c54 583c 0a15 af3c 9010 13be
00000010: fb25 6d3d e814 41be 8c32 38bd d395 03be
00000020: 6ed5 1fbe 2b82 edbd 2d17 dfbd ad9a 8a3d
00000030: 0d88 fabc 7dd2 efbd 15dd ccbd a4f4 383c
00000040: 58bf 0d3e d56a b8bb 8e5a 8cbc 79fd 8c3c
00000050: 40b4 89be e6af 8dbd 1c07 d13d dfd0 77bc
00000060: c2a3 a6bd 5b0b 86bc dafa 3fbe 9127 85bd
00000070: d0f0 4fbe afba 8cbd a2dc cfbd 0c28 12be
00000080: 256f 99bd 3667 cb3d b144 56bd 9cb2 0bbe
00000090: ece8 873d 5c55 4bba 882c 26bd b20c 6fbd
000000a0: 450d cabd 55de 27bd 1548 9b3a c4cf aabd
000000b0: 3c62 12be 06be c6bd 05ed 33be 579f a1bd
000000c0: 4a87 30be 5b9f 733c 7c58 173e 82c5 78bd
000000d0: 9276 ca3d e285 7abd 116b 60bd e304 aabb
000000e0: 8a55 51bc 6ef4 e7bd b925 cabd 27d9 bbbd
000000f0: c0b1 bbbd abcc 4f3c f309 77bd aa50 f03d
00000100: 2097 0bbd 2ebe 04be 79e4 4f3d 81c1 dcbb
00000110: 3057 9a3c c22e 13be cb8c ec3d 121f 5dbe
00000120: 9fc6 34be 7f95 b93d 3408 53bd f6ac b83d
00000130: b456 933d a1a5 67bc b2a1 0ebe 8d3f 9b3d
00000140: 9c2b 1dbd 3b7b 30be 04c4 1cbd 8e89 96bd
00000150: 838d c7bc b1bd 28bd 52c4 9bbd d82c 7c3c
00000160: bc96 2abe a544 debd f1d8 06bc 3de2 0bbe
00000170: 9831 1abe fdb3 4abd fda0 05bd a5c3 ebbd
00000180: 33a4 2ebc 82b0 653c 7ffa 983c 2ef9 6bbe
00000190: 804d aa3c 45fb 03be b240 babd 02a8 28bd
000001a0: 6ab9 15be cd03 e03d e285 db3d a689 fabc
000001b0: 0f26 8a3c 0b3a 48bd a134 ebbd cfd9 e9bd
000001c0: bdfc b7bd e7a0 14be 3915 58bd b2be ccbd
000001d0: 65a5 a83d 3f7d f8bd e562 b1bd 492a 09be
000001e0: e5b5 4d3d 046d 35bd 83e1 51bd c8c6 08be
000001f0: cb17 02be 29eb ccbd b468 fe3d 8d37 0cbe
00000200: a80c 2a3d d6c4 363d 7d7b 4b3c 75de 513d
00000210: 9c4c 023d 2073 a03d 71a1 fd3d efc1 96bc
00000220: 84d3 8cbd c2b8 d13c c9aa 7dbd d065 2a3d
00000230: d609 143e 342a c73c cb25 83bd ed17 5fbd
00000240: 7e77 923d f1eb 4d3c 553f a8bd 6b9a 37bd
00000250: e288 833c 2335 353d a5b0 e63d 50e1 97bd
00000260: 7b4e d6ba af9f 103d 7ba8 183d 4658 3cbd
00000270: ec83 1c3c a131 40bd 0f7c 3bbc 3c54 e33d
00000280: 2f89 1dbd 2163 453d 394a d0bd acc1 5d3d
00000290: 7fd5 18be d9da ff3d 1dce 803d faee abbd
000002a0: 4f2c 4bbc 3c9f 823d 10ee f3bb fc0f f7bc
000002b0: dd29 4dbc d833 0abd 1469 c33c 4211 5d3d
000002c0: 014f 523d 0a6a a7bd 4dfa 85bd 5a4a f2bd
000002d0: 61dd 843d f602 533d 17c6 f23d 0322 a43d
000002e0: 558f c0bc 978c a9bd 2594 f7bd d6cf 833d
000002f0: 2393 a7bd fb0f 32bd 87a9 eebc ce5a 3d3c
00000300: c7d1 b7bc 5280 5a3d 7ba5 8e3d deca 12be
00000310: a567 f7bd 5395 17be 3d92 67bb db99 bcbd
00000320: b0ff d1bd c540 75bd 3614 dbbd 7b81 aebc
00000330: a211 d7bd dfbd 41bd 4c69 15bd ea97 1bbe
00000340: 2e12 283e a44d 8d3d b235 ad3a b77b 8abd
00000350: d6ef 83be 6bbe ce3c 623a f1bd 99a3 b6bb
00000360: f341 29be 45a0 47bd 7ecd d3bd adff 1f3c
00000370: 346f 69bd 9f2a 6fbd b8da debd dce8 ecbc
00000380: 67df c53b 6cfe e53c 8bfb d23c 6c42 92bd
00000390: 3f54 193d 4d76 3ebd 8546 cfbd 1aac c6bd
000003a0: 9a21 88bd 6dd4 ed3d a1ec 2c3e 1975 96bd
000003b0: 727b adbd a056 abbd 1e58 febd 7f2d 7d3d
000003c0: cd9f 4ebe 7bd4 babc 7cec 0d3e 6800 4ebe
000003d0: 1368 dcbd e8f5 8e3d a846 333d 5fb9 aebd
000003e0: 3e2b c9bd 19da 1bbe e55f ccbd 1ee2 18be
000003f0: 85e0 e1bc 6fe5 0dbe 48e8 b03d 2a27 03be
-0.17403811 0.013203751 0.021372337 -0.14361787 0.05789755 -0.18855631 -0.04497008 -0.12850122
-0.1560876 -0.11597093 -0.10893092 0.06767783 -0.030582452 -0.11710069 -0.100031056 0.011288796
0.13842523 -0.0056279697 -0.017133024 0.017210709 -0.26895332 -0.069183156 0.10206434 -0.015125482
-0.08136703 -0.016362837 -0.18748036 -0.06501687 -0.20306706 -0.068715446 -0.10149504 -0.14273089
-0.07491902 0.09931795 -0.052311603 -0.13642353 0.06636223 -0.0007756555 -0.040569812 -0.058361717
-0.09865812 -0.040983517 0.0011847044 -0.083404094 -0.14295286 -0.09704213 -0.17570885 -0.0789172
-0.17239109 0.014869536 0.14779848 -0.060735233 0.09885897 -0.061162837 -0.054789606 -0.005188571
-0.012776742 -0.11325918 -0.09870476 -0.09172278 -0.091647625 0.012683074 -0.060312223 0.117341354
-0.03407967 -0.12963173 0.050754998 -0.0067369347 0.018840402 -0.14373305 0.11550292 -0.21593884
-0.17653893 0.09061717 -0.051521495 0.09017365 0.07194272 -0.01413861 -0.1392887 0.07580481
-0.038371667 -0.17234509 -0.038272873 -0.07350455 -0.02435947 -0.04119653 -0.076058045 0.015391551
-0.16659063 -0.10852937 -0.008230434 -0.13660522 -0.15057981 -0.049488056 -0.032624234 -0.115119256
-0.010659265 0.0140191335 0.018674133 -0.23044273 0.020788908 -0.1288882 -0.09094371 -0.04117585
-0.14621511 0.10938225 0.107188955 -0.030583214 0.01686385 -0.04888348 -0.114846475 -0.11418497
-0.08983753 -0.14514504 -0.052754615 -0.0999731 0.082346715 -0.12133264 -0.08661441 -0.13395037
0.050222296 -0.04429342 -0.051240455 -0.13357079 -0.12704389 -0.10005791 0.12422314 -0.13693066
0.041515976 0.04462131 0.012419579 0.051237542 0.03181134 0.07834458 0.12384308 -0.018403022
-0.06876281 0.025600795 -0.06193045 0.041601002 0.14456877 0.024312116 -0.06403693 -0.054466177
0.071516976 0.01256846 -0.082152046 -0.044825 0.016056482 0.04424013 0.11264161 -0.07416022
-0.0016350293 0.035308536 0.03727005 -0.04598262 0.009552937 -0.04692233 -0.011443152 0.11100051
-0.038460907 0.04819024 -0.10170407 0.054139778 -0.14925192 0.12492914 0.06289313 -0.083951905
-0.012400701 0.06378028 -0.0074441507 -0.03015899 -0.012522188 -0.03374085 0.023853816 0.053971536
0.051344875 -0.08174522 -0.06541882 -0.11830588 0.06487537 0.051516496 0.11854189 0.080143
-0.023505846 -0.082787685 -0.12088803 0.06436126 -0.08182361 -0.04347227 -0.029133571 0.011557294
-0.022438897 0.053345032 0.06965157 -0.143352 -0.120803155 -0.14803056 -0.0035334968 -0.09209033
-0.10253847 -0.059876222 -0.10697214 -0.021301975 -0.1050141 -0.047300216 -0.036477372 -0.1519467
0.16413185 0.068995744 0.0013214855 -0.06761878 -0.25768918 0.025237283 -0.11778714 -0.0055737016
-0.16529064 -0.04873683 -0.10341929 0.009765548 -0.056990817 -0.058390256 -0.10881561 -0.02891963
0.0060385945 0.02807542 0.02575471 -0.07141575 0.03743386 -0.04649954 -0.101208724 -0.097007945
-0.06647034 0.116127826 0.16887142 -0.07346553 -0.08470811 -0.08366132 -0.12419151 0.061810967
-0.20178147 -0.022806397 0.13859743 -0.20117342 -0.10762038 0.06980497 0.043768555 -0.085314505
-0.09822701 -0.15219916 -0.09979228 -0.14930007 -0.02757288 -0.13857053 0.08638054 -0.12807909

lstm.bias_hh_l0 f4 [256]
00000000: 519c 163c 757b b43c 38f7 c83c 85c5 1cbd
00000010: 7c80 40bc c706 11be 0e2b 5c3d c97b cfbd
00000020: 56ae 06be ecab 18be 72cd 40be 427e 2a3c
00000030: e3bb 8cbd fb66 b83d 4dae fa3c 9b89 a33d
00000040: 9612 823d fe40 d6bd bcd9 19be d453 1dbd
00000050: 65e1 a1be 426b 9dbd 91e5 20bc 0e09 503c
00000060: f771 37bc 050d 523d 6a80 3cbe 5589 0ebd
00000070: b4ea 3dbd de71 493d c25b 363d cc1b 15be
00000080: 3ef7 35bd 88bb 843d eb75 1fbd 7b53 09bd
00000090: 4e5b b1bd 260a fb3d 78a7 4fbd 2a8b 67be
000000a0: 8cab 5cbc 38f5 7e3d 5fc4 883d 6bb5 39bc
000000b0: 2f11 c4bd 7aa5 e1bd 54f9 443d 8b69 0d3d
000000c0: a282 d8bc 6abc cfbb 5fd1 79ba f7a5 0d3c
000000d0: f143 223c c954 8b3d 0f93 92bd 3915 b2bd
000000e0: 2c5f eabd 98cb 8dbd ca9f 5b3d 5dd2 17be
000000f0: fc37 e4bd 8c23 753c 6b95 6fbd 7651 383d
00000100: f9a3 8b3d d761 073d 3e4a 8c3c 2149 73bd
00000110: 3007 b0bd fc78 663d 0dd3 c1bd e6b6 15bd
00000120: 23d4 f2bd 2590 a33d 45cb d7bc 0acc aabd
00000130: 4cf8 ac3d 26fa 8b3d 3e4f cebc a546 0d3c
00000140: 9a45 dc3b 0ea2 403b 752e cabd 762e 2fbe
00000150: 7053 66be ef2a 243b 7065 06be d8aa 00be
00000160: a8cc 1bbe eb36 28be aa49 3bbe 3dca 02be
00000170: 3c1e 11be 2d1b 1bbe 22c6 f8bd 464a 4e3d
00000180: 9c16 743d 9093 2fbc 4233 8f3d cd11 fa3b
00000190: a686 8c3d e58c 923d 06f4 98bd a09b 5fbe
000001a0: 8b5d 23be b63e 273c 6a29 cfbb 2560 ddbd
000001b0: 97dc cabd ff68 b43c 7ff5 5d3b 792a 05be
000001c0: 6a25 02be accc 543d 8cd8 c73d 5ab1 35be
000001d0: 017f cb3d 81ef 9f3d e215 3d3d 3d45 cfbd
000001e0: 7d4e 5a3d 7b5b 153b a7d3 8f3d 14bf 2ebe
000001f0: 7d13 f9bc e7c7 5dbd 285f a83d ec6b fcbd
00000200: 3209 303d 7975 db3c 460f f63d b5b2 1abd
00000210: 2523 f23b e3ef 683d d603 bebc 3c70 dfbd
00000220: 6299 c6bd 6c67 68bd 4d31 4dbd 9372 c4bc
00000230: 8988 a73c 8698 023d a69c 063e 2f22 83bb
00000240: c4a2 b43d b0a9 023e 1a1f 46bc ffa5 b53d
00000250: e244 753c 8a9d b6bc ccc5 203d 7cc9 5e3d
00000260: b72d 45bd 6e01 26bc ca3f 66bc 70c3 1d3e
00000270: 8e98 42bd 01ff 193e 61a3 0dbd 65b1 c0bc
00000280: ec8b 0fbc fc5a 243c 96c5 2bbd f4b6 af3d
00000290: 2ef8 953c 9a2f 983d 2b9f 213e 7f4b acbc
000002a0: 49f5 0d3c 4861 d8bc 49ef 9abd e6fe 03bc
000002b0: aead 813d 8807 fdbb 56f7 bbbc eced 4fbd
000002c0: 95ae 2abe a3fb 1bbb 83c4 51bc b183 353d
000002d0: 51d4 c7bd 925f 8b3d 9edb bc3c b7c1 45bd
000002e0: d5f1 073e bb90 82bd 93fd 113c d90a f6bc
000002f0: 64ca 7d3d c0a8 c2bc a51a 363d 9b31 9dbd
00000300: 3e28 dbbd 4451 cfbd c551 863d 9da8 85bd
00000310: 47e8 cfbd 1329 49be 9466 8cbc a8e5 4c3c
00000320: 3984 9d3c 3ccc 8bbd 5d78 45be 114b 2dbc
00000330: d9cc 00be c3d6 03be e4b3 24be 7810 04be
00000340: 028e 863d b044 19be a6dc 02be 821f d9bd
00000350: bff3 89be b591 233d d2a5 c03d b0c9 cdbd
00000360: 0d97 71be a3f2 c6bd 3f1b 68be e32c 83bd
00000370: 5b61 87bd 303e 2ebd fa84 27be 7ebb 1cbe
00000380: f6d7 ef3c 7ddb 4e3d a7be 14bd f654 97bd
00000390: ff17 38bd bcaa 863d 4b02 ca3d d26c 94be
000003a0: 4b03 3b3d 80b1 2e3e c6ec 583d 8bb5 c23c
000003b0: cc2b cabd ff04 58bb 3eda 76bd a11e df3c
000003c0: 0b8b 2ebe c569 1fbe b054 e7bc 6076 4abe
000003d0: 7936 df3d 7a65 903d c369 bfbd d35f f4bd
000003e0: c2c9 cebd 07a7 67be c79b fa3d 1c80 f6bd
000003f0: 1485 18be e380 25be 1445 033e 02ef 1abd
0.009192542 0.022031525 0.024531946 -0.038274307 -0.011749383 -0.14162742 0.053751998 -0.10131032
-0.13152441 -0.14909333 -0.18828371 0.010406079 -0.06871774 0.09004017 0.030600691 0.079852305
0.06351201 -0.10461615 -0.15024465 -0.038410023 -0.31617275 -0.076864734 -0.009820358 0.012697471
-0.011196605 0.051281948 -0.18408361 -0.03479894 -0.04636641 0.049180858 0.0445211 -0.14561385
-0.04442524 0.06481081 -0.038930815 -0.03352688 -0.08659993 0.12257795 -0.05069682 -0.2261168
-0.013468634 0.062245578 0.0667808 -0.011334757 -0.0957359 -0.1101789 0.04808934 0.03452448
-0.026429478 -0.0063395994 -0.0009529795 0.008645526 0.009903894 0.06803281 -0.071569555 -0.08695454
-0.11443934 -0.06923598 0.053619184 -0.14826341 -0.11143491 0.014962088 -0.058492105 0.044999562
0.06818385 0.03305229 0.017125245 -0.059395913 -0.08595121 0.056267723 -0.09464083 -0.03655138
-0.11856868 0.07986478 -0.026342044 -0.083396986 0.08445796 0.068348214 -0.02518427 0.0086228
0.0067221643 0.0029393467 -0.09872142 -0.17107567 -0.22492766 0.0025050004 -0.13124633 -0.12565172
-0.15214789 -0.164272 -0.1828982 -0.1277246 -0.1417169 -0.15147085 -0.12147166 0.0503638
0.059591874 -0.010716334 0.069921985 0.0076315165 0.0686162 0.0715578 -0.07468419 -0.2183671
-0.15953653 0.010207823 -0.0063220756 -0.10809354 -0.099053554 0.022022722 0.003386825 -0.13004483
-0.12709585 0.051953003 0.097581 -0.17743436 0.099363334 0.078093536 0.046163447 -0.10120628
0.05329751 0.0022790122 0.07022791 -0.17065078 -0.0304048 -0.05414572 0.082212746 -0.12325272
0.04297752 0.026789414 0.12014632 -0.037768085 0.0073894435 0.0568694 -0.023195188 -0.10910079
-0.09697224 -0.056739256 -0.050095845 -0.023980414 0.020450847 0.03188374 0.13145694 -0.0040018777
0.088201076 0.12760043 -0.012092376 0.08869552 0.014970036 -0.022291917 0.039251134 0.05439137
-0.0481393 -0.010132177 -0.014053294 0.15406585 -0.04750877 0.15038683 -0.03457964 -0.023522088
-0.008761387 0.010031458 -0.04193648 0.085798174 0.018306818 0.07430954 0.15783374 -0.021032093
0.008664438 -0.026413575 -0.07565171 -0.008056378 0.06331955 -0.007721845 -0.022945087 -0.05076401
-0.1666816 -0.002380111 -0.0128032 0.044315044 -0.09757293 0.06805338 0.02305394 -0.048280444
0.13275845 -0.063752614 0.008910554 -0.03003447 0.061960593 -0.023762107 0.044459004 -0.07675477
-0.10701035 -0.10122922 0.06558565 -0.06526301 -0.10151725 -0.19644575 -0.017138757 0.012505926
0.019228088 -0.06826064 -0.19284196 -0.010576979 -0.12578143 -0.12874894 -0.16084248 -0.12896907
0.065700546 -0.14967608 -0.12779483 -0.10601713 -0.26943776 0.03993388 0.09406628 -0.100482345
-0.23592778 -0.09714248 -0.22666644 -0.06405046 -0.06610366 -0.042539775 -0.1635932 -0.15305898
0.029277783 0.05050229 -0.036314633 -0.07389252 -0.04494476 0.06575534 0.098637186 -0.28989273
0.045657437 0.17059898 0.05296018 0.023768207 -0.09871635 -0.0032961962 -0.060266726 0.027236285
-0.17045228 -0.15567692 -0.028238624 -0.19771719 0.10899062 0.07050605 -0.09346344 -0.119323395
-0.10097076 -0.2262231 0.122367434 -0.12036154 -0.14894515 -0.16162448 0.1281932 -0.03782559

lstm.weight_ih_l1 f4 [256, 64]
00000000: 6de0 153d eb27 8bbc 07f4 d8bd 49a7 883d
00000010: 282c 123e 38d3 a23c b73a be3c 6692 a33e
00000020: 4c91 97bd 06a6 4fbc eac0 3c3e 6192 b2bd
00000030: 8bb2 2fbd 00ec 9dbd b6d3 86bd 7e2b c7bd
00000040: 40f0 1fbc 4dbe 8d3c ab47 c03c 1b64 e43c
00000050: cc8a ecbd ad70 bd3d 4a1b 8ebd 3b7f fcbd
00000060: b384 973d c812 243d 1533 12bd eae8 bcbd
00000070: 81c6 d4bc 62c5 c03c fe05 2e3d 0a69 0f3e
00000080: a240 1e3e 8906 293d 40a6 aa3d fd33 7cbd
00000090: 8a1a 7b3d f15d 7dbe 9b2a 19be 01e8 a93d
000000a0: 5db4 e83b aa01 bbbd b0a8 08be 09fd 403d
000000b0: b38f b73d 690f 253d bd85 1dbc 78b0 973b
000000c0: e54e 763e 6102 be3d e62f b43d 261b 45bc
000000d0: c562 1b3d a995 e4bd a52a 71bc 4d90 b33c
000000e0: 1be9 983d c580 d4bd 16ea cf3d 352f 923d
000000f0: 416e 74bd 84d6 573d c949 b03d 8652 16bc
00000100: 2e4a 12bc f341 153e 9b07 46bd 8217 9bbc
00000110: deed 773d 4c47 f1bd 7a82 263e 2b12 b43c
00000120: 6310 013c 682e c139 7368 113e 6779 3cbe
00000130: 1148 a0bd 967a f83d 17d9 243e a9e1 3ebc
00000140: 9e54 2e3e d637 eb3d f2a7 133d db21 9b3d
00000150: 1ef4 41bc 1e4b 2dbc 1d59 483d 0372 073d
00000160: e3af 6a3d c4d3 853d b68f 873c ab01 903d
00000170: b27e b63c 04aa 03bd f6e8 03be 4c1a 143e
00000180: 0cba e8bd 6243 f4ba f476 08be 2e44 90bd
00000190: 5773 0abe ba97 bd3c 2598 873d 3130 b83d
000001a0: 3336 09bd f978 1ebe a385 b43d 762e 23be
000001b0: c127 35bd e365 80bd cffd 07bd 537b 443c
000001c0: bd68 d0bd 90e6 8c3d d94a 4c3d e574 03be
000001d0: 68d2 58bd f7f5 0b3e eb2b 083e 90c6 0fbd
000001e0: 68c1 45bd b290 60bc cb2a 20bd 13ee 3b3d
000001f0: 9e3a 4dbd d520 8ebd c9bc d4b9 eeee 4cbd
00000200: 556f f7bd d33e b6bc fb81 673d 9908 92bd
00000210: e17a 08bc 7234 2bbd 2489 723d 85e0 e63c
00000220: 8fd4 1f3d f2a1 4dbd 2b05 cfbd 4b83 0d3e
00000230: db63 50be 6bf7 623d 2e67 a13d 704e 57bd
00000240: 5bfe 3bbe a214 833c 82d1 283d 9918 e13d
00000250: 1067 ff3d 5640 82bd c295 6a3d 29ed 133d
00000260: d934 e43d 4b54 ae3d eefe b23d 7554 34be
00000270: 8daa 843c c012 ecbd 0ac8 b53d 0605 a5bd
00000280: e8b0 f63d d792 a83d 5c43 8c3d a686 1b3d
00000290: a763 5f3e add2 17be fe59 bcbd d5aa fe3c
000002a0: cd08 7e3d 7369 86bd 3b9f d13d 0b83 dd3d
000002b0: 74dc 4a3d 9271 df3d 5400 ffbc a812 43bd
000002c0: d994 96bd c5ff a4bc 9a08 5a3d eb47 ed3d
000002d0: 7e6f efbc 5041 fdbd a090 033d e242 cebc
000002e0: 43e2 dcbc b851 6a3c d0a3 9b3c 0909 8fbd
000002f0: 01a3 b7bc e4aa 04bd 8658 44bd 943b c13d
00000300: d5b9 f13d 8936 e2bd ab5c 8dbe 90e7 dcbc
00000310: 922d 6b3c 6d8e 6a3c ebcb a1bd f17d af3e
00000320: a35f f93b b8b7 68bd dab9 dd3d 7dcb 2bbd
00000330: 1cf6 403d df6a 663d 7bbd 673e f12b 893d
00000340: 91c5 92bd 99b8 68be 46ea 163e d279 1f3d
00000350: 8729 24be 8a0b 2cbd 1f3b fcbd fe7d 083d
00000360: efff 7bbb 5557 c6bc d2d6 543d 281f bc3d
00000370: 11b4 4bbd 8df3 bb3c 5bdf 073d 005e 93bd
00000380: 02f4 1bbd ef75 35be acbb 1ebd c95d b73d
00000390: 1654 07bd fefd a6be c2a1 07be 3c2e d13d
000003a0: 5ab7 253e 33e1 413c e925 5bbd b7a1 5c3d
000003b0: 7425 19bd 5fc3 2e3d d1a4 1fbd 394f 56be
000003c0: 312d 8b3e a07b c63d 34a7 9d3d ff57 c5bc
000003d0: 34d8 8f3d 199f bcbd 69b8 00be 85c0 0c3d
000003e0: aea3 313e 58a3 c53b 8846 f73d 191d f3bc
000003f0: 756f 2fbd 0a1c a8bc 7bd6 c13d 8ff5 e53d
0.036590982 -0.016986808 -0.105934195 0.06672532 0.14274657 0.019876108 0.023221357 0.3194763
-0.0740076 -0.01267386 0.18432966 -0.08719326 -0.04289488 -0.07711029 -0.065833494 -0.09725092
-0.00976187 0.017302657 0.023471674 0.027879765 -0.11549911 0.09250007 -0.06938799 -0.12328955
0.07398357 0.040056974 -0.035693247 -0.09224112 -0.02597356 0.02353162 0.042486183 0.14004913
0.15454343 0.041265998 0.08332491 -0.061573017 0.061304606 -0.24742867 -0.14957659 0.08296204
0.007101579 -0.09131177 -0.13345599 0.047116313 0.08962955 0.0402979 -0.009614405 0.004629191
0.24053533 0.092777975 0.087981984 -0.0120303985 0.03793599 -0.11161358 -0.01471964 0.021919394
0.07466336 -0.10376123 0.1015207 0.0713791 -0.05967546 0.052694812 0.086078234 -0.009174949
-0.008928819 0.14575939 -0.048347097 -0.018932108 0.060529582 -0.11781177 0.1626071 0.02198132
0.007877442 0.00036846404 0.142 -0.18405686 -0.078262456 0.121327564 0.16098438 -0.011650481
0.17024466 0.11485259 0.036048837 0.07574817 -0.011837987 -0.010576991 0.04891311 0.033067714
0.057296645 0.06534532 0.016548019 0.07031568 0.02227721 -0.03214456 -0.12881836 0.14463156
-0.113636106 -0.0018635804 -0.13326627 -0.07044254 -0.13520561 0.023143638 0.06620816 0.08993567
-0.033498954 -0.15475835 0.08814552 -0.15935692 -0.044227365 -0.06269433 -0.033201035 0.011992293
-0.10176227 0.06879914 0.049876068 -0.1283756 -0.052935034 0.13668047 0.13298003 -0.035101473
-0.04828015 -0.013706373 -0.03910331 0.045881342 -0.05010473 -0.06939856 -0.00040576447 -0.05003255
-0.12081782 -0.022246754 0.056520443 -0.07130546 -0.008330078 -0.041798063 0.05921282 0.028183231
0.03902107 -0.05020327 -0.101084076 0.13819616 -0.20350592 0.055411737 0.07881008 -0.05256504
-0.18358748 0.01600105 0.041215427 0.1099102 0.124708295 -0.06359927 0.057271726 0.036114845
0.111428924 0.08512171 0.0874003 -0.17610343 0.016194606 -0.11527014 0.08876045 -0.08057599
0.12045461 0.082311325 0.06848785 0.037970208 0.21815358 -0.1482646 -0.09196852 0.031087318
0.06202011 -0.065630816 0.10235449 0.1081601 0.049526647 0.10910334 -0.031128086 -0.047625214
-0.07352609 -0.020141492 0.05323086 0.11585983 -0.029227968 -0.12365973 0.032120347 -0.025178377
-0.026963359 0.01430171 0.01899901 -0.06984145 -0.022416594 -0.032389536 -0.047935985 0.09435192
0.11803023 -0.11045558 -0.27609763 -0.026965886 0.0143541265 0.0143161835 -0.079002224 0.34275773
0.0076102777 -0.056815833 0.10826464 -0.04194211 0.04710971 0.056254264 0.22630875 0.06697834
-0.07166589 -0.22726668 0.14737806 0.038934536 -0.16031466 -0.042003192 -0.12315964 0.03332328
-0.003845211 -0.024211565 0.05196268 0.0918563 -0.04973227 0.022943282 0.033171993 -0.071956635
-0.0380745 -0.1772077 -0.038753197 0.08953435 -0.033039175 -0.32615656 -0.132453 0.10213897
0.16183224 0.011833477 -0.05350295 0.05386516 -0.037389234 0.04266679 -0.03897554 -0.20928659
0.27182916 0.09691548 0.07697907 -0.024089811 0.07023659 -0.09210033 -0.12570347 0.03436329
0.17347595 0.006031435 0.12074 -0.02967696 -0.042830903 -0.020521183 0.09464737 0.11228477

lstm.weight_hh_l1 f4 [256, 64]
00000000: 73a6 3b3d 8646 1d3e ba52 24bc c6b1 c6bd
00000010: e4b3 713d 8bf6 67bc f5a2 0cbe 0b60 e13d
00000020: 62cf e53d fed8 1a3e 4ca5 303d c12d 2cbd
00000030: 87b4 44bd 57b4 d9bc b839 97bc 8617 e43d
00000040: 7d24 5abb bf61 d2bd 2927 bb3d a843 883d
00000050: f0e2 c93d abeb 323d 372b 45bd 900e ff3d
00000060: 63ea adbc 4e29 d6bd aaec 1b3d 6421 de3d
00000070: 6c28 0abd 5a69 9dbd 7ab6 b1bd ea50 a03c
00000080: fe48 11be 1d12 4c3d 06cb 6fbd fd9a 8b3d
00000090: 41b0 323d f233 0bbe 5b8f 53bb d56e 3e3c
000000a0: 74d5 d2bd 5282 923d 9355 1abd 1bba 62bd
000000b0: e23f 8b3d d376 66bc 4cf4 113e 2d47 483a
000000c0: b006 00bd 08c0 bdbd fcc1 13be 91f0 f5bd
000000d0: c336 8ebc 0165 fa3d 4f5a c7bd 95be 3f3d
000000e0: e12a 51be 5014 efbd 13cc 44bc 6fd4 f7bc
000000f0: 4ccd 30bd 37f2 64bc 608b dbbc 19c3 593d
00000100: 8931 aebd 41d7 a2bd d8bf ccbd f9e5 bbbd
00000110: 909d b2bd 97c7 e5ba 26cd 163e 5aca 0d3e
00000120: ed13 eabd f537 3c3e df30 c23d 114c c73d
00000130: 76cb cdbc eff4 bbbc 2925 0bbe 3c67 f03d
00000140: 5c87 e73d 73f0 353d 1ad4 bfbb ea87 3b3c
00000150: 7a6b 0a3c 12ab 08bb b4f4 f4bc a041 02be
00000160: 8be8 a1bd 2662 b83d 9b5f f7bd 83c6 5abc
00000170: db10 22be 4d1b f7bd 5456 34be ec88 1e3d
00000180: baad 33be 459e 5c3d 653f 1a3e f1d6 0f3e
00000190: 7653 6a3d cea6 163d 8d3f 3dbd 2e52 e5bd
000001a0: 81b2 81bc f22c 093c c36e 3fbd fa27 19be
000001b0: ccef db3c e13e 153d b5d1 813b a310 123e
000001c0: 3a7a 34b8 f11f f0bd a011 a3bd 507d a3bd
000001d0: 584a d13d f3a2 0d3e 5722 bbbd df88 443c
000001e0: 5ef1 763d 4be9 3fbe 662a e53d da45 9e3d
000001f0: a373 b23d cb28 253e 4f3b 86bd 4d50 ae3d
00000200: 180d 08be ccb5 a23c 4e0e 20be b472 153e
00000210: c57d 00be 3ead 4fbd 831c b93d 58cf 083e
00000220: 9e42 cbbd 55b0 163e 1ecb 08bd cc5f 85bd
00000230: b4ae 2ebb e427 2f3e 3681 0fbe 4b66 2cbe
00000240: cf29 113e b369 833d 057c 3c3c 7e4d 83bc
00000250: 618d 91bc 8927 683c c9e8 59bc a03e 83bd
00000260: 7669 f2bc c6b0 cb3c 31c8 543d b5f3 b0bb
00000270: c242 2abe 7dfb c5bd 2a71 23be 1734 93bd
00000280: e59b 2cbd 5a87 023e 6166 213e 5ae1 ce3c
00000290: 8c62 6cbc 14c9 0c3c ceae 33be 2964 79bd
000002a0: e6bc 0ebd a8bf 2dbe 5250 373e b1c6 aebb
000002b0: 2c75 1c3e 3f45 0c3d 003b 06be 80bb fe3c
000002c0: 7c9b eebc 667b 733c a558 1a3e e9ec dbbd
000002d0: 54c9 04bd 82bb 0b3d 9786 23bc c230 38bc
000002e0: 1cce ba3c 358d c2bc 7915 6b3d 5cdc 943d
000002f0: 9c74 333c bdfc 31bd 3201 1f3c d7ec 1f3e
00000300: 3fcd 293d 8469 053e 14c2 de3c 97e5 43be
00000310: 9697 693e 5d6f 94bc 973a 79bc 7124 5bbe
00000320: 9787 9d3d f072 183e 754c c7bc 98dd 9dbd
00000330: 5289 81bd f2ba f6bd a709 573e 7bbb f2bb
00000340: 4921 23be 9b76 953d 570c e5bc bdbc e6bd
00000350: e2e4 843d 1698 c03d cb94 893d 11e3 aebc
00000360: d3c2 5cbd 4526 43bd f308 513e 7fa6 bf3d
00000370: 8172 83bd 92a9 fabc 6c40 8d3c 92df 14be
00000380: 44d9 e439 b174 26bc 55c4 b83d 1570 9c3d
00000390: baa8 5bbc 2b95 133d 1f2e 243e 3a5f 96bb
000003a0: 1e99 5dbd dbc1 203e ccd6 87bd ff9c 70bd
000003b0: e85f e8bd 427b b1bd 1504 d03d 20cf 7c3d
000003c0: 4df8 8cbd ab63 ddbc f6e3 423d 0355 ea3c
000003d0: 6497 19bd dddc f9bd 0f12 a3bd f254 15bd
000003e0: c4a1 42bd 2984 463e 129b d13d 87aa 4dbe
000003f0: e762 70bd 4789 c23a 0836 46bd 2e84 36bb
0.045813035 0.15358934 -0.010029489 -0.09701876 0.059009448 -0.0141579015 -0.13734038 0.11004647
0.11221196 0.15121838 0.04312639 -0.04203582 -0.048023727 -0.02657525 -0.01846014 0.11137299
-0.003328591 -0.1027255 0.091383286 0.066535294 0.09857738 0.04368178 -0.048136916 0.124539495
-0.021229928 -0.10457097 0.038067497 0.108462125 -0.033729956 -0.0768611 -0.08677383 0.019569833
-0.14188 0.04982196 -0.058543228 0.06816671 0.04362512 -0.13594034 -0.0032281491 0.011623104
-0.10294619 0.07153763 -0.037679266 -0.055353265 0.06799294 -0.014066416 0.14253348 0.00076400005
-0.031256378 -0.09265143 -0.14429468 -0.12008775 -0.017360097 0.12226296 -0.09734022 0.046812613
-0.20426513 -0.11673796 -0.012011546 -0.030252663 -0.043164536 -0.013973764 -0.026799858 0.053164575
-0.08505542 -0.07951213 -0.09997529 -0.09174723 -0.08721459 -0.0017530796 0.14726695 0.13846722
-0.11429582 0.18380721 0.09481978 0.097313054 -0.025121432 -0.022943942 -0.13588394 0.117384404
0.113051146 0.044418763 -0.005854142 0.011445979 0.008448476 -0.002085392 -0.02990184 -0.12720346
-0.07905682 0.09003095 -0.12078782 -0.013352993 -0.15826742 -0.12065754 -0.17611057 0.038704798
-0.1754674 0.053861875 0.15063246 0.14046837 0.0572085 0.03678017 -0.046203185 -0.11197315
-0.015832188 0.008372532 -0.04673649 -0.14956656 0.026847742 0.03643692 0.0039617666 0.14264159
-4.3029177e-05 -0.11724842 -0.07962346 -0.07982886 0.10219258 0.13831691 -0.09137409 0.011995523
0.06028878 -0.18741338 0.111897275 0.07728167 0.08713462 0.16128843 -0.06554281 0.0851141
-0.13286245 0.019862078 -0.15630457 0.14594537 -0.12547977 -0.050702326 0.09038641 0.13360345
-0.099248156 0.14715703 -0.033396833 -0.065124124 -0.0026654424 0.17105061 -0.14014134 -0.16835897
0.14176105 0.06416645 0.011504178 -0.016028162 -0.01776761 0.014169582 -0.013300129 -0.06408429
-0.029591303 0.024864566 0.05194873 -0.005400146 -0.16627029 -0.09667108 -0.15961137 -0.0718767
-0.04214086 0.12746945 0.1576171 0.02525394 -0.014427792 0.008592863 -0.17547151 -0.060886536
-0.034848116 -0.16967642 0.17901734 -0.0053337445 0.15279073 0.034245726 -0.13108444 0.031095266
-0.029126875 0.014860963 0.15072878 -0.107385464 -0.032418564 0.03411437 -0.009980819 -0.0112420935
0.022803359 -0.023748973 0.057393525 0.07268593 0.010953095 -0.04345392 0.009704875 0.15617691
0.041455504 0.13028532 0.027192153 -0.1913055 0.22811732 -0.018119508 -0.015211723 -0.2140062
0.07691877 0.14887595 -0.02432845 -0.07708281 -0.0632502 -0.12047376 0.20999776 -0.0074076033
-0.15930666 0.07298013 -0.027959986 -0.11266468 0.064889684 0.09404008 0.06717833 -0.021348508
-0.053896736 -0.04764392 0.2041357 0.093579285 -0.06418324 -0.030598436 0.017242633 -0.1453841
0.00043649424 -0.010159657 0.09021822 0.076385655 -0.013406927 0.03603093 0.16033219 -0.0045889886
-0.054101102 0.1569895 -0.06632766 -0.058743473 -0.11346418 -0.08666088 0.101570286 0.061720967
-0.06883297 -0.027025064 0.04758068 0.02860499 -0.037497893 -0.122003295 -0.07962429 -0.036457963
-0.047517553 0.19386353 0.102346554 -0.20084582 -0.05868807 0.0014841937 -0.048391372 -0.0027849781

lstm.bias_ih_l1 f4 [256]
00000000: 2c2a b03a 0474 4dbe 1d8a 0dbe 968e 99bd
00000010: cbd3 d73d 0e8b ef3d 5c66 35bb 82aa b0bd
00000020: 03fb 983c fe4f 8bbd 0797 dabb b424 cc3c
00000030: f2ab 373d 7149 983a 1dc9 b9bd a7d6 063d
00000040: 917b 7b3d dd30 00be ed39 b73d 8940 b8bc
00000050: 0755 a2be d380 153d d91a efbd 17ed 45bd
00000060: dadb 4bbd 7782 82be 33e7 f3bd 50ad 12be
00000070: 80d0 56bd 1824 31be a1d9 9f3c 4f18 f5bd
00000080: 3424 b13d 1ab4 da3d 8d34 0e3c 4b07 e43c
00000090: c68a 45be 10f1 00be e960 663d 4ab3 ccbd
000000a0: a230 263d 7d5f f4bd ae67 493d 3658 f2bd
000000b0: 3bd6 abbe fad6 08be 3130 5fbd 9476 5dbd
000000c0: 29e0 13be 1d94 e93b a003 80bd e591 11be
000000d0: 7a73 65bc 45a7 9abd 52c9 4abe f70b c83d
000000e0: e459 05be 2ee3 13bc 2527 8abe e5bc 9a3c
000000f0: a9a0 c2bd d257 b8bd 070b 97bd 2855 98bc
00000100: e463 82bd 00e0 5bbe 8545 63bd 8cf6 4dbd
00000110: 6947 13be 8749 8dbb 9807 b1bd ca13 04be
00000120: e505 a7bd a274 363d 1dfd 83bc 53b7 c9bd
00000130: 8a15 17be 965c 2b3d a88f b8bd d29a ba3c
00000140: 6dd2 dcbd 3fc0 fabc 673d 8e3d 2f2d 193d
00000150: 5df6 04be 7271 c3bc ce67 b9bd 1da1 49bd
00000160: 006d bbbd 726d 75be 9d5c 27be 6ace 003b
00000170: 6bfb 7a3d c9ee 223d acea a5bd 7663 13be
00000180: 4067 02be d9b5 f3bb 314a f5bc 3c01 503d
00000190: 85ea a8bd d318 553c 0512 573d 9248 393d
000001a0: e210 b7bc 62d4 233d 260e 14be 38e6 103d
000001b0: fde5 52be 73c9 fd3c 3713 5bbe b140 06be
000001c0: aad6 a5bd b91a a4bd ea32 f3bd 7e53 4abd
000001d0: a246 39ba 54cf 723c 9291 013d e3cf 973d
000001e0: 1d10 46bd dce7 1cbc 9a04 c1bd 8476 853c
000001f0: 1baa 0e3c 21e8 983d e1c5 093d af77 6e3d
00000200: 1dde 87bd 0f4d aebd e53b d23d 3fcd 3b3d
00000210: 5d31 683c 2e59 963d a435 d4bd d5a2 8c3d
00000220: 3b22 b63d 3576 a2bd 9117 3e3d 24cd 733c
00000230: 2e8a 9c3d 022b 6abd a1fa a9bc be2d 72bc
00000240: f499 7fbd 58ff c93c bfe5 b03d cecf 923d
00000250: fcab 993c 97cc 8b3d 209a e13d fd3b e53d
00000260: 2843 2abd 7463 513d ee9f 80bd bd6b abbc
00000270: 1d47 2f3d 3b7d 70bd 173a b53d 49ef 7dbb
00000280: 3465 b53d 7967 5cbd 7420 bfbd 7580 1dbe
00000290: b8c1 d53c f76f a93c fd0f e03d 610f a93d
000002a0: 1ff4 81bb b25c 7c3d 8ea8 4f3c 2a8f e1bb
000002b0: 6a04 76bc 5916 adbb a456 083d 2798 62bd
000002c0: 61a1 e53b 4e1e 083d 090a 75bd cb2e 743d
000002d0: 2df0 1b3d a329 b93a ecf4 f5bc 61e0 9fbd
000002e0: 0a75 a73d 27ea 49bc 8f2c 40bd 952a 43bd
000002f0: 1514 553d ecb1 bebd fe03 ac3d e16e 4abd
00000300: 8878 73bd 03f5 19be f2ca 563d c860 35be
00000310: efa3 93bd 0d0a cbbc bd5b 2fbe ce61 04be
00000320: bd81 fbbd 95fb 2f3d f373 203d 7a6c 8abd
00000330: 8ed3 41bd 42d3 113d 7187 cebc b1c3 1f3d
00000340: 4d95 fe3c a750 65bd d18b ebbc 0a6a f0bc
00000350: ff4d a6be 6952 8a3d 0259 13be 3a2b 6cbe
00000360: 389d 84bd 5b3c 2abe 9cf3 19be ab7e e3bd
00000370: 7af9 893d 1e73 64bd 7cfe 3e3d 7cd7 45be
00000380: 97ab 7e3d 55ae ea3d eb88 dfbc 94e8 89bd
00000390: a2d7 cfbd fe37 38be 1380 0bbe c6a4 b9bd
000003a0: 08f9 22be 1aa9 2cbd e4c3 c03c ea38 f2bd
000003b0: cec2 6fbe dd6f 06be ef21 b3bc 9a3e 7a3d
000003c0: c5a8 65be 083e 903b b631 33bd 782b bdbd
000003d0: e455 3dbd 0f1a 1e3c 3d91 6dbc f1dc 8a3d
000003e0: c54d 503c 8fd6 983d 89b4 5fbe f7e3 b5bc
000003f0: 10c8 d4bd 9755 b0bd f441 1abd 8918 3abd
0.0013440303 -0.20063788 -0.13822217 -0.07497899 0.10538443 0.116964445 -0.002767942 -0.08626272
0.01867438 -0.06802367 -0.006670836 0.024919845 0.044841714 0.0011618567 -0.090715624 0.032919552
0.06139714 -0.1251864 0.08946595 -0.02249171 -0.31705496 0.03649981 -0.11675043 -0.04832181
-0.049770214 -0.25490162 -0.11909332 -0.14323926 -0.052444935 -0.17298925 0.019512953 -0.11967527
0.08649483 0.10678883 0.008679521 0.027835509 -0.19291219 -0.12591958 0.056244764 -0.09995134
0.040573724 -0.119322754 0.049171142 -0.11833231 -0.33561882 -0.13363257 -0.05448932 -0.054068163
-0.14440979 0.007128252 -0.062506914 -0.1421581 -0.014004583 -0.075514354 -0.1980336 0.09767907
-0.13022572 -0.009026332 -0.2698299 0.0188889 -0.095033 -0.090011254 -0.0737515 -0.018595293
-0.06366709 -0.21472168 -0.05548622 -0.050283954 -0.1438271 -0.0043117437 -0.086440265 -0.12898174
-0.08155421 0.044544823 -0.016111905 -0.098494194 -0.1475431 0.041836344 -0.09011775 0.022778902
-0.10782323 -0.030609248 0.06945305 0.037396606 -0.12984605 -0.023857806 -0.09053002 -0.049225915
-0.091516495 -0.23967531 -0.16343923 0.0019654282 0.061274927 0.039778505 -0.08101401 -0.1439341
-0.12734699 -0.0074374494 -0.029942604 0.050782427 -0.08247856 0.013006407 0.05250742 0.045235224
-0.022346918 0.039997466 -0.14458522 0.035375804 -0.20595546 0.030979848 -0.21394049 -0.13110615
-0.080975845 -0.080129094 -0.118749455 -0.04939603 -0.0007067715 0.014819939 0.031632967 0.07412698
-0.04835521 -0.009576764 -0.09424706 0.016291864 0.0087075485 0.0746615 0.033635978 0.058219608
-0.066341616 -0.085107915 0.1026533 0.045850035 0.014171925 0.073412284 -0.10361794 0.06866995
0.08893248 -0.079327025 0.046409193 0.014880452 0.07643543 -0.05716992 -0.020749392 -0.014781414
-0.06240268 0.02465789 0.086375706 0.07168542 0.018758766 0.06826132 0.11015725 0.111930825
-0.04156795 0.051120237 -0.06280504 -0.020925397 0.04279243 -0.05871318 0.088489704 -0.0038747361
0.088571936 -0.053809617 -0.09332362 -0.15381034 0.026093349 0.020683272 0.109405495 0.082548864
-0.003965869 0.06161184 0.012674464 -0.0068835216 -0.015015701 -0.005282205 0.033285752 -0.055320885
0.0070077633 0.033232026 -0.059824023 0.059614938 0.038070846 0.0014126789 -0.030024014 -0.07806469
0.0817662 -0.012323893 -0.046917494 -0.04764803 0.052021105 -0.0931128 0.08399199 -0.04942215
-0.05944112 -0.15034871 0.052439637 -0.177127 -0.07209002 -0.024785066 -0.17124839 -0.12927935
-0.12280605 0.042964537 0.039173078 -0.067589715 -0.047320895 0.03560186 -0.025211068 0.039004985
0.031077052 -0.05598512 -0.028753193 -0.029347438 -0.3248138 0.06754 -0.14389423 -0.23063365
-0.064752996 -0.16624586 -0.15034336 -0.111081444 0.06737037 -0.055773847 0.046629414 -0.19320482
0.06217536 0.114590324 -0.027286967 -0.06733814 -0.101485506 -0.1799011 -0.13623075 -0.09064631
-0.1591531 -0.042153455 0.023530908 -0.11827262 -0.23414156 -0.1312861 -0.021866767 0.061094858
-0.22427662 0.004401926 -0.04374858 -0.09236807 -0.04622449 0.009649768 -0.01449996 0.067804225
0.012713854 0.07462799 -0.21846212 -0.022203429 -0.103897214 -0.08610075 -0.037660554 -0.045433555
