Final/Jaison/Main_Code/Model/LSTM/lstm_2025-06-20.pt (torch, 215145 bytes, 9 tensors)

lstm.weight_ih_l0 f4 [256, 11]
-0.06062779 -0.14005888 -0.025109988 0.043942295 0.065476246 0.031102883 0.048898216 -0.038589746
-0.034468193 -0.13913676 -0.049366754 0.018564671 0.16065821 -0.030410899 -0.06120581 -0.4036035
0.24226782 0.058317114 -0.16576812 0.8230216 0.29952988 0.12164285 0.4218913 -0.189685
-0.18348299 -0.12545995 0.38908297 -0.12888856 -0.16476034 -0.1733384 0.26667702 -0.052678525
-0.015325673 0.39714822 -0.10604788 -0.10724885 -0.19730602 0.11313658 -0.20058553 -0.085079096
-0.0614427 -0.0019056003 -0.23639381 -0.17483513 -0.065363854 -0.08442902 -0.14936307 -0.11218565
-0.1868077 -0.20432647 -0.10479544 -0.13168709 -0.05429119 -0.21624301 -0.22808222 0.10879117
-0.119813405 -0.019837981 -0.049623776 -0.117015466 -0.084362626 -0.055751137 -0.07766883 -0.20786399
-0.060807765 -0.21699205 0.094489485 -0.0931017 0.096153624 0.058637947 -0.04922895 0.027161628
0.08038768 0.010509248 -0.49812177 -0.041768108 -0.03432526 -0.0753543 -0.19807647 -0.1445064
-0.21168013 -0.34171164 -0.26126143 -0.0035433932 -0.12287177 0.30995196 -0.255713 -0.08506753
-0.04769619 0.12734109 0.045561433 -0.051787414 -0.4089305 -0.21826737 0.13096017 0.0720498
0.37501675 0.06739188 0.030938204 -0.09270096 0.054641698 -0.10584618 0.05912429 -0.07544044
-0.013204847 -0.021733059 -0.11133309 -0.057231158 0.05648675 -0.14519471 -0.030237423 0.08277715
0.038080107 -0.041278973 0.10638983 -0.019349327 0.067454174 0.057930093 0.057538666 -0.040264953
0.049906217 -0.0064060786 0.009577839 -0.022892203 0.044750925 0.08859198 0.112202786 -0.044831827
-0.05703738 -0.05749449 -0.0740418 -0.08790169 -0.030172026 -0.16875908 -0.0011987555 -0.034517262
-0.10601155 -0.13427879 -0.13980189 0.051071715 0.07685147 -0.045074012 -0.074052714 -0.0080144545
-0.03197892 -0.027941203 -0.05945294 -0.15885058 -0.13140686 0.067618735 -0.042561866 -0.12158372
-0.25172463 -0.11949794 -0.22507054 -0.023709869 0.06644472 0.111424744 -0.6756621 -0.039638672
-0.06440621 0.10876509 0.01929282 0.061216544 -0.0779693 -0.121515915 0.0027435268 -0.022039428
0.05658757 -0.03149785 0.06712177 0.11324333 0.16866025 0.030567007 0.09051679 0.027653093
0.09590698 0.04101831 0.08518377 0.057138775 0.031917486 0.013625764 0.0043661706 -0.07495629
0.024498044 -0.09029228 -0.09567357 -0.07646512 0.16728388 0.14570786 -0.08253212 0.059032466
0.08485404 0.18924984 0.066737056 0.0958916 -0.09557245 0.03849632 -0.1555812 0.08882311
0.15912765 0.13895667 -0.34342793 0.072786234 0.13604912 -0.03362099 -0.07253219 0.051931698
-0.16498491 -0.13389058 0.14193098 0.14113376 0.1344622 -0.58320785 0.1307803 -0.030477175
-0.011607545 0.17724377 0.15003024 0.0818474 0.1312987 0.06041917 0.07358924 0.058414806
-0.1866764 0.025093721 0.1452206 -0.033807907 -0.19850132 -0.0227449 -0.16363989 -0.13084817
-0.09924152 0.053924 0.039835986 -0.16555841 0.1043856 0.04446218 -0.030363953 -0.15229169
0.12069318 -0.072049834 -0.10672184 0.13879767 0.022598706 -0.046874326 -0.31232876 0.07035669
0.14115852 0.17009123 -0.43837577 -0.029571528 -0.020809658 0.10824674 -0.16345127 8.182156e-05
00000000: d854 78bd 986b 0fbe 76b3 cdbc d6fc 333d
00000010: 6918 863d 79cb fe3c 7f49 483d 4810 1ebd
00000020: 852e 0dbd de79 0ebe cb34 4abd f014 983c
00000030: 9683 243e 4720 f9bc f2b2 7abd 1ea5 cebe
00000040: 0e15 783e eddd 6e3d 1ebf 29be 8bb1 523f
00000050: fb5b 993e e31f f93d 2302 d83e c93c 42be
00000060: f7e2 3bbe 9378 00be e235 c73e 5dfb 03be
00000070: efb6 28be 9f7f 31be e489 883e 70c5 57bd
00000080: 8818 7bbc 0357 cb3e a22f d9bd 49a5 dbbd
00000090: 970a 4abe 27b4 e73d 4b66 4dbe f33d aebd
000000a0: 57ab 7bbd 56c5 f9ba 3811 72be fb07 33be
000000b0: 7cdd 85bd 1fe9 acbd a2f2 18be 97c1 e5bd
000000c0: 854a 3fbe f53a 51be fe9e d6bd fbd8 06be
000000d0: 7060 5ebd cf6e 5dbe 638e 69be e8cd de3d
000000e0: bb60 f5bd 4383 a2bc 4d42 4bbd cea5 efbd
000000f0: 50c6 acbd 4e5b 64bd d610 9fbd 4cda 54be
00000100: 9011 79bd 2a33 5ebe b483 c13d 1bac bebd
00000110: 31ec c43d 582e 703d 4ca4 49bd 1082 de3c
00000120: 4ca2 a43d fb2e 2c3c d109 ffbe 0915 2bbd
00000130: a598 0cbd 5b53 9abd 8fd4 4abe 7cf9 13be
00000140: adc2 58be d4f4 aebe 0fc4 85be 4638 68bb
00000150: 32a4 fbbd 06b2 9e3e d0ec 82be e337 aebd
00000160: 155d 43bd b465 023e a09e 3a3d 0a1f 54bd
00000170: 575f d1be 7b81 5fbe 6c1a 063e d88e 933d
00000180: 3202 c03e c104 8a3d 1e72 fd3c 00da bdbd
00000190: f9cf 5f3d e2c5 d8bd 502c 723d 8480 9abd
000001a0: 2559 58bc 8709 b2bc 9a02 e4bd 386b 6abd
000001b0: a65e 673d ecad 14be 79b4 f7bc 1187 a93d
000001c0: e3f9 1b3d 2414 29bd e9e2 d93d 7b82 9ebc
000001d0: 6a25 8a3d 1b48 6d3d aaad 6b3d ddec 24bd
000001e0: 766a 4c3d 15ea d1bb 5eec 1c3c 6e88 bbbc
000001f0: bf4c 373d b66f b53d 93ca e53d 94a1 37bd
00000200: 07a0 69bd 587f 6bbd 3aa3 97bd cd05 b4bd
00000210: 532b f7bc 2ecf 2cbe 8f1f 9dba f961 0dbd
00000220: 951c d9bd 6180 09be 3a28 0fbe 9330 513d
00000230: 4e64 9d3d 879f 38bd f3a8 97bd 0f4f 03bc
00000240: 54fc 02bd f3e4 e4bc ed84 73bd baa9 22be
00000250: 858f 06be b17b 8a3d 5a55 2ebd e300 f9bd
00000260: 0de2 80be 56bb f4bd e478 66be 333b c2bc
00000270: 2b14 883d a832 e43d 31f8 2cbf 295c 22bd
00000280: 67e7 83bd 3bc0 de3d fa0b 9e3c 33be 7a3d
00000290: 5eae 9fbd 56dd f8bd becc 333b 088c b4bc
000002a0: 5ec8 673d e403 01bd 2377 893d 1eec e73d
000002b0: 46b5 2c3e a967 fa3c de60 b93d bd88 e23c
000002c0: e16a c43d d102 283d d474 ae3d 590a 6a3d
000002d0: e9bb 023d 993e 5f3c 1812 8f3b af82 99bd
000002e0: 1fb0 c83c 29eb b8bd 81f0 c3bd bf99 9cbd
000002f0: 774c 2b3e 7134 153e 9a06 a9bd 07cc 713d
00000300: f4c7 ad3d b6ca 413e 70ad 883d d162 c43d
00000310: 7dbb c3bd 51ae 1d3d ae50 1fbe e4e8 b53d
00000320: 5cf2 223e a84a 0e3e c9d5 afbe f310 953d
00000330: 7650 0b3e 2ab6 09bd c28b 94bd 55b6 543d
00000340: cef1 28be 9d1a 09be 5b56 113e 5e85 103e
00000350: 75b0 093e 1c4d 15bf 45eb 053e 45ab f9bc
00000360: 932d 3ebc 647f 353e 87a1 193e 9c9f a73d
00000370: 2b73 063e 177a 773d f5b5 963d 5d44 6f3d
00000380: 1928 3fbe 5991 cd3c b5b4 143e 297a 0abd
00000390: ee43 4bbe 8353 babc 3791 27be 10fd 05be
000003a0: 233f cbbd 6adf 5c3d 0f2b 233d 2588 29be
000003b0: 1ec8 d53d fa1d 363d d3bd f8bc 5af2 1bbe
000003c0: fc2d f73d dd8e 93bd fb90 dabd fa20 0e3e
000003d0: ec20 b93c 4bff 3fbd 8ee9 9fbe 2b17 903d
000003e0: dc8b 103e 652c 2e3e ca72 e0be fd3f f2bc
000003f0: 0479 aabc 78b0 dd3d c55f 27be 9e97 ab38

lstm.weight_hh_l0 f4 [256, 64]
0.06511997 0.065537244 -0.032110546 -0.012478344 -0.010329637 -0.103650175 0.1219913 0.13265808
-0.034564205 0.027677745 -0.01308379 -0.14184935 0.07058558 -0.10052892 -0.045370143 0.05231794
-0.04768373 0.13597801 -0.034376297 0.040042106 -0.08771461 -0.054681722 0.02286265 -0.040496152
-0.0130266445 -0.04264249 -0.11831917 0.032885205 -0.015983243 0.117274724 -0.104708225 0.06443999
0.016075421 0.0746154 -0.1518731 0.11359761 0.08936662 0.07050208 -0.102489345 -0.10984566
0.15852773 0.0127173085 0.0497051 0.043007165 -0.063239 -0.08829067 0.023437198 -0.09215306
-0.042807363 -0.089535646 -0.11768128 -0.11310189 -0.16448338 -0.13834667 0.060704038 0.044925064
-0.08418694 -0.014161416 -0.09626144 0.054473285 -0.074208304 0.06916902 0.052444983 0.04493957
-0.029466799 0.4170595 0.17642097 0.09348167 0.12928839 0.04145245 -0.20712668 -0.112411365
-0.30816692 0.07219864 -0.043685574 0.044774648 -0.31854227 0.08666732 0.17389408 0.09423738
0.23046881 0.023312273 -0.02430438 -0.016814914 -0.049411077 0.13287045 0.019112132 -0.06595745
0.014019368 0.016694257 -0.040608738 -0.030215358 -0.23150396 -0.093704686 0.062472776 0.284939
-0.009915598 0.4189908 0.12714832 -0.19242418 0.16683139 -0.0780258 0.09451511 0.089387216
-0.39286268 0.11845722 -0.107240014 -0.09019034 -0.12208218 -0.13622618 0.17517398 0.15406579
-0.030211711 0.04600305 0.09135564 -0.15202978 0.26189235 -0.011312523 -0.20194435 0.3103409
0.32250103 0.25199246 -0.07043263 -0.039282806 -0.06936763 0.085596465 -0.2271833 0.08595725
0.11205498 0.08257672 0.07853277 -0.01805562 -0.050342977 0.071791895 -0.012635075 0.011050052
-0.03322204 -0.12285621 -0.10345029 0.017319467 0.13186795 -0.08683367 -0.13273196 0.00041552528
-0.05307645 0.04450597 -0.042473614 -0.051351566 -0.14485824 -0.07158007 -0.0055181226 -0.14742444
-0.043525066 -0.03509944 0.042831346 0.12271079 -0.08284622 -0.031189827 -0.21684566 0.13054442
-0.040817894 -0.017142491 0.042573303 -0.11134374 -0.026088247 0.05969271 0.042218644 0.088223495
0.21298788 0.09837167 0.14139323 0.12504134 -0.08532929 0.059152793 -0.09904492 -0.1121954
-0.022721108 -0.031693537 -0.08330179 0.08410091 -0.13159366 -0.122622915 0.018028783 0.0073992354
-0.12629142 0.020870518 -0.06757249 0.034231845 -0.07632432 0.095006 0.04172093 -0.10340197
-0.15253979 0.1709065 -0.02774023 0.020196082 0.037532054 0.07847829 0.10444559 -0.16125636
0.030529175 -0.050066426 -0.089874655 -0.0717933 0.013504989 -0.02527317 -0.1899948 -0.1971675
-0.001605055 0.1737978 0.023540596 -0.1410199 -0.014617092 0.07923019 0.071167484 0.040605843
0.06361653 0.19143154 0.028595455 0.2306252 0.013791312 0.06969891 -0.09766526 0.16247359
0.05568038 -0.03392337 -0.04093271 0.15425162 0.012946588 0.042023413 -0.14073886 -0.12530048
0.10228344 0.064313084 -0.033065442 0.14673543 0.024437718 -0.04160807 -0.15166603 -0.09193441
-0.066100776 -0.14139985 0.0320203 -0.041745257 0.07000158 0.013716438 0.24968408 -0.046826765
-0.100437604 -0.11610833 0.0320775 0.20758262 0.008251425 0.08745955 0.024603361 -0.050049376
00000000: 9e5d 853d 6438 863d 5986 03bd f871 4cbc
00000010: a33d 29bc 8b46 d4bd 93d6 f93d 85d7 073e
00000020: 3293 0dbd 70bc e23c 655d 56bc f540 11be
00000030: 2c8f 903d 1be2 cdbd 0bd6 39bd 564b 563d
00000040: 0450 43bd d23d 0b3e 29ce 0cbd 3103 243d
00000050: b8a3 b3bd f1f9 5fbd 744a bb3c 4bdf 25bd
00000060: b56d 55bc e4a9 2ebd 5251 f2bd a3b2 063d
00000070: 4aef 82bc bb2d f03d 4471 d6bd 1df9 833d
00000080: 9ab0 833c f5cf 983d 9f84 1bbe dda5 e83d
00000090: d905 b73d 6563 903d efe5 d1bd c3f6 e0bd
000000a0: 1855 223e 425c 503c 9397 4b3d 4828 303d
000000b0: 7383 81bd bdd1 b4bd 5eff bf3c beba bcbd
000000c0: c656 2fbd 775e b7bd e202 f1bd f7a1 e7bd
000000d0: 556e 28be c0aa 0dbe cca4 783d 5803 383d
000000e0: 346a acbd 4905 68bc b824 c5bd 611f 5f3d
000000f0: 86fa 97bd 7da8 8d3d 8dd0 563d 8e12 383d
00000100: 5b64 f1bc d388 d53e b3a7 343e 5173 bf3d
00000110: 2d64 043e 0bca 293d 0419 54be ee37 e6bd
00000120: 0ec8 9dbe e1dc 933d a5ef 32bd 9f65 373d
00000130: f917 a3be a37e b13d 4a11 323e 87ff c03d
00000140: 0400 6c3e 61f9 be3c fb19 c7bc 6ebf 89bc
00000150: 4563 4abd 310f 083e 0c91 9c3c b314 87bd
00000160: 7eb1 653c 65c2 883c 5955 26bd 3386 f7bc
00000170: 600f 6dbe 3ee8 bfbd 74e3 7f3d 86e3 913e
00000180: 0875 22bc f685 d63e 2b33 023e d80a 45be
00000190: d9d5 2a3e fecb 9fbd 2391 c13d a510 b73d
000001a0: 4c25 c9be b399 f23d a7a0 dbbd b7b5 b8bd
000001b0: 3906 fabd e07e 0bbe cf60 333e 6cc3 1d3e
000001c0: 8d7e f7bc b26d 3c3d aa18 bb3d b2ad 1bbe
000001d0: c116 863e 2958 39bc 80ca 4ebe 01e5 9e3e
000001e0: db1e a53e 2805 813e fc3e 90bd 02e7 20bd
000001f0: 9e10 8ebd 334d af3d bda2 68be 5b0a b03d
00000200: 157d e53d fc1d a93d cad5 a03d 61e9 93bc
00000210: 7034 4ebd a107 933d 5803 4fbc 470b 353c
00000220: d513 08bd 099c fbbd bfdd d3bd 8ee1 8d3c
00000230: 6408 073e dad5 b1bd e3ea 07be dcda d939
00000240: b166 59bd e44b 363d d0f8 2dbd 0556 52bd
00000250: b855 14be 9298 92bd 5ed1 b4bb 6ff6 16be
00000260: 5747 32bd 6ec4 0fbd ec6f 2f3d cb4f fb3d
00000270: 47ab a9bd cf81 ffbc ca0c 5ebe 70ad 053e
00000280: aa30 27bd 696e 8cbc 5861 2e3d 3008 e4bd
00000290: 05b7 d5bc 5880 743d 75ed 2c3d 85ae b43d
000002a0: 7f19 5a3e 1677 c93d 63c9 103e d60a 003e
000002b0: 1fc1 aebd 334a 723d 10d8 cabd b4c6 e5bd
000002c0: 9e21 babc 15d1 01bd 219a aabd 193d ac3d
000002d0: 7dc0 06be b921 fbbd 19b1 933c 4975 f23b
000002e0: 8a52 01be a6f8 aa3c 7263 8abd b136 0c3d
000002f0: ed4f 9cbd 8192 c23d 91e3 2a3d 69c4 d3bd
00000300: 6433 1cbe 1d02 2f3e 7b3f e3bc 4172 a53c
00000310: 36bb 193d 3ab9 a03d 92e7 d53d 6320 25be
00000320: 5218 fa3c 7412 4dbd 3410 b8bd 5e08 93bd
00000330: 0844 5d3c ae09 cfbc ff8d 42be 47e6 49be
00000340: b560 d2ba 0df8 313e 35d8 c03c 8567 10be
00000350: 877c 6fbc 7043 a23d 42c0 913d 5052 263d
00000360: 6249 823d a106 443e 0441 ea3c 0329 6c3e
00000370: f5f4 613c 4dbe 8e3d b904 c8bd 7a5f 263e
00000380: 1c11 643d 3bf3 0abd 0fa9 27bd 23f4 1d3e
00000390: ed1d 543c be20 2c3d d91d 10be c54e 00be
000003a0: fb79 d13d 94b6 833d a16f 07bd d041 163e
000003b0: 9c31 c83c 396d 2abd 574e 1bbe 1c48 bcbd
000003c0: d85f 87bd 1fcb 10be b827 033d 13fd 2abd
000003d0: fd5c 8f3d e9ba 603c 2fad 7f3e 6ccd 3fbd
000003e0: 3bb2 cdbd 34ca edbd b263 033d 8a90 543e
000003f0: fc30 073c fe1d b33d fd8c c93c 9300 4dbd

lstm.bias_ih_l0 f4 [256]
-0.060839698 -0.15361607 0.003994131 -0.038314126 0.007255504 0.008454641 0.005302414 -0.0739344
0.01803056 0.062294908 -0.12139403 0.04673984 -0.06492019 0.015648555 -0.09926161 0.050639044
-0.17123643 -0.13419522 -0.024169445 -0.090292335 -0.11547159 -0.12195157 -0.061459713 -0.009662225
0.023807175 0.027407467 -0.032352444 0.079733185 -0.19562016 -0.20026521 0.027888043 -0.14919905
0.08543718 -0.08886229 -0.11198841 -0.15210529 -0.06654352 -0.02616822 -0.14876026 -0.09526918
-0.10334127 -0.1105734 -0.027350193 0.081384875 -0.025467047 -0.032824777 -0.07229184 -0.25609785
0.117223345 -0.068278424 -0.13832828 0.037791282 -0.09729337 -0.018038401 -0.108940914 0.052666817
0.15307522 0.10410739 -0.079481885 0.0027600722 0.07029576 -0.04587465 -0.021360004 -0.07790199
-0.17188574 -0.1982458 -0.102401845 -0.072451636 0.032302894 -0.0890616 -0.11174432 -0.067223415
0.040984694 0.013982155 0.05216538 -0.01925663 -0.20358793 0.07820109 -0.07834697 -0.09022717
0.04032664 -0.05034758 0.06683412 0.029538184 0.019197857 -0.0026829862 -0.04579963 -0.06318238
0.023847757 0.020857422 0.032954346 0.01019581 -0.026458377 -0.24993724 0.030919796 0.12929876
-0.04517104 -0.05824425 0.0712967 -0.1491391 -0.17891805 0.094890445 0.074957095 -0.03968339
0.10012788 0.026108602 0.08797257 0.057197202 -0.041616224 -0.11263767 0.020871274 -0.08771508
0.04452684 -0.13209112 0.026001105 -0.020172449 -0.0026884456 0.07542507 -0.034775406 0.039119635
0.12723799 -0.12956326 -0.108518995 0.08986432 0.05496895 -0.12816669 -0.12463098 -0.056696262
-0.067418195 0.023405014 0.15072402 0.057822745 0.07348883 0.05150596 0.056535758 0.046952352
-0.026575254 -0.0011993094 -0.08979475 0.034019977 0.056782205 0.06080126 -0.026415383 -0.08807843
-0.05086961 -0.009649429 0.057234325 -0.00037920664 -0.08987186 0.08404666 0.007857684 -0.040448744
-0.014855437 -0.0304969 -0.0021091914 -0.02190711 0.032971736 0.034597035 0.093911335 0.018940186
0.05995556 -0.08336497 0.007712226 -0.030878842 0.07009137 0.03537096 -0.015327871 -0.014013355
0.0003721158 0.11535847 -0.07171874 -0.011713427 0.034417007 -0.00052929483 -0.013651362 -0.06035279
-0.05411606 0.068501756 0.044703502 0.02179146 0.008601674 -0.073154844 0.14917214 0.052476786
-0.05556424 -0.074355386 0.005243553 -0.012640359 0.018444294 0.041485846 -0.07711469 0.04959871
0.024837056 -0.10739775 -0.10873291 0.012557305 -0.1979709 -0.17331763 0.03187669 -0.031811215
-0.11994519 0.0620924 -0.0044182735 0.018311046 -0.14057073 -0.06613818 -0.12061309 -0.13246489
0.024215758 0.012411661 0.006346762 0.03186764 0.0057720197 0.053546894 -0.123784125 -0.08000146
-0.121390685 0.10428962 0.07422105 -0.11531869 -0.09399373 -0.14306149 -0.0032580765 -0.14923766
0.032147907 -0.13954072 -0.0160924 -0.0026938838 -0.19065396 -0.087663494 -0.0029447428 -0.14078656
-0.07065218 -0.038333263 0.09745215 0.017477231 -0.08644951 -0.18675181 0.02372932 -0.2035187
0.12951814 0.021902416 0.014167475 -0.0314784 -0.029673956 -0.10207169 0.12507042 0.023882607
-0.0504247 -0.11947504 -0.18609816 -0.115245596 0.002374604 -0.16296111 -0.13409705 0.10127686
00000000: 0c33 79bd 884d 1dbe 33e1 823b 46ef 1cbd
00000010: 94bf ed3b 5685 0a3c dfbf ad3b eb6a 97bd
00000020: d3b4 933c f228 7f3d 6f9d f8bd 4672 3f3d
00000030: e0f4 84bd 6631 803c ac49 cbbd e36a 4f3d
00000040: 9a58 2fbe 796a 09be 00ff c5bc 30eb b8bd
00000050: 5e7c ecbd bfc1 f9bd 2ebd 7bbd 4f4e 1ebc
00000060: 4407 c33c a085 e03c ff83 04bd 274b a33d
00000070: a750 48be 5312 4dbe 7775 e43c a3c7 18be
00000080: b0f9 ae3d 6ffd b5bd 2e5a e5bd 7dc1 1bbe
00000090: f847 88bd bc5e d6bc 9c54 18be 7d1c c3bd
000000a0: 96a4 d3bd 4f74 e2bd 830d e0bc 1dad a63d
000000b0: 45a0 d0bc 4673 06bd bf0d 94bd 421f 83be
000000c0: cb12 f03d 8fd5 8bbd eea5 0dbe 08cb 1a3d
000000d0: bf41 c7bd 45c5 93bc 6a1c dfbd 29b9 573d
000000e0: c0bf 1c3e 4136 d53d 66c7 a2bd 54e2 343b
000000f0: 39f7 8f3d 0fe7 3bbd 2dfb aebc 148b 9fbd
00000100: d102 30be f200 4bbe 0fb8 d1bd 8661 94bd
00000110: 0a50 043d ee65 b6bd 35da e4bd 6eac 89bd
00000120: 91df 273d 6915 653c 5eab 553d 15c0 9dbc
00000130: 5b79 50be e527 a03d 6074 a0bd 06c9 b8bd
00000140: 8c2d 253d 4439 4ebd 54e0 883d 10fa f13c
00000150: d344 9d3c 0ad5 2fbb 6598 3bbd c365 81bd
00000160: 5f5c c33c 2fdd aa3c 23fb 063d 540c 273c
00000170: 3dbf d8bc 8cef 7fbe 834b fd3c e566 043e
00000180: 4505 39bd 8691 6ebd 0104 923d ecb7 18be
00000190: 4b36 37be ec55 c23d 1b83 993d 0d8b 22bd
000001a0: d90f cd3d b5e1 d53c f62a b43d 9d47 6a3d
000001b0: c675 2abd 94ae e6bd 3cfa aa3c f7a3 b3bd
000001c0: c761 363d e542 07be 4500 d53c b140 a5bc
000001d0: a230 30bb 7678 9a3d a870 0ebd e93b 203d
000001e0: ad4a 023e 3bac 04be 353f debd c90a b83d
000001f0: 1f27 613d 213e 03be 873e ffbd 573a 68bd
00000200: 8d12 8abd dfbb bf3c 6657 1a3e 8bd7 6c3d
00000210: 5081 963d eaf7 523d 0a92 673d 1c51 403d
00000220: 59b4 d9bc 2532 9dba 4fe6 b7bd 8858 0b3d
00000230: 7594 683d be0a 793d 1365 d8bc 7762 b4bd
00000240: a75c 50bd a318 1ebc 8a6e 6a3d 41d0 c6b9
00000250: bd0e b8bd a820 ac3d 84bd 003c 95ad 25bd
00000260: 3864 73bc a3d4 f9bc 5c3a 0abb 8a76 b3bc
00000270: 5f0d 073d 9fb5 0d3d 9654 c03d 7328 9b3c
00000280: f693 753d 41bb aabd d7b6 fc3b a0f5 fcbc
00000290: 108c 8f3d 24e1 103d c021 7bbc 4598 65bc
000002a0: 8a18 c339 1041 ec3d 46e1 92bd ace9 3fbc
000002b0: d9f8 0c3d 60c0 0aba f6a9 5fbc 7d34 77bd
000002c0: cda8 5dbd a64a 8c3d 051b 373d 0184 b23c
000002d0: 09ee 0c3c 35d2 95bd 95c0 183e e6f1 563d
000002e0: 5497 63bd a347 98bd 1cd2 ab3b 8219 4fbc
000002f0: 7d18 973c 10ed 293d 4eee 9dbd 0428 4b3d
00000300: 1577 cb3c 5af3 dbbd 5caf debd 28bd 4d3c
00000310: e2b8 4abe 2d7a 31be 2291 023d 7a4c 02bd
00000320: d3a5 f5bd 9a54 7e3d 2ac7 90bb 0c01 963c
00000330: c6f1 0fbe 7473 87bd ff03 f7bd e0a4 07be
00000340: 2060 c63c 485a 4b3c 80f8 cf3b a487 023d
00000350: 3623 bd3b fd53 5b3d 8882 fdbd ced7 a3bd
00000360: ae9b f8bd cc95 d53d 3501 983d 352c ecbd
00000370: c97f c0bd b67e 12be 7485 55bb c2d1 18be
00000380: 86ad 033d c3e3 0ebe 35d4 83bc df8b 30bb
00000390: cb3a 43be eb88 b3bd 96fc 40bb 5a2a 10be
000003a0: 17b2 90bd 5703 1dbd fe94 c73d 692c 8f3c
000003b0: 710c b1bd de3b 3fbe fe63 c23c 3567 50be
000003c0: 67a0 043e b26c b33c b21e 683c 7fef 00bd
000003d0: cc16 f3bc f60a d1bd 7612 003e 75a5 c33c
000003e0: 218a 4ebd 54af f4bd 8490 3ebe e205 ecbd
000003f0: 3f9f 1b3b 47df 26be bd50 09be 3e6a cf3d

lstm.bias_hh_l0 f4 [256]
-0.09461011 -0.057757482 0.0597444 -0.004599836 -0.21449183 -0.11816131 0.088942505 0.0064440174
-0.013542744 -0.030425793 -0.105420314 -0.13228978 -0.1771254 -0.035294663 -0.011301487 -0.093829975
0.0056415843 -0.109555624 0.036675245 -0.14042038 0.04265599 0.028394714 0.016233578 -0.0681083
-0.014389734 0.002096093 -0.11059329 -0.07280355 -0.11906011 -0.17652807 0.07444229 -0.15041885
0.0078060455 0.029451758 0.050243728 -0.122375675 -0.12358773 0.030917196 -0.12327549 0.017948624
-0.041764848 -0.10977745 0.10229573 0.15141743 -0.014714878 -0.15494232 0.107308574 -0.10873321
0.09609873 -0.08214732 0.06660293 -0.0011926058 -0.052812688 0.028427202 -0.044293545 -0.060071126
-0.065525055 -0.01451236 -0.15327035 -0.015913263 -0.098179154 -0.060406663 -0.09656416 -0.08323209
-0.07369078 -0.13949913 -0.08625397 -0.10332316 -0.05691994 -0.022656014 -0.00915561 -0.13141797
0.04951886 -0.06884616 -0.022762595 -0.055344645 -0.13712716 -0.13498056 0.070350744 -0.026460087
-0.009971928 -0.0871836 0.064222574 0.037903596 0.048365913 -0.07270588 0.07518278 -0.19320373
-0.036833785 -0.15504488 0.06460186 -0.07681861 -0.049105085 -0.07021456 0.038992368 0.014936467
0.03599942 0.12230459 0.09175312 -0.0022582493 -0.09128251 -0.09098792 -0.1419634 -0.05833201
-0.115276605 -0.0021943038 0.07354294 -0.026577398 0.040272277 -0.06215572 0.13336848 -0.12719084
0.002103962 -0.044857256 -0.067334555 0.018075494 -0.1334195 0.04991145 0.11976711 -0.12720737
-0.038001157 -0.09661726 0.021778688 0.0738386 -0.086336575 -0.15973756 0.044278048 0.09980277
0.065315664 -0.12916183 -0.08522033 0.081224106 0.08194618 -0.013870889 -0.07367033 -0.06595282
0.11808057 -0.066039756 -0.012881155 -0.025379166 0.07217456 -0.008903302 -0.12410907 0.013591122
0.032664638 0.049665608 -0.022614673 -0.03252642 0.027260441 -0.11376558 -0.003394326 -0.026332665
-0.036385074 -0.04242807 -0.046617553 -0.06116738 -0.0071462044 0.06276798 -0.038441803 0.024811754
-0.04580574 0.0040759766 0.07608361 -0.07948204 0.034023926 -0.11437261 -0.0037448315 0.03373839
0.11444432 -0.07129146 -0.015471427 0.14194258 -0.11144384 0.0064956807 -0.15003522 0.049850184
0.009789746 0.058554523 0.026419282 0.06681863 0.014005796 0.053152423 -0.070714734 -0.06676769
-0.12092763 0.027566163 -0.0066390894 0.04780475 0.05460259 -0.06377646 0.123872705 -0.10506359
-0.0069309254 -0.11901731 -0.1578814 0.024013704 -0.090126604 -0.059531458 0.093831405 -0.085456535
-0.012871599 -0.09412389 -0.017654784 -0.08571093 -0.18851763 -0.07405297 -0.081312925 -0.036074795
-0.049197115 0.024724051 -0.09385208 0.0594133 0.052864596 0.0072820536 -0.07742368 -0.16899537
-0.1503351 -0.12785992 -0.060928922 0.026870329 -0.06527935 -0.012558201 -0.0629992 -0.052257705
-0.016905572 -0.19508451 0.013343746 0.013934937 -0.0011299412 0.10764966 -0.007689863 -0.083913304
0.08086959 -0.15658419 0.00804887 0.15716389 0.059781656 -0.13697892 -0.0043576914 -0.14608264
-0.04220126 -0.0021104314 0.015840948 0.036833536 -0.09210047 0.024732558 0.053112794 -0.17950536
0.05051685 -0.040954188 -0.16155586 0.007255024 -0.16051142 -0.19131951 -0.030065319 -0.03015048
00000000: f2c2 c1bd 1c93 6cbd 8bb6 743d 39ba 96bb
00000010: bfa3 5bbe 8ffe f1bd 7d27 b63d 5628 d33b
00000020: 63e2 5dbc 833f f9bc 9be6 d7bd f976 07be
00000030: 5c60 35be 2391 10bd df29 39bc ee29 c0bd
00000040: 0add b83b b35e e0bd c838 163d 5cca 0fbe
00000050: 0cb8 2e3d 089c e83c 48fc 843c 5d7c 8bbd
00000060: ebc2 6bbc 9b5e 093b bc7e e2bd 071a 95bd
00000070: c9d5 f3bd c6c3 34be 3375 983d 6607 1abe
00000080: dbc9 ff3b d044 f13c 5ecc 4d3d 19a0 fabd
00000090: 901b fdbd 0f46 fd3c dc77 fcbd fe08 933c
000000a0: 9e11 2bbd 00d3 e0bd 6c80 d13d 2c0d 1b3e
000000b0: ac16 71bc 33a9 1ebe 99c4 db3d 84af debd
000000c0: 69cf c43d db3c a8bd 1e67 883d 3651 9cba
000000d0: 1e52 58bd 2ae0 e83c 266d 35bd 240d 76bd
000000e0: 0032 86bd 40c5 6dbc e7f2 1cbe 885c 82bc
000000f0: 2712 c9bd fa6c 77bd 6ec3 c5bd 9675 aabd
00000100: 31eb 96bd dcd8 0ebe eca5 b0bd 189b d3bd
00000110: e224 69bd 1b99 b9bc 6901 16bc 6f92 06be
00000120: 4ad4 4a3d 37ff 8cbd 9f78 babc 11b1 62bd
00000130: 106b 0cbe 5838 0abe 0d14 903d d3c2 d8bc
00000140: 4c61 23bc 518d b2bd 2087 833d cd40 1b3d
00000150: 561b 463d d2e6 94bd 6ef9 993d 33d7 45be
00000160: 06df 16bd 16c4 1ebe fb4d 843d 1353 9dbd
00000170: 6a22 49bd a7cc 8fbd 76b6 1f3d 15b8 743c
00000180: 2174 133d d47a fa3d 0fe9 bb3d 23ff 13bb
00000190: 53f2 babd e057 babd db5e 11be 8ced 6ebd
000001a0: 2416 ecbd 4fce 0fbb ae9d 963d d8b8 d9bc
000001b0: 8bf4 243d ff96 7ebd bf91 083e 513e 02be
000001c0: a0e2 093b 3ebc 37bd b3e6 89bd 0f13 943c
000001d0: 1f9f 08be f36f 4c3d 7548 f53d a642 02be
000001e0: 1aa7 1bbd 45df c5bd 3869 b23c b138 973d
000001f0: 3bd1 b0bd 3e92 23be e65c 353d 6565 cc3d
00000200: 38c4 853d 0043 04be ff87 aebd d358 a63d
00000210: 66d3 a73d ba42 63bc 78e0 96bd 4612 87bd
00000220: 3ad4 f13d da3f 87bd 7b0b 53bc f8e7 cfbc
00000230: 41d0 933d 28df 11bc e52c febd 4cad 5e3c
00000240: 5bcb 053d 2a6e 4b3d 6842 b9bc 6c3a 05bd
00000250: 4a51 df3c eefd e8bd 5773 5ebb 9ab7 d7bc
00000260: 8408 15bd 0ec9 2dbd 0cf2 3ebd a68a 7abd
00000270: b52a eabb 808c 803d 2775 1dbd 0542 cb3c
00000280: cd9e 3bbd c58f 853b b9d1 9b3d 7bc7 a2bd
00000290: ac5c 0b3d 303c eabd d96b 75bb 4431 0a3d
000002a0: c961 ea3d 4201 92bd de7b 7dbc 6559 113e
000002b0: ab3c e4bd b8d9 d43b d5a2 19be b52f 4c3d
000002c0: 2c65 203c ded6 6f3d 406d d83c 35d8 883d
000002d0: 9178 653c 5bb6 593d e3d2 90bd 80bd 88bd
000002e0: e8a8 f7bd 6fd2 e13c b88c d9bb eace 433d
000002f0: f7a6 5f3d 3c9d 82bd f9b0 fd3d 942b d7bd
00000300: d11c e3bb 59bf f3bd a9ab 21be 63b8 c43c
00000310: 4c94 b8bd 42d7 73bd ae2a c03d d603 afbd
00000320: 66e3 52bc 07c4 c0bd c4a0 90bc 3689 afbd
00000330: c40a 41be 15a9 97bd 6487 a6bd 2ac3 13bd
00000340: ea82 49bd 188a ca3c 8535 c0bd 5c5b 733d
00000350: 8c88 583d 4b9e ee3b 4e90 9ebd 1f0d 2dbe
00000360: 72f1 19be b6ed 02be 9b90 79bd 2a1f dc3c
00000370: 2eb1 85bd eac0 4dbc b905 81bd 2d0c 56bd
00000380: 8e7d 8abc 3cc4 47be ba9f 5a3c 5d4f 643c
00000390: 891a 94ba 6d77 dc3d 3ffb fbbb bdda abbd
000003a0: f59e a53d 9b57 20be 68df 033c 92ef 203e
000003b0: 9cdd 743d 3444 0cbe f7ca 8ebb b096 15be
000003c0: 3adb 2cbd 2a4f 0abb e0c4 813c c3de 163d
000003d0: 2c9f bcbd ef9b ca3c cd8c 593d 41d0 37be
000003e0: c2ea 4e3d 94bf 27bd e66e 25be 8dbb ed3b
000003f0: 1b5d 24be 43e9 43be 8b4b f6bc 24fe f6bc

lstm.weight_ih_l1 f4 [256, 64]
0.05626831 0.08950018 -0.0694927 -0.10782048 0.040268093 0.023476213 0.029889317 0.024396293
-0.11746896 -0.0058251126 -0.055666085 -0.110976875 0.025164979 0.076766804 0.081431285 0.024963615
0.008397 0.023320999 -0.0011817066 0.1086095 0.06980443 -0.056604207 -0.07806306 0.092134655
0.033910707 0.057154957 -0.13375023 -0.037438855 -0.07246258 0.02127941 -0.0145245325 0.084745295
0.027658163 0.047331393 0.07651636 -0.013498496 0.036996186 0.005572471 0.019795395 -0.116388045
-0.11788026 -0.021790389 -0.029487954 0.08127072 -0.12042259 -0.04105595 -0.03270703 -0.019117564
-0.023894807 -0.072895214 0.015958296 0.033778246 0.017640619 0.06721387 0.029705245 -0.056571655
0.13545322 -0.09696887 -0.033035677 -0.008640047 0.055550918 -0.06692939 -0.022163428 0.08408869
0.09588661 -0.024087384 0.057621162 0.065801434 -0.06867119 0.0024848373 -0.058014855 0.039712735
-0.15310825 0.15461671 0.13186869 0.14436156 0.09984225 0.018872332 0.14566952 -0.006320416
-0.041580148 0.040936656 0.15845872 0.10478346 -0.035304867 -0.064160176 0.03193528 0.11766734
0.11282705 -0.13396981 -0.037009723 -0.11469305 0.0036322498 0.05172374 0.05427694 -0.040998008
-0.18067107 0.06489014 0.07377525 0.038492262 0.09888347 -0.022470098 -0.085748926 0.046763845
-0.06892511 0.093663774 -0.042904638 -0.08531317 0.12774535 -0.0031949773 0.16252024 0.03702357
0.13467076 0.08525356 -0.057921957 -0.07924385 0.054550722 0.09456192 -0.08969995 -0.15697266
-0.03083681 -0.031154912 -0.0710729 0.00697225 -0.036796782 -0.07756514 -0.10041984 0.036346763
-0.06711191 0.13215014 0.07799923 -0.0750491 0.0904917 0.07363635 0.15631582 -0.015995106
0.038529903 -0.094154105 0.060195554 -0.06331566 -0.077506475 0.08439621 0.03766864 -0.06847503
0.068585545 0.02831467 0.06329392 -0.073575504 0.019596642 -0.09002801 0.13783714 0.09904535
-0.09283868 -0.041667886 -0.07057916 -0.017996782 -0.00514911 -0.008565496 0.09858218 0.033055805
-0.043803155 -0.058171112 0.13079174 0.052856926 -0.064786464 -0.041645158 0.050474692 0.05931321
-0.035715736 0.09610915 -0.099474475 -0.02245356 -0.0009788709 -0.07197611 0.16173235 -0.0066993795
0.11353751 0.0011018261 0.14831524 0.004125437 0.044401664 0.12647457 -0.11979475 -0.020486057
-0.018001234 0.14531359 0.06828596 -0.03971534 0.10337071 -0.12368782 0.061917756 0.07743618
0.047958504 0.10299221 -0.09499393 -0.047143318 -0.13224421 -0.10468239 0.084342144 -0.08469763
-0.0021569058 0.10040769 0.1165028 0.11822832 -0.05453433 -0.02790841 0.060264654 0.1403485
-0.06991848 -0.076323375 -0.049311314 0.084744796 -0.06638919 -0.04771605 -0.0025963236 -0.090157524
-0.10580811 -0.016715948 0.10810162 -0.09325923 -0.073169775 -0.10382762 -0.0024347282 -0.08236727
0.043616686 0.019600015 -0.068700925 0.12093359 0.06542716 0.15060332 0.040109336 -0.051124554
-0.15770106 0.0009519793 -0.12216561 -0.034156013 0.021115303 -0.060200907 -0.034064997 0.07419746
0.12439166 0.09962247 0.10836584 -0.018523226 0.107775874 0.14704598 -0.028892694 0.01753476
0.1416011 -0.040254872 0.08275874 0.07568762 0.020290254 -0.022774035 -0.028773263 0.0771369
00000000: 9979 663d df4b b73d 3052 8ebd fcd0 dcbd
00000010: 28f0 243d 3051 c03c 71da f43c bcda c73c
00000020: 9193 f0bd 96e0 bebb 1f02 64bd d847 e3bd
00000030: c926 ce3c ea37 9d3d 72c5 a63d 7f80 cc3c
00000040: 9293 093c ae0b bf3c 7ee3 9aba a86e de3d
00000050: a0f5 8e3d d0d9 67bd 87df 9fbd 18b1 bc3d
00000060: f4e5 0a3d 511b 6a3d d2f5 08be 7c59 19bd
00000070: 4367 94bd 2852 ae3c 4ef8 6dbc f18e ad3d
00000080: 5f93 e23c 90de 413d 9cb4 9c3d cc28 5dbc
00000090: 5089 173d 4699 b63b f429 a23c db5c eebd
000000a0: 356b f1bd c281 b2bc b990 f1bc 4371 a63d
000000b0: 1ea0 f6bd 492a 28bd cff7 05bd 709c 9cbc
000000c0: 0bbf c3bc 164a 95bd f9ba 823c 0f5b 0a3d
000000d0: 0f83 903c 6da7 893d 6a58 f33c aeb7 67bd
000000e0: 40b4 0a3e 9d97 c6bd 6b50 07bd fc8e 0dbc
000000f0: 5c89 633d 4712 89bd 1490 b5bc b136 ac3d
00000100: 3360 c43d e852 c5bc 2b04 6c3d e7c2 863d
00000110: 7ba3 8cbd a7d8 223b fca0 6dbd d2a9 223d
00000120: 69c8 1cbe d853 1e3e 9608 073e 84d3 133e
00000130: 187a cc3d 269a 9a3c 642a 153e 7e1b cfbb
00000140: f24f 2abd 32ad 273d 0143 223e b698 d63d
00000150: d69b 10bd 6966 83bd 91ce 023d 93fb f03d
00000160: de11 e73d 622f 09be 8297 17bd 31e4 eabd
00000170: 0a0b 6e3b 46dc 533d 7f51 5e3d 87ed 27bd
00000180: d601 39be 1fe5 843d 7a17 973d 10aa 1d3d
00000190: 6b83 ca3d 3613 b8bc 229d afbd 728b 3f3d
000001a0: 9c28 8dbd cbd2 bf3d c6bc 2fbd acb8 aebd
000001b0: adcf 023e d362 51bb b56b 263e 07a6 173d
000001c0: 22e7 093e 6b99 ae3d 933f 6dbd 9a4a a2bd
000001d0: 9470 5f3d aea9 c13d 9bb4 b7bd 71bd 20be
000001e0: 7a9d fcbc 9638 ffbc ab8e 91bd 7977 e43b
000001f0: 39b8 16bd 79da 9ebd eba8 cdbd 58e0 143d
00000200: f871 89bd 5e52 073e 0fbe 9f3d 58b3 99bd
00000210: b653 b93d a8ce 963d 4111 203e 2b08 83bc
00000220: 88d1 1d3d ded3 c0bd 9d8f 763d a4ab 81bd
00000230: b7bb 9ebd ecd7 ac3d 6f4a 1a3d a33c 8cbd
00000240: 9476 8c3d 2bf4 e73c 3ea0 813d c1ae 96bd
00000250: 2389 a03c 9b60 b8bd 2e25 0d3e 4ad8 ca3d
00000260: 3522 bebd f2ab 2abd ce8b 90bd fd6d 93bc
00000270: deb9 a8bb 4b56 0cbc 74e5 c93d 8665 073d
00000280: f06a 33bd d544 6ebd 45ee 053e 8180 583d
00000290: c4ae 84bd 1d94 2abd 8dbe 4e3d 69f2 723d
000002a0: aa4a 12bd e0d4 c43d 46b9 cbbd 87f0 b7bc
000002b0: 754d 80ba 3668 93bd 2a9d 253e 7886 dbbb
000002c0: 5b86 e83d 266b 903a f3df 173e ac2e 873b
000002d0: 85de 353d 8d82 013e f356 f5bd 60d2 a7bc
000002e0: 5377 93bc 16cd 143e 82d9 8b3d 8dac 22bd
000002f0: 06b4 d33d 0a50 fdbd 799d 7d3d dc96 9e3d
00000300: 2370 443d 94ed d23d 2d8c c2bd 5a19 41bd
00000310: 076b 07be b963 d6bd 93bb ac3d f375 adbd
00000320: e05a 0dbb 8ca2 cd3d 0599 ee3d b021 f23d
00000330: 645f 5fbd 2ea0 e4bc 12d8 763d 84b7 0f3e
00000340: 6c31 8fbd 6e4f 9cbd a9fa 49bd ae8e ad3d
00000350: 0ef7 87bd e871 43bd 1527 2abb 82a4 b8bd
00000360: ecb1 d8bd e2ef 88bc 6264 dd3d b2fe bebd
00000370: 09da 95bd 93a3 d4bd f68f 1fbb 2cb0 a8bd
00000380: 69a7 323d 3690 a03c 12b3 8cbd 08ac f73d
00000390: adfe 853d c237 1a3e b049 243d fb67 51bd
000003a0: 637c 21be 408e 793a f731 fabd 2de7 0bbd
000003b0: 00fa ac3c 3a95 76bd bd87 0bbd d7f4 973d
000003c0: 0ec1 fe3d de06 cc3d e9ee dd3d 05be 97bc
000003d0: 99b9 dc3d 3993 163e 5fb0 ecbc 0fa5 8f3c
000003e0: e1ff 103e 4be2 24bd 6a7d a93d 1c02 9b3d
000003f0: bf37 a63c 9d90 babc e8b5 ebbc f3f9 9d3d

lstm.weight_hh_l1 f4 [256, 64]
-0.000550227 -0.10602984 -0.05221169 0.10414767 0.06014365 0.13704391 0.0827346 -0.045170404
0.06618697 -0.02270607 -0.0025567228 -0.062023506 -0.07202495 -0.0019765925 -0.029640168 -0.052843533
0.0016709436 0.06782932 0.012608495 0.03881116 0.07050273 0.057167955 -0.09568881 -0.045650713
-0.16130902 -0.15926832 0.004061688 0.12018475 0.03240622 -0.06503592 -0.052102536 0.1365128
0.046310607 0.03676527 0.06736889 -0.096079975 -0.020510813 0.0046433834 0.07592252 0.027422134
-0.026016854 0.028802345 -0.086512595 0.03278363 -0.08098998 -0.16665523 0.10451485 -0.1626745
0.031674564 0.07981986 0.086079866 0.11952044 0.10274458 -0.04970423 0.037532058 -0.051181283
0.046756428 -0.1710038 0.12672062 -0.11813398 0.042308178 0.07356792 0.093159184 -0.014418566
0.13623077 -0.057640743 -0.06548395 0.07289444 -0.08021062 -0.016811475 -0.10137039 0.019910576
0.06160733 -0.018441483 0.019438302 0.052351683 -0.10039091 0.027648048 0.16296768 -0.09565297
-0.016340634 -0.029643789 0.034749303 -0.062562734 0.08319396 -0.0590345 0.13651396 0.037158675
-0.023482528 0.08507113 -0.13196923 -0.09307636 0.062431898 -0.07894504 0.19019128 -0.00045769592
0.05320825 -0.063037045 -0.11456517 -0.105855614 0.019828629 0.011228756 0.06365355 -0.04789271
0.054970585 0.08917208 -0.0855172 -0.07814595 0.08256987 -0.06501708 -0.16023844 0.079378925
-0.0046665072 -0.100499734 0.020904398 0.05808324 -0.060972888 0.016545843 0.026904672 0.032154594
-0.019727329 -0.060642894 0.03957203 0.0068059214 0.042619597 0.017016822 -0.12968092 -0.078902975
-0.018877076 -0.05910755 -0.14959367 -0.04855002 -0.20136838 -0.09781754 -0.060142312 -0.0935241
-0.08313418 0.09805098 -0.039345574 -0.15031727 0.08041056 0.092895396 -0.044205304 -0.1146048
-0.040731076 0.051561136 0.16891862 0.060626507 0.0864483 0.08825149 0.023629537 0.031521868
-0.15850656 0.089368075 -0.12841682 0.09054489 -0.11924249 0.050759006 -0.03167668 0.057130445
0.055417605 -0.045531917 0.0684932 0.013120817 -0.04309238 -0.15799518 -0.117211595 0.03917287
0.116451524 0.0058333282 -0.17392233 0.003915462 0.111901246 -0.17083809 -0.12014873 0.14737678
-0.04408831 -0.19668423 0.07552324 -0.05647314 -0.112475395 -0.06056319 -0.050583113 -0.026545888
-0.04282174 -0.055426765 -0.041092455 -0.10860708 -0.15458198 0.20291342 -0.13505574 0.087419525
0.09650196 0.012493521 -0.009930275 0.011154262 0.049032174 -0.054953348 -0.080466196 0.033365827
-0.081032224 -0.02436752 0.05533838 0.07367401 -0.116582446 -0.056904443 0.1426278 0.044647567
0.06262219 -0.07931438 0.18117823 -0.08546279 -0.11553296 -0.0127746845 -0.0056373146 0.04419482
0.04221573 -0.032850195 -0.048187077 -0.1328983 0.023090914 0.1342137 0.07445984 0.058506075
-0.011024168 0.07743954 -0.094938 0.06083962 -0.10433621 0.019791463 0.00067249336 -0.05390531
-0.01272016 0.005032158 -0.13636887 0.0802871 0.13836828 -0.17006391 -0.039475143 0.013900581
0.08908286 0.0075952057 -0.031894475 0.05534847 -0.01899789 0.14450493 -0.033929802 -0.03626352
-0.055685077 -0.012816543 0.11553931 0.038325336 -0.12430029 0.17277627 0.045987334 -0.121095926
00000000: 1c3d 10ba 2c26 d9bd eddb 55bd 604b d53d
00000010: 3059 763d 3d55 0c3e c270 a93d 9a04 39bd
00000020: 098d 873d 1502 babc b18e 27bb 5c0c 7ebd
00000030: d181 93bd b889 01bb f0cf f2bc 7672 58bd
00000040: 9003 db3a 19ea 8a3d dc93 4e3c 73f8 1e3d
00000050: bc63 903d f228 6a3d 7ff8 c3bd 3efc 3abd
00000060: 312e 25be 3c17 23be e917 853b 6c23 f63d
00000070: 62bc 043d 8d31 85bd 7869 55bd 03ca 0b3e
00000080: 31b0 3d3d 2e97 163d b3f8 893d 94c5 c4bd
00000090: 4b06 a8bc 8627 983b 447d 9b3d 62a4 e03c
000000a0: 4c21 d5bc e5f2 eb3c 842d b1bd 2148 063d
000000b0: 13de a5bd aba7 2abe e20b d63d 2594 26be
000000c0: 30bd 013d 9878 a33d a44a b03d 22c7 f43d
000000d0: c06b d23d aa96 4bbd 37bb 193d 77a3 51bd
000000e0: ab83 3f3d 9f1b 2fbe 0dc3 013e 3af0 f1bd
000000f0: 574b 2d3d c7aa 963d 3eca be3d d93b 6cbc
00000100: 1480 0b3e b318 6cbd 731c 86bd ae49 953d
00000110: 7745 a4bd 38b8 89bc 479b cfbd 811b a33c
00000120: f857 7c3d 9812 97bc 133d 9f3c b86e 563d
00000130: c099 cdbd 297e e23c 00e1 263e b4e5 c3bd
00000140: cbdc 85bc 88d7 f2bc 4955 0e3d e420 80bd
00000150: 9861 aa3d 29ce 71bd 51ca 0b3e b233 183d
00000160: 6e5e c0bc c639 ae3d f122 07be d29e bebd
00000170: 97b8 7f3d f0ad a1bd 81c1 423e e8f6 efb9
00000180: e5f0 593d 9119 81bd 25a1 eabd d4ca d8bd
00000190: a66f a23c d1f8 373c cb5c 823d 252b 44bd
000001a0: d628 613d da9f b63d a423 afbd fc0a a0bd
000001b0: 641a a93d ad27 85bd 8c15 24be 6b91 a23d
000001c0: 80e9 98bb ced2 cdbd b33f ab3c b1e8 6d3d
000001d0: b5be 79bd 268b 873c 3067 dc3c 89b4 033d
000001e0: 359b a1bc af64 78bd 4816 223d 3504 df3b
000001f0: e391 2e3d dd66 8b3c 13cb 04be e297 a1bd
00000200: 19a4 9abc c21a 72bd 152f 19be 63dc 46bd
00000210: 8333 4ebe 9054 c8bd c957 76bd 9089 bfbd
00000220: 4142 aabd f4ce c83d d328 21bd c5ec 19be
00000230: 4bae a43d f13f be3d 9f10 35bd ecb5 eabd
00000240: a1d5 26bd c531 533d 01f9 2c3e 8053 783d
00000250: ce0b b13d 32bd b43d bb92 c13c 131d 013d
00000260: 8b4f 22be 9c06 b73d b37f 03be 996f b93d
00000270: 6835 f4bd ade8 4f3d 68bf 01bd 9d01 6a3d
00000280: 92fd 623d ad7f 3abd 2a46 8c3d b2f8 563c
00000290: a381 30bd 7dc9 21be a20c f0bd bb73 203d
000002a0: 237e ee3d 8125 bf3b b218 32be 474d 803b
000002b0: 7b2c e53d 2ef0 2ebe 8a10 f6bd f0e9 163e
000002c0: f295 34bd 9767 49be eeab 9a3d 6150 67bd
000002d0: 8059 e6bd 1c11 78bd 3d30 4fbd c376 d9bc
000002e0: d965 2fbd 2d07 63bd 9050 28bd 646d debd
000002f0: bd4a 1ebe 89c8 4f3e 0d4c 0abe 0209 b33d
00000300: d2a2 c53d a0b1 4c3c 98b2 22bc 5ec0 363c
00000310: f6d5 483d c316 61bd 76cb a4bd 9baa 083d
00000320: 39f4 a5bd 659e c7bc 7faa 623d 66e2 963d
00000330: c7c2 eebd a214 69bd 060d 123e 5ee0 363d
00000340: 1040 803d 946f a2bd c986 393e 1e07 afbd
00000350: 8b9c ecbd e94c 51bc 39b9 b8bb a105 353d
00000360: 67ea 2c3d ed8d 06bd d05f 45bd 7e16 08be
00000370: 2829 bd3c 516f 093e 677e 983d 11a4 6f3d
00000380: b69e 34bc 9f98 9e3d db6e c2bd f732 793d
00000390: 39ae d5bd b521 a23c 444a 303a d0cb 5cbd
000003a0: 3868 50bc cde4 a43b 48a4 0bbe 906d a43d
000003b0: 6ab0 0d3e 3c25 2ebe b0b0 21bd 43bf 633c
000003c0: 1371 b63d 34e1 f83b c8a3 02bd 14b5 623d
000003d0: 77a1 9bbc 1af9 133e faf9 0abd 0f89 14bd
000003e0: 0916 64bd 7afc 51bc e09f ec3d 07fb 1c3d
000003f0: 2791 febd 43ec 303e 375d 3c3d 2401 f8bd

lstm.bias_ih_l1 f4 [256]
0.04411973 0.0011430128 -0.121423446 0.07094514 -0.018937837 0.0119953435 0.078305185 -0.03263703
-0.043009162 -0.08133309 -0.18116817 -0.22112434 -0.26816052 0.042152565 0.099284984 -0.02289123
0.0678922 0.0019458903 -0.107965134 -0.08283026 -0.047747094 0.02454795 -0.08007199 -0.076743156
-0.06883236 -0.2610175 0.045751415 0.07446573 0.043233458 -0.09561208 -0.0019542386 -0.11421369
0.08450481 0.0032696547 -0.0567249 0.061950367 0.011778037 -0.08723195 -0.13888417 -0.012284046
-0.1547234 -0.010890504 -0.13247934 -0.1367501 -0.016928807 -0.082725644 -0.06923848 -0.04385332
0.055419344 -0.0107156215 0.032978386 -0.18762028 -0.04455907 0.08235173 -0.0546751 0.012030595
0.022478482 0.06143249 -0.17211476 -0.09501303 0.07454699 0.0043268027 0.0032637503 -0.035591148
-0.07105801 0.019991117 -0.03883334 0.032225333 -0.12813492 -0.031780146 0.08287405 0.09907883
-0.08744875 0.0072137946 -0.17493962 -0.17392254 -0.17284967 0.09305576 -0.17347997 -0.10709216
-0.054073654 -0.11578711 -0.02308717 -0.15331227 -0.053736646 -0.16555357 -0.07453973 0.013749966
-0.10192129 -0.05950683 -0.11685804 0.018669264 -0.13759126 0.027984066 0.03215814 0.034827646
-0.11476731 -0.18330437 -0.011347177 -0.050491564 -0.13015488 -0.0019494719 -0.23157588 -0.13206998
-0.08837963 0.07003824 -0.17107421 -0.10443705 0.023396151 0.035579048 -0.041564856 -0.09795349
-0.15988295 -0.1308377 0.022552341 -0.0387815 0.037602965 -0.036314063 -0.15640086 -0.093206026
-0.11545137 0.006750595 -0.04679318 -0.14078799 -0.011667583 -0.008361842 -0.050968483 -0.1092109
-0.0069026677 -0.116388634 0.046450604 -0.11307593 -0.09260053 -0.14678317 0.07885 -0.045676928
-0.14346413 -0.117169164 -0.04969639 -0.03939556 -0.04874224 0.0041318573 0.076084204 0.008273165
0.024467714 -0.09450747 -0.06524322 0.023040583 -0.020069048 0.070758395 -0.072830684 -0.07631808
0.011455857 -0.056956753 -0.023825105 0.026935678 -0.089744925 -0.13685356 -0.015259368 -0.116916515
-0.007977787 0.053148065 -0.009048446 0.10051061 0.10177342 -0.04697105 0.073305 0.118805856
0.05330439 0.04497058 0.0067385836 0.12347668 -0.05497594 -0.025047638 -0.0542542 0.009409466
-0.048656393 0.07217475 -0.13555625 0.031312842 0.038372938 -0.0130368015 0.06299944 -0.055931173
0.018710608 0.14511715 -0.035348345 0.12282365 0.09480392 -0.030815527 -0.036933325 0.15145558
0.050748978 -0.028873287 0.09905357 0.037483163 0.010940654 0.005887471 0.096150994 -0.05939118
0.062154904 0.10624456 -0.30770418 -0.20279385 -0.22164898 -0.078489445 -0.03221925 -0.13922822
0.13159624 0.09244818 0.07387772 -0.16618901 -0.013510309 0.07384099 -0.09845593 -0.1681585
0.014660465 -0.11296072 0.06859864 -0.026548913 0.019215645 0.08943865 0.10497384 0.054348584
-0.04122629 -0.023131303 0.007502846 -0.097130805 -0.09161755 -0.17160636 -0.32943445 0.085376
-0.1052843 -0.062120847 0.037500583 -0.017363057 0.029948398 -0.01771989 -0.12451745 -0.15600027
-0.058843326 -0.050600067 -0.07748818 -0.22461422 -0.06569653 0.028207779 0.034950387 -0.13209055
-0.12848273 0.11301839 0.026608655 0.059424248 -0.11623981 0.07807732 0.055027943 0.10231346
00000000: e4b6 343d 25d1 953a dbac f8bd b04b 913d
00000010: 8623 9bbc 1e88 443c 785e a03d 68ae 05bd
00000020: 602a 30bd f791 a6bd 2684 39be 6b6e 62be
00000030: 564c 89be 2ba8 2c3d ed55 cb3d 6486 bbbc
00000040: 110b 8b3d 3e0d ff3a d31c ddbd e9a2 a9bd
00000050: 7592 43bd c818 c93c c9fc a3bd 842b 9dbd
00000060: fbf7 8cbd 16a4 85be d665 3b3d 7d81 983d
00000070: 9115 313d 44d0 c3bd af12 00bb dee8 e9bd
00000080: dc10 ad3d b447 563b 5e58 68bd abbf 7d3d
00000090: abf8 403c aaa6 b2bd a737 0ebe 0643 49bc
000000a0: d06f 1ebe 166e 32bc aaa8 07be 3808 0cbe
000000b0: 48ae 8abc 106c a9bd e7cc 8dbd 8a9f 33bd
000000c0: 65ff 623d 9390 2fbc 5814 073d 881f 40be
000000d0: 9283 36bd 06a8 a83d fff2 5fbd f91b 453c
000000e0: cb24 b83c a2a0 7b3d da3e 30be 3196 c2bd
000000f0: 18ac 983d dac7 8d3b a5e4 553b 06c8 11bd
00000100: dd86 91bd 69c4 a33c b50f 1fbd b6fe 033d
00000110: cd35 03be e62b 02bd dfb9 a93d d7e9 ca3d
00000120: 5518 b3bd b261 ec3b 5f23 33be c018 32be
00000130: 81ff 30be 0594 be3d bca4 31be 2253 dbbd
00000140: 567c 5dbd cb21 edbd 4e21 bdbc e4fd 1cbe
00000150: f51a 5cbd e086 29be 49a8 98bd 8a47 613c
00000160: 1cbc d0bd 6fbd 73bd 4553 efbd 49f0 983c
00000170: b9e4 0cbe d73e e53c 41b8 033d 6fa7 0e3d
00000180: 200b ebbd 24b4 3bbe 83e9 39bc 3ed0 4ebd
00000190: 5247 05be 6c85 ffba 3a22 6dbe 5a3d 07be
000001a0: 6100 b5bd 3570 8f3d 142e 2fbe 18e3 d5bd
000001b0: 49a9 bf3c 56bb 113d e93f 2abd d79b c8bd
000001c0: 5bb8 23be 51fa 05be b0bf b83c 5ad9 1ebd
000001d0: 9105 1a3d 0ebe 14bd 8c27 20be cde2 bebd
000001e0: c571 ecbd 1834 dd3b 35aa 3fbd ba2a 10be
000001f0: 6429 3fbc 1b00 09bc 54c4 50bd f7a9 dfbd
00000200: c62f e2bb 2a5d eebd fd42 3e3d 5a94 e7bd
00000210: 59a5 bdbd 544e 16be 1c7c a13d bb17 3bbd
00000220: 43e8 12be 63f6 efbd 718e 4bbd 3d5d 21bd
00000230: f1a5 47bd 8864 873b 09d2 9b3d 2b8c 073c
00000240: 8470 c83c 228d c1bd 3d9e 85bd 9bbf bc3c
00000250: d867 a4bc c7e9 903d 4128 95bd a74c 9cbd
00000260: 59b1 3b3c 7c4b 69bd de2c c3bc 36a8 dc3c
00000270: 30cc b7bd 5723 0cbe 6e02 7abc ed71 efbd
00000280: 44b5 02bc c9b1 593d ef3f 14bc 82d8 cd3d
00000290: 956e d03d b764 40bd ef20 963d 7c50 f33d
000002a0: b455 5a3d 1233 383d 56cf dc3b 57e1 fc3d
000002b0: 742e 61bd b430 cdbc a739 5ebd 292a 1a3c
000002c0: ed4b 47bd 5bd0 933d 42cf 0abe e541 003d
000002d0: f12c 1d3d 4f98 55bc da05 813d 1618 65bd
000002e0: fd46 993c 9799 143e 6dc9 10bd f78a fb3d
000002f0: 8f28 c23d d870 fcbc 6647 17bd 2c17 1b3e
00000300: 29de 4f3d ac87 ecbc 99dc ca3d f287 193d
00000310: 6e40 333c b0eb c03b d0ea c43d 2a44 73bd
00000320: 2496 7e3d bf96 d93d 678b 9dbe 31a9 4fbe
00000330: f3f7 62be 13bf a0bd 55f8 03bd d891 0ebe
00000340: 2ac1 063e 7955 bd3d 344d 973d 742d 2abe
00000350: 585a 5dbc f239 973d 43a3 c9bd be31 2cbe
00000360: 7232 703c f357 e7bd 727d 8c3d 1b7d d9bc
00000370: 216a 9d3c 9c2b b73d 86fc d63d 9f9c 5e3d
00000380: e6dc 28bd dc7d bdbc 6fda f53b 84ec c6bd
00000390: fba1 bbbd 94b9 2fbe a2ab a8be 9dd9 ae3d
000003a0: 4c9f d7bd 6e72 7ebd 369a 193d f83c 8ebc
000003b0: 5856 f53c 4e29 91bc 0103 ffbd 89be 1fbe
000003c0: b305 71bd 0442 4fbd 1fb2 9ebd 4501 66be
000003d0: e78b 86bd 0014 e73c 2328 0f3d bf42 07be
000003e0: fa90 03be 3076 e73d 65fa d93c d766 733d
000003f0: 230f eebd 00e7 9f3d fb64 613d b889 d13d
